Proj_253133_270642_271518/Proj2/parameters.pt (torch_old, 104445 bytes, 28 tensors)

x f4 [100, 2]
0.74697226 0.7109575 0.4789827 0.22170866 0.69511425 0.068724155 0.64237964 0.57881606
0.8198998 0.74349713 0.31537414 0.19153267 0.92816997 0.33547455 0.23010784 0.27415824
0.5846052 0.77052945 0.4307121 0.8327221 0.82398486 0.22960263 0.6212615 0.9499301
0.6851065 0.97557837 0.13248014 0.69372195 0.5675918 0.2040847 0.21340609 0.27921706
0.11435306 0.5900822 0.32369512 0.2559117 0.8076954 0.40430784 0.72749704 0.8805624
0.91035956 0.107109904 0.27534664 0.21286112 0.022197247 0.0667699 0.22200435 0.48213565
0.7259421 0.25723648 0.096184075 0.5200918 0.5320324 0.8255511 0.4148757 0.29536414
0.52884316 0.9486866 0.37273616 0.1813342 0.77545244 0.89446056 0.34568822 0.96037906
0.7979662 0.20341682 0.2640127 0.347516 0.97751135 0.68965566 0.6043092 0.3851334
0.20786446 0.11031443 0.98822063 0.9874693 0.15148771 0.28626359 0.19461602 0.6486333
0.015048146 0.7950931 0.24425894 0.7686336 0.35054028 0.8906371 0.11860311 0.5008228
0.5759447 0.23871082 0.50238496 0.44365996 0.1291117 0.15995121 0.10807979 0.77789277
0.3130861 0.42474484 0.31567717 0.16869652 0.76335555 0.46350956 0.12067348 0.8100543
0.09939128 0.6724048 0.042856634 0.18739009 0.22566658 0.25745308 0.8519989 0.9674631
0.39305615 0.26333445 0.5218832 0.26557213 0.6110187 0.45521432 0.0956254 0.71227133
0.7544624 0.26083678 0.6235659 0.65251803 0.46835697 0.79245466 0.32599682 0.9293197
0.7261077 0.27516502 0.3966571 0.81030196 0.75502306 0.9634603 0.5167103 0.8646876
0.19562066 0.61319673 0.9699964 0.28132772 0.79608214 0.89591414 0.41355455 0.5700626
0.8243437 0.7385782 0.6781619 0.5426664 0.09829879 0.07326287 0.7821124 0.8658928
0.28099382 0.39465064 0.4985414 0.11933142 0.7261998 0.2896055 0.9159779 0.9854208
0.17593288 0.12700212 0.07711482 0.25732714 0.040033937 0.82067615 0.881649 0.93310493
0.99275494 0.30811703 0.38845426 0.8849496 0.37885094 0.05490601 0.6137298 0.20436358
0.7197846 0.14433354 0.10416621 0.56804013 0.36595213 0.6403617 0.65333384 0.4838431
0.32490492 0.9654124 0.22184777 0.7469663 0.4736699 0.45234132 0.95047355 0.18755579
0.10719979 0.35558468 0.19933522 0.6516629 0.40245837 0.9371875 0.59419084 0.89204186
00000000: 9339 3f3f 5001 363f 383d f53e 9807 633e
00000010: 02f3 313f 40bf 8c3d fe72 243f 4a2d 143f
00000020: f4e4 513f d455 3e3f b878 a13e 2421 443e
00000030: 8c9c 6d3f 52c3 ab3e 64a1 6b3e 785e 8c3e
00000040: b0a8 153f 6b41 453f 4c86 dc3e 472d 553f
00000050: acf0 523f f41c 6b3e fe0a 1f3f 9e2e 733f
00000060: 2463 2f3f 81bf 793f e0a8 073e c397 313f
00000070: b24d 113f 94fb 503e 2087 5a3e 8af5 8e3e
00000080: f031 ea3d a10f 173f 5ebb a53e dc06 833e
00000090: 20c5 4e3f 7001 cf3e 3f3d 3a3f 8a6c 613f
000000a0: 530d 693f 705c db3d 3cfa 8c3e 44f8 593e
000000b0: 00d7 b53c a8be 883d 1c55 633e 7cda f63e
000000c0: 57d7 393f 80b4 833e 28fc c43d bc24 053f
000000d0: 4633 083f 5157 533f 966a d43e f839 973e
000000e0: 4462 073f 20dd 723f 46d7 be3e acaf 393e
000000f0: 0d84 463f 5efb 643f 0cfe b03e 67db 753f
00000100: 8347 4c3f 804c 503e ac2c 873e 9eed b13e
00000110: 2f3e 7a3f 468d 303f 02b4 1a3f 3430 c53e
00000120: 6cda 543e 88ec e13d 07fc 7c3f caca 7c3f
00000130: 981f 1b3e 2491 923e 6c49 473e d50c 263f
00000140: 808c 763c 398b 4b3f 041f 7a3e 2cc5 443f
00000150: 047a b33e cb00 643f 30e6 f23d ec35 003f
00000160: 1d71 133f 9c70 743e 4d9c 003f 6627 e33e
00000170: dc35 043e 40ca 233e f058 dd3d fb23 473f
00000180: d24c a03e 2878 d93e 70a0 a13e c8be 2c3e
00000190: 456b 433f 2051 ed3e a823 f73d b85f 4f3f
000001a0: a88d cb3d b922 2c3f 708a 2f3d 30e3 3f3e
000001b0: 2415 673e e4d0 833e 9a1c 5a3f a9ab 773f
000001c0: a83e c93e c6d3 863e 239a 053f 12f9 873e
000001d0: b96b 1c3f da11 e93e 40d7 c33d 6a57 363f
000001e0: 7324 413f 668c 853e 04a2 1f3f 6c0b 273f
000001f0: 7ccc ef3e 4fde 4a3f 0ee9 a63e e5e7 6d3f
00000200: 32e2 393f 6ee2 8c3e a416 cb3e f36f 4f3f
00000210: 3149 413f 56a5 763f 2047 043f 2b5c 5d3f
00000220: c850 483e 76fa 1c3f af51 783f 300a 903e
00000230: 0acc 4b3f a15a 653f 6cbd d33e 9fef 113f
00000240: 3008 533f 7613 3d3f 059c 2d3f 2fec 0a3f
00000250: e050 c93d d80a 963d 8538 483f 27ab 5d3f
00000260: 6cde 8f3e a60f ca3e d240 ff3e 0864 f43d
00000270: 3be8 393f 2c47 943e 877d 6a3f 8a44 7c3f
00000280: c027 343e d80c 023e 60ee 9d3d 62c0 833e
00000290: a0fa 233d d517 523f c0b3 613f f7df 6e3f
000002a0: 3025 7e3f 84c1 9d3e 7ae3 c63e 0f8c 623f
000002b0: c0f8 c13e 20e5 603d 651d 1d3f b044 513e
000002c0: ce43 383f 2ccc 133e 1855 d53d 146b 113f
000002d0: 145e bb3e bfee 233f e340 273f 48ba f73e
000002e0: f059 a63e 4425 773f 102c 633e 2f39 3f3f
000002f0: dc84 f23e 4899 e73e 3c52 733f a00e 403e
00000300: 908b db3d 320f b63e 881e 4c3e 61d3 263f
00000310: 060f ce3e 85eb 6f3f e41c 183f db5c 643f

output f4 [100, 25]
-0.25456026 0.46736917 1.6690664 0.15894079 -0.13733776 0.21376827 -0.64139366 0.39164168
-0.8681076 -0.5171603 -0.85415065 -0.5216897 0.5621484 -0.09618547 -1.1321727 -0.6048868
-0.07704271 0.32177502 -0.9237442 0.7638236 0.25528824 -0.8298412 -0.9642359 -0.49670166
0.62789655 -0.2519022 0.3254407 0.93084526 -0.19496037 -0.19561867 0.25377965 -0.46085823
0.48086393 -0.5208072 -0.58676755 -0.6794775 -0.5665213 0.34692174 -0.09815978 -0.70102
-0.4637021 -0.2278733 -0.012753367 -0.5360987 0.64897025 0.5950002 -0.6525775 -0.676546
-0.14842275 0.5043111 -0.22107504 0.37504542 0.97998345 -0.29577965 -0.11458248 0.46232674
-0.601384 0.42980856 -0.5639364 -0.7500993 -0.69356924 -0.6746862 0.1582549 -0.22634915
-0.74842083 -0.24286765 -0.3964691 0.015529424 -0.5029839 0.7486812 0.74387175 -0.7441125
-0.59673893 -0.22569701 0.6375325 -0.25706378 0.4189421 1.4396118 0.062298357 -0.163739
0.20352158 -0.5714781 0.42421913 -0.7580102 -0.520757 -0.79959387 -0.5236874 0.51705205
-0.08301804 -0.9961529 -0.58572954 -0.10473931 0.21715057 -0.8095833 0.7182373 0.3424612
-0.76618063 -0.8854434 -0.38264006 0.5760597 -0.24922612 0.4940758 1.7696024 0.18428689
-0.11522527 0.24712324 -0.68959016 0.37120187 -0.91908205 -0.5385396 -0.87839174 -0.5360047
0.5541652 -0.11949197 -1.194326 -0.58181554 -0.08932082 0.36843866 -0.96571195 0.7963797
0.24052924 -0.86863136 -0.985235 -0.55407053 0.6676917 -0.26644766 0.27059868 0.7480194
-0.22161517 -0.24788849 0.16011557 -0.35312924 0.5250846 -0.4249823 -0.52163976 -0.6350097
-0.52311903 0.39316285 -0.03572286 -0.5850708 -0.5416378 -0.17762841 -0.098551705 -0.46898752
0.5753787 0.5950403 -0.569576 -0.65382373 -0.03564346 0.41240916 -0.21382931 0.4796718
1.4636363 -0.09997088 -0.054033548 0.49733683 -0.7569147 0.3582757 -0.7972746 -0.7531837
-0.8087226 -0.67753327 0.24042083 -0.26225227 -1.036316 -0.2686283 -0.34943235 0.23644274
-0.7398751 0.85061586 0.5710144 -0.8833617 -0.7565371 -0.46955502 0.7547334 -0.27995038
0.25366715 0.7508513 -0.16613099 -0.28124243 0.06804648 -0.29789668 0.5443764 -0.41760573
-0.44827685 -0.6346071 -0.47457668 0.482328 0.020128004 -0.57858586 -0.64237297 -0.099310294
-0.09988631 -0.49611467 0.53575355 0.51910996 -0.5355562 -0.6979918 -0.013439581 0.3584872
-0.27438566 0.42354697 1.5769296 0.19563311 -0.19477491 0.08144467 -0.5353118 0.43210965
-0.8117507 -0.4166463 -0.83074725 -0.45502216 0.667261 -0.013004735 -1.0662018 -0.7369499
0.020271301 0.27611178 -0.91366744 0.6896326 0.18619806 -0.75587714 -0.9926657 -0.41806573
0.53120697 -0.2935214 0.38269055 1.4953173 0.23445219 -0.24957053 -0.046492934 -0.43481946
0.4702469 -0.7608148 -0.31908154 -0.809892 -0.39032376 0.77067846 0.06719287 -1.0068166
-0.86562306 0.115543604 0.23535901 -0.90773475 0.6192395 0.11628896 -0.6863115 -1.0228748
-0.3456645 0.43921247 -0.21787386 0.4344841 1.2607679 -0.17806993 -0.08193269 0.47580314
00000000: b955 82be 034b ef3e f8a3 d53f 60c1 223e
00000010: 45a2 0cbe 12e6 5a3e 6032 24bf 4285 c83e
00000020: 4d3c 5ebf 9e64 04bf 9ea9 5abf 758d 05bf
00000030: f5e8 0f3f e3fc c4bd 09eb 90bf dcd9 1abf
00000040: 91c8 9dbd b2bf a43e 807a 6cbf f289 433f
00000050: 24b5 823e 7970 54bf 2ad8 76bf ae4f febe
00000060: d4bd 203f 53f9 80be 2aa0 a63e e04b 6e3f
00000070: b1a3 47be 4350 48be 68ef 813e 9cf5 ebbe
00000080: cc33 f63e 9f53 05bf 6636 16bf 3df2 2dbf
00000090: 8a07 11bf ba9f b13e ff07 c9bd 0c76 33bf
000000a0: 5d6a edbe 9e57 69be 80f3 50bc c43d 09bf
000000b0: ea22 263f ef51 183f 520f 27bf 1e32 2dbf
000000c0: 22fc 17be 881a 013f 7f61 62be f405 c03e
000000d0: 32e0 7a3f 6e70 97be 38aa eabd 17b6 ec3e
000000e0: 4df4 19bf de0f dc3e 235e 10bf 8206 40bf
000000f0: c18d 31bf 3cb8 2cbf 930d 223e 12c8 67be
00000100: 8298 3fbf 4cb2 78be fffd cabe 206f 7e3c
00000110: 8ec3 00bf 92a9 3f3f 616e 3e3f 287e 3ebf
00000120: e2c3 18bf 1e1d 67be 5435 233f dd9d 83be
00000130: 947f d63e 3345 b83f 902c 7f3d 32ab 27be
00000140: f667 503e 644c 12bf 4033 d93e f50c 42bf
00000150: 5550 05bf 2fb2 4cbf 6110 06bf 865d 043f
00000160: 5d05 aabd e003 7fbf 5ff2 15bf 9081 d6bd
00000170: b85c 5e3e da40 4fbf 66de 373f 1357 af3e
00000180: 6a24 44bf 6bac 62bf 66e9 c3be a678 133f
00000190: 2235 7fbe 81f7 fc3e 5582 e23f b4b5 3c3e
000001a0: 3afb ebbd e00d 7d3e fb88 30bf 2c0e be3e
000001b0: f648 6bbf bbdd 09bf 48de 60bf 9b37 09bf
000001c0: c5dd 0d3f 35b8 f4bd addf 98bf ddf1 14bf
000001d0: d6ed b6bd fea3 bc3e e638 77bf 8adf 4b3f
000001e0: 4c4d 763e a05e 5ebf 5c38 7cbf 91d7 0dbf
000001f0: d8ed 2a3f d46b 88be e98b 8a3e 337e 3f3f
00000200: 16ef 62be 7bd6 7dbe 56f5 233e 5bcd b4be
00000210: f26b 063f 4897 d9be 2f8a 05bf ff8f 22bf
00000220: 21eb 05bf a44c c93e 2252 12bd 33c7 15bf
00000230: c6a8 0abf 39e4 35be 7ad5 c9bd 221f f0be
00000240: 054c 133f 9054 183f bccf 11bf fe60 27bf
00000250: e0fe 11bd 4b27 d33e 12f6 5abe 8b97 f53e
00000260: 6f58 bb3f 88bd ccbd 4852 5dbd efa2 fe3e
00000270: 29c5 41bf ea6f b73e 301a 4cbf a6d0 40bf
00000280: 7208 4fbf d272 2dbf e130 763e ee45 86be
00000290: 01a6 84bf a689 89be cce8 b2be 0c1e 723e
000002a0: 7468 3dbf f6c1 593f 002e 123f fe23 62bf
000002b0: 6aac 41bf 8469 f0be 3536 413f a855 8fbe
000002c0: a9e0 813e ca37 403f 3e1e 2abe 02ff 8fbe
000002d0: f45b 8b3d ea85 98be 405c 0b3f 6bd0 d5be
000002e0: 8b84 e5be 9c75 22bf b7fb f2be b2f3 f63e
000002f0: 7ce3 a43c 341e 14bf 8e72 24bf 3263 cbbd
00000300: 3291 ccbd be02 febe 2527 093f 64e4 043f
00000310: 361a 09bf 97af 32bf b031 5cbc a28b b73e
00000320: 477c 8cbe 26db d83e d4d8 c93f 0c54 483e
00000330: 1373 47be 77cc a63d 320a 09bf 7a3d dd3e
00000340: e5ce 4fbf aa52 d5be daab 54bf aaf8 e8be
00000350: 9ed1 2a3f d011 55bc 4d79 88bf c0a8 3cbf
00000360: 0010 a63c 865e 8d3e 1ce6 69bf c38b 303f
00000370: b4aa 3e3e 2a81 41bf 571f 7ebf b60c d6be
00000380: 2efd 073f 7048 96be 04f0 c33e 8f66 bf3f
00000390: 3c14 703e 6b8f 7fbe 606f 3ebd a8a0 debe
000003a0: 34c4 f03e c2c4 42bf a85e a3be 1555 4fbf
000003b0: 84d8 c7be 2f4b 453f 6a9c 893d 5edf 80bf
000003c0: 7999 5dbf 20a2 ec3d f401 713e 4e61 68bf
000003d0: 7b86 1e3f e828 ee3d 1cb2 2fbf 90ed 82bf
000003e0: f0fa b0be 75e0 e03e 531a 5fbe b374 de3e
000003f0: d860 a13f f757 36be 54cc a7bd 789c f33e

x f4 [2, 25]
0.100009985 0.3133555 0.9334664 0.03281772 0.33094466 0.6536054 -0.65674627 -0.26324314
-0.5058764 -0.4719971 -0.22908917 -0.3138944 -0.4046513 -0.42533946 -0.607539 0.58909446
-0.4048685 0.44306132 -0.29373202 0.45218813 0.1421868 -0.48999462 -0.033846032 -0.6207399
0.57301944 -0.060214154 0.11845188 0.99757385 0.70538 -0.06215407 -0.43979827 -0.009267867
-0.038172483 -0.43276712 0.40081352 -0.23153782 0.26357144 0.6615631 0.23701812 -0.5484705
-0.611255 0.53005975 0.4410692 -0.63143384 -0.012934779 -0.772238 -0.09391996 -0.5694843
-0.37184975 -0.06127298
00000000: 09d2 cc3d 2270 a03e a7f7 6e3f e06b 063d
00000010: 9471 a93e af52 273f 8620 28bf cec7 86be
00000020: 1e81 01bf 9ba9 f1be 5a96 6abe c4b6 a0be
00000030: 752e cfbe 18c6 d9be ad87 1bbf e5ce 163f
00000040: ed4a cfbe efd8 e23e 0b64 96be 3485 e73e
00000050: 6b99 113e 93e0 fabe 23a2 0abd cfe8 1ebf
00000060: 67b1 123f 1ea3 76bd e696 f23d 0061 7f3f
00000070: c993 343f 4495 7ebd 3d2d e1be 40d8 17bc
00000080: c05a 1cbd a793 ddbe 6e37 cd3e 4018 6dbe
00000090: d6f2 863e 335c 293f e1b4 723e 9068 0cbf
000000a0: 357b 1cbf ffb1 073f d2d3 e13e a6a5 21bf
000000b0: 65ec 53bc 64b1 45bf 1c59 c0bd b9c9 11bf
000000c0: 1763 bebe 60f9 7abd

b f4 [1, 25]
1.0 1.0 1.0 1.0 1.0 1.0 1.0 1.0
1.0 1.0 1.0 1.0 1.0 1.0 1.0 1.0
1.0 1.0 1.0 1.0 1.0 1.0 1.0 1.0
1.0
00000000: 0000 803f 0000 803f 0000 803f 0000 803f
00000010: 0000 803f 0000 803f 0000 803f 0000 803f
00000020: 0000 803f 0000 803f 0000 803f 0000 803f
00000030: 0000 803f 0000 803f 0000 803f 0000 803f
00000040: 0000 803f 0000 803f 0000 803f 0000 803f
00000050: 0000 803f 0000 803f 0000 803f 0000 803f
00000060: 0000 803f

grad f4 [2, 25]
0.000689144 -0.0004699902 -0.006116078 0.0 -0.00043039816 -0.0028549568 0.0 0.0
-0.0012084527 -4.4305852e-06 0.0019238107 0.0 3.4090364e-05 0.0 0.00013666152 0.0
-0.0020789327 -0.00019804496 0.0 -0.00019691842 0.0038529113 0.00012460395 -6.126752e-05 0.0
0.0 -0.0006259376 8.282371e-05 0.004409274 0.0 0.0006942887 0.0023340848 0.0
0.0 0.00082905346 0.00036175564 -0.0012727833 0.0 3.4393004e-05 0.0 -0.0005264731
0.0 0.0015631526 -2.7717557e-05 0.0 2.0644082e-05 -0.0025651802 0.0005896785 0.0005622475
0.0 0.0
00000000: aca7 343a 0469 f6b9 6169 c8bb 0000 0000
00000010: 10a7 e1b9 3a1a 3bbb 0000 0000 0000 0000
00000020: f264 9eba 70aa 94b6 6028 fc3a 0000 0000
00000030: 40fc 0e38 0000 0000 cc4c 0f39 0000 0000
00000040: b43e 08bb 4aaa 4fb9 0000 0000 e37b 4eb9
00000050: 2081 7c3b 1ea8 0239 c07c 80b8 0000 0000
00000060: 0000 0000 f615 24ba a4b1 ad38 ac7b 903b
00000070: 0000 0000 ed00 363a 72f7 183b 0000 0000
00000080: 0000 0000 d654 593a 05aa bd39 85d3 a6ba
00000090: 0000 0000 3541 1038 0000 0000 0303 0aba
000000a0: 0000 0000 b3e2 cc3a 0083 e8b7 0000 0000
000000b0: d42c ad37 951c 28bb a794 1a3a ca63 133a
000000c0: 0000 0000 0000 0000

p f4 [1, 25]
-0.28645524 0.14908704 0.26256025 -0.36706835 -0.34035534 0.03822107 -0.14423335 0.615416
-0.18255292 -0.44955295 -0.51841384 -0.4746074 0.39406845 0.053021483 -0.28841868 -0.6103476
-0.15146711 -0.32276094 -0.25541183 0.4352477 0.69810706 -0.3970557 -0.5340747 0.23134321
0.24342942
00000000: 43aa 92be 46aa 183e 4c6e 863e 62f0 bbbe
00000010: 0e43 aebe b28d 1c3d e8b1 13be e78b 1d3f
00000020: 27ef 3abe ce2b e6be c5b6 04bf beff f2be
00000030: 57c3 c93e 0e2d 593d 9dab 93be be3f 1cbf
00000040: 321a 1bbe ec40 a5be 57c5 82be c9d8 de3e
00000050: 25b7 323f e24a cbbe 1fb9 08bf 3ce5 6c3e
00000060: 9045 793e

grad f4 [1, 25]
-0.0069611003 0.0043059983 0.046139915 0.0 0.00805262 0.019370576 0.0 0.0
0.010435356 -0.00062019 -0.009992738 0.0 3.7064336e-05 0.0 -0.0010853164 0.0
0.017950552 0.0005215257 0.0 -0.00073223165 -0.030119888 -0.0016485832 0.010618389 0.0
0.0
00000000: f119 e4bb 5519 8d3b 35fd 3c3d 0000 0000
00000010: 23ef 033c 0baf 9e3c 0000 0000 0000 0000
00000020: 0ef9 2a3c 3f94 22ba 95b8 23bc 0000 0000
00000030: 8775 1b38 0000 0000 2d41 8eba 0000 0000
00000040: 090d 933c ffb6 083a 0000 0000 3cf3 3fba
00000050: fcbd f6bc 4615 d8ba c0f8 2d3c 0000 0000
00000060: 0000 0000

x f4 [100, 25]
-0.32489717 0.8301227 0.2883629 -0.28877032 -0.4495711 0.10491259 -0.12860367 -0.1158246
0.5023413 0.21129557 0.32922938 -0.26116532 -0.066749394 -0.09253407 0.31540522 -0.3771044
-0.70087296 0.16956864 -0.1131099 0.23350078 0.5717217 0.28216836 -0.13642195 -0.23364213
-0.5666096 0.016773216 0.5513931 0.3315497 -0.19725448 0.0062280595 0.19434422 -0.08749574
-0.04578819 0.4570309 -0.0035832524 0.18295193 -0.29442608 -0.20579231 -0.15094191 0.0790905
-0.29419148 0.029758155 0.1563941 -0.07410396 0.12118036 0.32234833 -0.00985942 0.00045196712
-0.14935723 -0.39024138 -0.0057589635 0.57460195 0.32089454 -0.20697477 -0.044592887 0.18490188
-0.09246671 -0.029023224 0.465891 0.012104839 0.2097817 -0.29116744 -0.19281426 -0.15013933
0.08007037 -0.29174083 -0.049108922 0.17145836 -0.07761762 0.12931445 0.3453249 0.0051761866
-0.03104119 -0.15370274 -0.40474135 -0.2225287 0.74783087 0.29034674 -0.26616395 -0.30305216
0.12871403 -0.11017839 -0.098810345 0.4874407 0.13720483 0.28445408 -0.2568374 -0.11127253
-0.107627004 0.23281237 -0.34179306 -0.48291743 0.16423121 -0.1006683 0.2063497 0.50312364
0.18457827 -0.08585398 -0.22107069 -0.5126401 -0.36650237 0.8677006 0.28655517 -0.2980458
-0.51196563 0.09359183 -0.13680913 -0.120982364 0.51129055 0.2438049 0.34903634 -0.26225448
-0.048179395 -0.08802739 0.3483058 -0.389848 -0.7986174 0.17266306 -0.120429546 0.24706137
0.60385025 0.32233113 -0.1594105 -0.24115627 -0.59007955 0.10009849 0.448256 0.37070647
-0.1699878 0.1333225 0.21693473 -0.06648435 -0.036218084 0.4232105 -0.046798766 0.11240711
-0.31827775 -0.22647065 -0.1558195 0.03649438 -0.29054826 0.25157595 0.13301045 -0.056936048
0.08473172 0.21703988 -0.06273201 0.060826935 -0.11813739 -0.3444267 -0.20898151 0.7679287
0.28521392 -0.26397297 -0.3167129 0.123623535 -0.1189209 -0.075891726 0.51260537 0.14683574
0.2961215 -0.2574476 -0.110755466 -0.12210579 0.21830612 -0.32805187 -0.52370626 0.18084745
-0.115839064 0.21835586 0.52259636 0.1739389 -0.10965273 -0.22622384 -0.5151834 0.096568406
0.45402142 0.36901194 -0.16973366 0.13752486 0.21745887 -0.0674341 -0.047770116 0.42553008
-0.047991276 0.1111295 -0.3158024 -0.23108509 -0.1551275 0.04450161 -0.29242158 0.25319308
0.12889212 -0.058214515 0.08630096 0.22514781 -0.061936647 0.0659338 -0.12126535 -0.34487063
-0.30013907 0.7934855 0.29266417 -0.28320813 -0.4004257 0.1189384 -0.12079649 -0.119276665
0.4860385 0.1822111 0.31198025 -0.26278 -0.07933213 -0.08992412 0.29884535 -0.37567806
-0.60663384 0.16595078 -0.09924369 0.2158188 0.53600335 0.25501993 -0.11267954 -0.21943271
-0.5466771 -0.2954799 0.7797433 0.2878158 -0.28321245 -0.37177125 0.13139859 -0.1151574
-0.1212996 0.47606367 0.16493812 0.30929685 -0.25858286 -0.08144645 -0.09040065 0.29958236
-0.37825173 -0.5584717 0.17350847 -0.086683095 0.20070806 0.5166255 0.23776221 -0.09761569
-0.20593202 -0.5331575 -0.13002557 0.6936165 0.29210287 -0.24725571 -0.2066516 0.15213588
00000000: ec58 a6be ec82 543f 4da4 933e b4d9 93be
00000010: 2f2e e6be 69dc d63d aeb0 03be 7335 edbd
00000020: 7099 003f de5d 583e c190 a83e 76b7 85be
00000030: e8b3 88bd 8182 bdbd cb7c a13e d413 c1be
00000040: 696c 33bf 67a3 2d3e 2aa6 e7bd d41a 6f3e
00000050: 5a5c 123f 5f78 903e 32b2 0bbe e23f 6fbe
00000060: 540d 11bf fc67 893c 1928 0d3f e2c0 a93e
00000070: 14fd 49be c014 cc3b 2c02 473e f730 b3bd
00000080: 668c 3bbd f4ff e93e 00d5 6abb c057 3b3e
00000090: 04bf 96be 38bb 52be 8490 1abe 33fa a13d
000000a0: 44a0 96be 60c7 f33c c625 203e d1c3 97bd
000000b0: 692d f83d d70a a53e 6889 21bc 00f6 ec39
000000c0: 1af1 18be b8cd c7be b0b5 bcbb 1d19 133f
000000d0: 4a4c a43e 32f1 53be 08a7 36bd eb56 3d3e
000000e0: 305f bdbd 1dc2 edbc 4489 ee3e 6053 463c
000000f0: 04d1 563e e613 95be 1a71 45be 20be 19be
00000100: effb a33d 0e5f 95be 7026 49bd c892 2f3e
00000110: fdf5 9ebd 026b 043e 6dce b03e 009d a93b
00000120: 184a febc 4064 1dbe 423a cfbe 90de 63be
00000130: d871 3f3f 54a8 943e a446 88be a729 9bbe
00000140: 9ccd 033e 35a5 e1bd 145d cabd d491 f93e
00000150: 6c7f 0c3e f7a3 913e 3180 83be dae2 e3bd
00000160: 8c6b dcbd 5e66 6e3e 80ff aebe f440 f7be
00000170: 3a2c 283e 2f2b cebd 564d 533e b6cc 003f
00000180: 1602 3d3e 36d4 afbd 5b60 62be 623c 03bf
00000190: 33a6 bbbe a021 5e3f 5cb7 923e 7699 98be
000001a0: 2e10 03bf 13ad bf3d b117 0cbe 9ac5 f7bd
000001b0: f0e3 023f fea7 793e e4b4 b23e 3846 86be
000001c0: c257 45bd b447 b4bd 2355 b23e 289a c7be
000001d0: 3172 4cbf 96ce 303e c4a3 f6bd a8fd 7c3e
000001e0: ee95 1a3f 9608 a53e 823c 23be abf1 76be
000001f0: 740f 17bf 7000 cd3d cf81 e53e 3dcd bd3e
00000200: 4811 2ebe b285 083e 2324 5e3e f228 88bd
00000210: 6a59 14bd 0caf d83e 10b0 3fbd b335 e63d
00000220: 4df5 a2be ece7 67be 268f 1fbe 227b 153d
00000230: bec2 94be 90ce 803e e433 083e c635 69bd
00000240: d387 ad3d b43f 5e3e a479 80bd aa25 793d
00000250: 04f2 f1bd b258 b0be 40ff 55be fa96 443f
00000260: 8f07 923e 7727 87be 3128 a2be 562e fd3d
00000270: cd8c f3bd 1f6d 9bbd 1b3a 033f 1c5c 163e
00000280: 3d9d 973e 2cd0 83be c3d3 e2bd 9a12 fabd
00000290: a48b 5f3e 6af6 a7be 9d11 06bf 1330 393e
000002a0: 083d edbd ae98 5f3e e0c8 053f 0a1d 323e
000002b0: 9c91 e0bd 39a7 67be 0fe3 03bf a8c5 c53d
000002c0: 7f75 e83e 22ef bc3e a9ce 2dbe 51d3 0c3e
000002d0: 8aad 5e3e e41a 8abd 99aa 43bd 14df d93e
000002e0: 8092 44bd dd97 e33d dab0 a1be 92a1 6cbe
000002f0: bed9 1ebe 5247 363d 48b8 95be 86a2 813e
00000300: 4cfc 033e 5872 6ebd 8fbe b03d 268d 663e
00000310: 48b1 7dbd 4d08 873d f859 f8bd e292 b0be
00000320: d4ab 99be de21 4b3f 14d8 953e a800 91be
00000330: 9904 cdbe fa95 f33d 2664 f7bd 5347 f4bd
00000340: 0ada f83e 8c95 3a3e e0bb 9f3e 1a8b 86be
00000350: e278 a2bd 232a b8bd 4202 993e e058 c0be
00000360: 5b4c 1bbf 00ef 293e 4740 cbbd 9aff 5c3e
00000370: 8437 093f f991 823e 88c4 e6bd f8b2 60be
00000380: 08f3 0bbf 2449 97be 429d 473f 985c 933e
00000390: 3901 91be cd58 bebe 5a8d 063e a5d7 ebbd
000003a0: ed6b f8bd 9ebe f33e 8ae5 283e 285c 9e3e
000003b0: f964 84be 65cd a6bd fa23 b9bd dc62 993e
000003c0: 36aa c1be 00f8 0ebf 34ac 313e e886 b1bd
000003d0: 6a86 4d3e 9241 043f f077 733e bcea c7bd
000003e0: d8df 52be 037d 08bf 6c25 05be da90 313f
000003f0: 828e 953e 9a30 7dbe 7a9c 53be 82c9 1b3e

x f4 [100, 25]
-0.0 0.46736917 1.6690664 0.15894079 -0.0 0.21376827 -0.0 0.39164168
-0.0 -0.0 -0.0 -0.0 0.5621484 -0.0 -0.0 -0.0
-0.0 0.32177502 -0.0 0.7638236 0.25528824 -0.0 -0.0 -0.0
0.62789655 -0.0 0.3254407 0.93084526 -0.0 -0.0 0.25377965 -0.0
0.48086393 -0.0 -0.0 -0.0 -0.0 0.34692174 -0.0 -0.0
-0.0 -0.0 -0.0 -0.0 0.64897025 0.5950002 -0.0 -0.0
-0.0 0.5043111 -0.0 0.37504542 0.97998345 -0.0 -0.0 0.46232674
-0.0 0.42980856 -0.0 -0.0 -0.0 -0.0 0.1582549 -0.0
-0.0 -0.0 -0.0 0.015529424 -0.0 0.7486812 0.74387175 -0.0
-0.0 -0.0 0.6375325 -0.0 0.4189421 1.4396118 0.062298357 -0.0
0.20352158 -0.0 0.42421913 -0.0 -0.0 -0.0 -0.0 0.51705205
-0.0 -0.0 -0.0 -0.0 0.21715057 -0.0 0.7182373 0.3424612
-0.0 -0.0 -0.0 0.5760597 -0.0 0.4940758 1.7696024 0.18428689
-0.0 0.24712324 -0.0 0.37120187 -0.0 -0.0 -0.0 -0.0
0.5541652 -0.0 -0.0 -0.0 -0.0 0.36843866 -0.0 0.7963797
0.24052924 -0.0 -0.0 -0.0 0.6676917 -0.0 0.27059868 0.7480194
-0.0 -0.0 0.16011557 -0.0 0.5250846 -0.0 -0.0 -0.0
-0.0 0.39316285 -0.0 -0.0 -0.0 -0.0 -0.0 -0.0
0.5753787 0.5950403 -0.0 -0.0 -0.0 0.41240916 -0.0 0.4796718
1.4636363 -0.0 -0.0 0.49733683 -0.0 0.3582757 -0.0 -0.0
-0.0 -0.0 0.24042083 -0.0 -0.0 -0.0 -0.0 0.23644274
-0.0 0.85061586 0.5710144 -0.0 -0.0 -0.0 0.7547334 -0.0
0.25366715 0.7508513 -0.0 -0.0 0.06804648 -0.0 0.5443764 -0.0
-0.0 -0.0 -0.0 0.482328 0.020128004 -0.0 -0.0 -0.0
-0.0 -0.0 0.53575355 0.51910996 -0.0 -0.0 -0.0 0.3584872
-0.0 0.42354697 1.5769296 0.19563311 -0.0 0.08144467 -0.0 0.43210965
-0.0 -0.0 -0.0 -0.0 0.667261 -0.0 -0.0 -0.0
0.020271301 0.27611178 -0.0 0.6896326 0.18619806 -0.0 -0.0 -0.0
0.53120697 -0.0 0.38269055 1.4953173 0.23445219 -0.0 -0.0 -0.0
0.4702469 -0.0 -0.0 -0.0 -0.0 0.77067846 0.06719287 -0.0
-0.0 0.115543604 0.23535901 -0.0 0.6192395 0.11628896 -0.0 -0.0
-0.0 0.43921247 -0.0 0.4344841 1.2607679 -0.0 -0.0 0.47580314
00000000: 0000 0080 034b ef3e f8a3 d53f 60c1 223e
00000010: 0000 0080 12e6 5a3e 0000 0080 4285 c83e
00000020: 0000 0080 0000 0080 0000 0080 0000 0080
00000030: f5e8 0f3f 0000 0080 0000 0080 0000 0080
00000040: 0000 0080 b2bf a43e 0000 0080 f289 433f
00000050: 24b5 823e 0000 0080 0000 0080 0000 0080
00000060: d4bd 203f 0000 0080 2aa0 a63e e04b 6e3f
00000070: 0000 0080 0000 0080 68ef 813e 0000 0080
00000080: cc33 f63e 0000 0080 0000 0080 0000 0080
00000090: 0000 0080 ba9f b13e 0000 0080 0000 0080
000000a0: 0000 0080 0000 0080 0000 0080 0000 0080
000000b0: ea22 263f ef51 183f 0000 0080 0000 0080
000000c0: 0000 0080 881a 013f 0000 0080 f405 c03e
000000d0: 32e0 7a3f 0000 0080 0000 0080 17b6 ec3e
000000e0: 0000 0080 de0f dc3e 0000 0080 0000 0080
000000f0: 0000 0080 0000 0080 930d 223e 0000 0080
00000100: 0000 0080 0000 0080 0000 0080 206f 7e3c
00000110: 0000 0080 92a9 3f3f 616e 3e3f 0000 0080
00000120: 0000 0080 0000 0080 5435 233f 0000 0080
00000130: 947f d63e 3345 b83f 902c 7f3d 0000 0080
00000140: f667 503e 0000 0080 4033 d93e 0000 0080
00000150: 0000 0080 0000 0080 0000 0080 865d 043f
00000160: 0000 0080 0000 0080 0000 0080 0000 0080
00000170: b85c 5e3e 0000 0080 66de 373f 1357 af3e
00000180: 0000 0080 0000 0080 0000 0080 a678 133f
00000190: 0000 0080 81f7 fc3e 5582 e23f b4b5 3c3e
000001a0: 0000 0080 e00d 7d3e 0000 0080 2c0e be3e
000001b0: 0000 0080 0000 0080 0000 0080 0000 0080
000001c0: c5dd 0d3f 0000 0080 0000 0080 0000 0080
000001d0: 0000 0080 fea3 bc3e 0000 0080 8adf 4b3f
000001e0: 4c4d 763e 0000 0080 0000 0080 0000 0080
000001f0: d8ed 2a3f 0000 0080 e98b 8a3e 337e 3f3f
00000200: 0000 0080 0000 0080 56f5 233e 0000 0080
00000210: f26b 063f 0000 0080 0000 0080 0000 0080
00000220: 0000 0080 a44c c93e 0000 0080 0000 0080
00000230: 0000 0080 0000 0080 0000 0080 0000 0080
00000240: 054c 133f 9054 183f 0000 0080 0000 0080
00000250: 0000 0080 4b27 d33e 0000 0080 8b97 f53e
00000260: 6f58 bb3f 0000 0080 0000 0080 efa2 fe3e
00000270: 0000 0080 ea6f b73e 0000 0080 0000 0080
00000280: 0000 0080 0000 0080 e130 763e 0000 0080
00000290: 0000 0080 0000 0080 0000 0080 0c1e 723e
000002a0: 0000 0080 f6c1 593f 002e 123f 0000 0080
000002b0: 0000 0080 0000 0080 3536 413f 0000 0080
000002c0: a9e0 813e ca37 403f 0000 0080 0000 0080
000002d0: f45b 8b3d 0000 0080 405c 0b3f 0000 0080
000002e0: 0000 0080 0000 0080 0000 0080 b2f3 f63e
000002f0: 7ce3 a43c 0000 0080 0000 0080 0000 0080
00000300: 0000 0080 0000 0080 2527 093f 64e4 043f
00000310: 0000 0080 0000 0080 0000 0080 a28b b73e
00000320: 0000 0080 26db d83e d4d8 c93f 0c54 483e
00000330: 0000 0080 77cc a63d 0000 0080 7a3d dd3e
00000340: 0000 0080 0000 0080 0000 0080 0000 0080
00000350: 9ed1 2a3f 0000 0080 0000 0080 0000 0080
00000360: 0010 a63c 865e 8d3e 0000 0080 c38b 303f
00000370: b4aa 3e3e 0000 0080 0000 0080 0000 0080
00000380: 2efd 073f 0000 0080 04f0 c33e 8f66 bf3f
00000390: 3c14 703e 0000 0080 0000 0080 0000 0080
000003a0: 34c4 f03e 0000 0080 0000 0080 0000 0080
000003b0: 0000 0080 2f4b 453f 6a9c 893d 0000 0080
000003c0: 0000 0080 20a2 ec3d f401 713e 0000 0080
000003d0: 7b86 1e3f e828 ee3d 0000 0080 0000 0080
000003e0: 0000 0080 75e0 e03e 0000 0080 b374 de3e
000003f0: d860 a13f 0000 0080 0000 0080 789c f33e

output f4 [100, 25]
0.27740633 -0.21411993 0.5202213 0.5730823 -0.5066959 -0.2529885 -0.20845571 -0.13337328
0.1581525 0.23504324 -0.07177762 0.13177106 -0.40209317 0.45269734 1.3635817 0.34686422
-0.27922451 0.2815881 -0.31799132 -0.5956013 -0.1967509 -0.22774152 -0.2863499 0.19888371
0.41849935 0.43506342 0.030261807 0.09578569 0.28222993 -0.24020827 -0.28602698 -0.1234636
-0.20577592 -0.14524005 0.14386101 0.10225927 0.06905529 -0.29765865 0.30432215 0.73031664
0.18041053 -0.18911159 -0.054904252 -0.15797107 -0.40702817 0.039291352 -0.15007761 -0.2616201
0.18613969 0.35949817 0.46406126 -0.0015307516 0.11317514 0.23446752 -0.2409762 -0.27672425
-0.1455687 -0.19380209 -0.19847092 0.1359574 0.053652793 0.08579964 -0.34959924 0.28075355
0.81999224 0.20918438 -0.18859246 -0.06848696 -0.107479006 -0.50321865 0.030885376 -0.13455908
-0.31336492 0.20298062 0.3698175 0.32748994 -0.1433538 0.39431316 0.49174517 -0.428555
-0.2580787 -0.17754412 -0.15233515 0.06289193 0.20210458 -0.0018745847 0.103627294 -0.35634363
0.41218758 1.1671134 0.28418797 -0.2531813 0.17242998 -0.27825654 -0.5319287 -0.13518049
-0.20676516 -0.27360535 0.19988364 0.39723745 0.26219767 -0.24963088 0.5757552 0.60049236
-0.5393009 -0.2478519 -0.22352569 -0.1221286 0.18682556 0.24582182 -0.10437257 0.14372145
-0.42566472 0.46717715 1.457392 0.37356213 -0.29008546 0.3225172 -0.32842797 -0.6366197
-0.22642155 -0.2339898 -0.2993601 0.20217586 0.4282444 0.4427627 0.09932953 -0.0009675175
0.2494862 -0.17532286 -0.30133152 -0.09969734 -0.21761838 -0.18225156 0.13721576 0.1394643
0.057995122 -0.25784224 0.29696095 0.53472143 0.13079858 -0.1676363 -0.09853265 -0.15203828
-0.32599843 0.09859674 -0.13110255 -0.24119847 0.15712868 0.3493917 0.38077688 -0.18169107
0.40024078 0.41183794 -0.41502324 -0.24043258 -0.20138621 -0.13135114 -0.040749125 0.1803938
-0.051266387 0.11698619 -0.4140575 0.37696716 1.2564701 0.3025859 -0.24793154 0.12893507
-0.20368508 -0.6621474 -0.14569022 -0.17854023 -0.34803098 0.2257792 0.40753976 0.42560917
0.10088217 0.009663701 0.2816407 -0.18694662 -0.30420715 -0.08924361 -0.22205523 -0.15048932
0.1428908 0.16061729 0.053906802 -0.24106528 0.31040424 0.5195414 0.12387642 -0.16847429
-0.08535513 -0.17908798 -0.29039407 0.09104869 -0.13839024 -0.22163229 0.15401986 0.34655255
0.26456192 -0.1699584 0.46768504 0.5794022 -0.48015746 -0.26549488 -0.1902858 -0.15291819
0.18011786 0.23694113 -0.03697864 0.121695615 -0.3710435 0.44981945 1.2536281 0.32723683
-0.26787436 0.26685277 -0.33277482 -0.5133121 -0.16304018 -0.23231474 -0.24695387 0.18245454
0.4095235 0.23555964 -0.16794525 0.43601066 0.5950601 -0.45195886 -0.26769248 -0.16862
-0.16931999 0.21094717 0.22871166 -0.002321925 0.11951002 -0.3722396 0.4323511 1.1824942
0.3302968 -0.24484152 0.24653369 -0.34325486 -0.45081517 -0.16046314 -0.23272401 -0.21125197
0.17089301 0.40373656 0.41450694 -0.10564929 0.28018677 0.33959287 -0.3426145 -0.25584602
00000000: 3408 8e3e 4142 5bbe 392d 053f 86b5 123f
00000010: d3b6 01bf b587 81be 6a75 55be 0193 08be
00000020: bbf2 213e 2daf 703e 2500 93bd feee 063e
00000030: 28df cdbe f2c7 e73e d889 ae3f 3098 b13e
00000040: 84f6 8ebe 512c 903e c2cf a2be 5479 18bf
00000050: 1179 49be 1335 69be 749c 92be 2ca8 4b3e
00000060: 8c45 d63e a2c0 de3e 9ce7 f73c 4a2b c43d
00000070: 7180 903e 28f9 75be 2172 92be 7cda fcbd
00000080: ecb6 52be cfb9 14be 4d50 133e 4f6d d13d
00000090: dc6c 8d3d b766 98be 1dd0 9b3e 08f6 3a3f
000000a0: 8abd 383e 78a6 41be 48e3 60bd 2bc3 21be
000000b0: ff65 d0be f8ef 203d f2ad 19be 12f3 85be
000000c0: 679b 3e3e 2510 b83e 7099 ed3e 80a3 c8ba
000000d0: 5ec8 e73d 4118 703e 77c2 76be cdae 8dbe
000000e0: f60f 15be 0e74 46be f63b 4bbe 6b38 0b3e
000000f0: 08c3 5b3d b9b7 af3d acfe b2be eebe 8f3e
00000100: 03eb 513f 6e34 563e 621e 41be e442 8cbd
00000110: f41d dcbd f0d2 00bf 5403 fd3c dbc9 09be
00000120: 5e71 a0be 27da 4f3e b858 bd3e c3ac a73e
00000130: 57cb 12be 6ae3 c93e 06c6 fb3e 906b dbbe
00000140: e422 84be 20ce 35be bffd 1bbe 7ccd 803d
00000150: 81f4 4e3e a0b4 f5ba 8c3a d43d ac72 b6be
00000160: 400a d33e f963 953f 1681 913e fba0 81be
00000170: 7c91 303e a477 8ebe 7b2c 08bf c16c 0abe
00000180: 3fba 53be 0016 8cbe 4cae 4c3e b562 cb3e
00000190: c63e 863e 3d9f 7fbe b164 133f deb9 193f
000001a0: a00f 0abf e3cc 7dbe ebe3 64be 8f1e fabd
000001b0: 334f 3f3e b7b8 7b3e 49c1 d5bd b72b 133e
000001c0: baf0 d9be d831 ef3e d28b ba3f 8943 bf3e
000001d0: 1586 94be f920 a53e b627 a8be 82f9 22bf
000001e0: 0ddb 67be 069b 6fbe ba45 99be 3007 4f3e
000001f0: da42 db3e cbb1 e23e 486d cb3d 00a1 7dba
00000200: 4f79 7f3e d687 33be 2048 9abe 1e2e ccbd
00000210: 5ad7 5ebe 27a0 3abe 4a82 0c3e bbcf 0e3e
00000220: 4b8c 6d3d e603 84be 440b 983e 81e3 083f
00000230: 10f0 053e daa8 2bbe 7ccb c9bd ecaf 1bbe
00000240: 44e9 a6be 16ed c93d bf3f 06be bbfc 76be
00000250: 57e6 203e 78e3 b23e 30f5 c23e 390d 3abe
00000260: 5cec cc3e 6cdc d23e ed7d d4be f533 76be
00000270: 3038 4ebe ea80 06be 8ee8 26bd 27b9 383e
00000280: b4fc 51bd 7596 ef3d 58ff d3be d701 c13e
00000290: 03d4 a03f 8aec 9a3e c4e1 7dbe 8e07 043e
000002a0: d292 50be 7e82 29bf d12f 15be 40d3 36be
000002b0: 1e31 b2be aa32 673e 0da9 d03e 72e9 d93e
000002c0: 509b ce3d 8054 1e3c 3633 903e ef6e 3fbe
000002d0: 0ac1 9bbe 5bc5 b6bd 7262 63be df19 1abe
000002e0: f751 123e dc78 243e 61cd 5c3d d1d9 76be
000002f0: 4eed 9e3e aa00 053f ecb2 fd3d 8684 2cbe
00000300: acce aebd d762 37be 88ae 94be bc77 ba3d
00000310: 2cb6 0dbe 93f3 62be 62b7 1d3e 566f b13e
00000320: a974 873e 9309 2ebe 6a74 ef3e b453 143f
00000330: 33d7 f5be f2ee 87be 48da 42be 9696 1cbe
00000340: d170 383e b2a0 723e ea76 17bd 8d3b f93d
00000350: 6af9 bdbe bc4e e63e e376 a03f 968b a73e
00000360: d426 89be eda0 883e 7661 aabe 6c68 03bf
00000370: 01f4 26be eae3 6dbe 7ae1 7cbe 5dd5 3a3e
00000380: 10ad d13e 8c36 713e d7f9 2bbe ca3c df3e
00000390: dc55 183f 2767 e7be fd0e 89be b9aa 2cbe
000003a0: 3862 2dbe 8902 583e 6433 6a3e 702b 18bb
000003b0: abc1 f43d 3096 bebe 205d dd3e f85b 973f
000003c0: aa1c a93e bcb7 7abe 5473 7c3e 1abf afbe
000003d0: 3fd1 e6be 7350 24be 344f 6ebe 7052 58be
000003e0: 94fe 2e3e 8fb6 ce3e 413a d43e a85e d8bd
000003f0: a474 8f3e 1edf ad3e 2b6b afbe 40fe 82be

x f4 [25, 25]
-0.13241601 -0.1395782 -0.15165487 -0.090714455 -0.1662709 0.07520251 0.004602939 0.12331976
0.09270035 -0.14220443 0.1495864 0.046960205 -0.056486398 -0.109069325 -0.10232866 0.08688398
-0.101560764 -0.012160301 0.0043997467 0.047124982 0.16937472 0.16996123 -0.1888688 0.08467628
-0.07565224 0.1942607 -0.090824805 0.20840645 0.15590169 -0.08460512 -0.050592788 -0.037814975
0.13978909 0.18700439 0.11648893 -0.092493966 -0.028889373 -0.046371676 -0.12016333 0.062017452
0.13293986 0.119349025 0.09619018 -0.1277751 0.022353008 0.07275161 0.1448566 -0.13487077
0.035767943 -0.16647005 -0.15865548 -0.21325697 0.33512256 0.17931052 -0.29322988 0.06340447
0.09336962 -0.043398187 0.17454353 0.04145913 -0.037046872 0.15369152 -0.18149123 0.08173497
0.6854339 0.14072137 -0.18720812 0.22999033 -0.07836924 -0.22373578 -0.23236193 -0.08911536
0.009165558 0.051557675 0.06569357 -0.097820766 0.14761251 -0.10980838 -0.04978314 0.05156738
-0.12365122 -0.051316336 -0.10785005 0.18896659 0.11896985 -0.2213327 0.14278696 -0.17166074
-0.063045554 -0.09583278 0.19587989 0.0240016 0.15045325 0.08013736 0.09509999 0.2325932
0.0057888934 0.022226632 -0.118345454 0.037249357 -0.15366945 -0.14819048 0.17010717 0.17458044
0.1322971 -0.13346763 -0.08968895 0.031317085 0.0126490295 0.120682 0.0014273614 -0.042168304
0.18574573 0.19556464 0.044962462 0.07280968 -0.18696252 -0.034662817 0.1093332 -0.11405381
0.15869913 0.046149552 0.13571279 -0.09991717 0.09876667 -0.054488517 -0.21870606 0.061109312
-0.19039808 0.108307004 0.05137067 -0.036769584 0.06003423 0.002908312 -0.15995646 -0.03727407
0.024289563 -0.1561014 -0.16349454 0.21776298 0.1968774 -0.17276354 0.0696882 0.073303595
-0.1963053 -0.19014831 -0.08530792 0.036356658 -0.06344819 -0.086627774 0.041147113 -0.07001908
-0.062186033 -0.109856345 0.16120009 0.034828454 -0.003927022 0.072733745 0.13478626 0.15763499
0.19250335 0.14987366 -0.041551113 0.057550862 0.13037606 0.1220731 0.0095026195 -0.013707116
0.11801399 -0.18627289 0.025790125 0.13748015 0.10614209 -0.085421465 0.16319822 0.29050347
0.16403338 -0.25496328 0.015440911 0.05265578 -0.014266057 0.1278521 -0.0889241 -0.19294563
-0.04019182 0.22964737 0.14604984 -0.07787852 0.14718989 -0.025417335 -0.033383653 0.015023213
-0.10523324 -0.11455679 0.022139875 0.06410919 -0.10680172 0.09940028 -0.15879862 0.0345387
-0.12079892 0.007501453 -0.18558097 0.0013802052 -0.12365301 -0.04158929 0.17682047 0.066615716
0.18851234 0.162681 -0.007892415 -0.16959429 0.10093026 -0.16094954 0.19917025 -0.06277096
-0.059988067 0.09118138 -0.08362923 0.108045 -0.18974414 -0.05444622 0.06687842 0.09226452
-0.07229951 -0.15368402 -0.18305686 0.14739062 -0.008788228 -0.044079453 -0.15803833 -0.073880464
0.026354477 -0.027039215 -0.071002245 -0.1872535 0.14423637 -0.15087362 -0.0673691 0.17732625
-0.009038851 -0.17099114 0.10812102 -0.02816835 -0.07794859 0.057153568 0.08362676 0.12056355
0.13010065 -0.06511858 -0.12433362 -0.03613861 -0.19647436 0.07831986 -0.1299195 0.00963302
00000000: 1098 07be 96ed 0ebe 6a4b 1bbe 80c8 b9bd
00000010: eb42 2abe c603 9a3d 40d4 963b 128f fc3d
00000020: aed9 bd3d 0a9e 11be 2d2d 193e 5859 403d
00000030: 485e 67bd bd5f dfbd b091 d1bd 3af0 b13d
00000040: 17ff cfbd 003c 47bc c02b 903b 2006 413d
00000050: 9170 2d3e 510a 2e3e d366 41be c26a ad3d
00000060: 90ef 9abd 47ec 463e 5b02 babd 8068 553e
00000070: b1a4 1f3e 7345 adbd 623a 4fbd e0e3 1abd
00000080: df24 0f3e 147e 3f3e c091 ee3d 7a6d bdbd
00000090: 68a9 ecbc 3af0 3dbd 3118 f6bd 0306 7e3d
000000a0: 6321 083e 436d f43d 5bff c43d 7ad7 02be
000000b0: a81d b73c ccfe 943d 4a55 143e 901b 0abe
000000c0: 6881 123d 2077 2abe 9576 22be 0960 5abe
000000d0: 2f95 ab3e 2d9d 373e 3a22 96be 34da 813d
000000e0: 9238 bf3d 4cc2 31bd 8abb 323e 0cd1 293d
000000f0: 76be 17bd 4f61 1d3e d6d8 39be aa64 a73d
00000100: 9978 2f3f 4319 103e 7cb3 3fbe 9682 6b3e
00000110: 0d80 a0bd fe1a 65be 49f0 6dbe 1d82 b6bd
00000120: 232b 163c 242e 533d 5a8a 863d 4156 c8bd
00000130: bc27 173e 37e3 e0bd 68e9 4bbd 5138 533d
00000140: da3c fdbd 1431 52bd 7de0 dcbd 7580 413e
00000150: 77a6 f33d 0aa5 62be bf36 123e d5c7 2fbe
00000160: 071e 81bd fa43 c4bd bd94 483e 019f c43c
00000170: 6b10 1a3e 0e1f a43d c9c3 c23d e92c 6e3e
00000180: c2b0 bd3b a014 b63c 1a5f f2bd c892 183d
00000190: 865b 1dbe 3fbf 17be 9330 2e3e 37c5 323e
000001a0: e478 073e bdab 08be d7ae b7bd 5846 003d
000001b0: e03d 4f3c 2028 f73d 4d16 bb3a acb8 2cbd
000001c0: 2134 3e3e 1942 483e 8f2a 383d 3e1d 953d
000001d0: 1a73 3fbe 99fa 0dbd 16ea df3d 0b95 e9bd
000001e0: 0682 223e 5007 3d3d 4bf8 0a3e 60a1 ccbd
000001f0: 2e46 ca3d 5a2f 5fbd 7bf4 5fbe c24d 7a3d
00000200: b7f7 42be 10d0 dd3d 0d6a 523d b49b 16bd
00000210: 74e6 753d 6199 3e3b a0cb 23be b2ac 18bd
00000220: e8fa c63c 0cd9 1fbe 1d6b 27be 42fd 5e3e
00000230: 3b9a 493e ede8 30be b0b8 8e3d 3220 963d
00000240: 4204 49be 3db6 42be ebb5 aebd b8ea 143d
00000250: 20f1 81bd e769 b1bd e089 283d 2a66 8fbd
00000260: c8b6 7ebd 5dfc e0bd a311 253e 48a8 0e3d
00000270: 40ae 80bb 6ef5 943d 6905 0a3e 116b 213e
00000280: 991f 453e 7b78 193e 8031 2abd 74ba 6b3d
00000290: 4d81 053e 7601 fa3d e0b0 1b3c d093 60bc
000002a0: 52b1 f13d 52be 3ebe d045 d33c 99c7 0c3e
000002b0: 0661 d93d 73f1 aebd 6f1d 273e dfbc 943e
000002c0: 5ef8 273e 8c8a 82be e0fb 7c3c 96ad 573d
000002d0: 2ebc 69bc a9eb 023e d71d b6bd 8a93 45be
000002e0: 2ea0 24bd ae28 6b3e 178e 153e c67e 9fbd
000002f0: f2b8 163e 0438 d0bc 4cbd 08bd ec23 763c
00000300: 8684 d7bd c09c eabd af5e b53c ae4b 833d
00000310: dcba dabd 6092 cb3d 1b9c 22be 7478 0d3d
00000320: 6d65 f7bd c0ce f53b f008 3ebe 00e8 b43a
00000330: ca3d fdbd 8859 2abd 6d10 353e d26d 883d
00000340: 6109 413e d995 263e 304f 01bc 20aa 2dbe
00000350: 86b4 ce3d f5cf 24be 49f3 4b3e 108e 80bd
00000360: 0cb6 75bd 4ebd ba3d cd45 abbd b246 dd3d
00000370: 4a4c 42be 0003 5fbd 8ef7 883d 2ef5 bc3d
00000380: c411 94bd 585f 1dbe 4273 3bbe 91ed 163e
00000390: 80fc 0fbc a88c 34bd cdd4 21be a44e 97bd
000003a0: 58e5 d73c 5881 ddbc a069 91bd 62bf 3fbe
000003b0: b3b2 133e 9d7e 1abe d0f8 89bd 0395 353e
000003c0: b017 14bc 4d18 2fbe 8e6e dd3d 50c1 e6bc
000003d0: 83a3 9fbd dc19 6a3d 8244 ab3d 06ea f63d
000003e0: 1b39 053e e45c 85bd a0a2 febd 1406 14bd
000003f0: 9330 49be 2a66 a03d 9e09 05be d0d3 1d3c

b f4 [1, 25]
1.0 1.0 1.0 1.0 1.0 1.0 1.0 1.0
1.0 1.0 1.0 1.0 1.0 1.0 1.0 1.0
1.0 1.0 1.0 1.0 1.0 1.0 1.0 1.0
1.0
00000000: 0000 803f 0000 803f 0000 803f 0000 803f
00000010: 0000 803f 0000 803f 0000 803f 0000 803f
00000020: 0000 803f 0000 803f 0000 803f 0000 803f
00000030: 0000 803f 0000 803f 0000 803f 0000 803f
00000040: 0000 803f 0000 803f 0000 803f 0000 803f
00000050: 0000 803f 0000 803f 0000 803f 0000 803f
00000060: 0000 803f

grad f4 [25, 25]
0.0 0.0 0.0 0.0 0.0 0.0 0.0 0.0
0.0 0.0 0.0 0.0 0.0 0.0 0.0 0.0
0.0 0.0 0.0 0.0 0.0 0.0 0.0 0.0
0.0 -0.0014426846 -0.0023939267 0.0021667683 0.0 -0.000702108 0.0005815179 0.0
0.0 0.00031519833 2.546181e-05 -0.0005964992 0.0 -0.00024391411 0.0 0.004147907
0.0 -0.00025780994 0.0006694659 0.0 -0.00017188676 -0.0024252501 -0.00010521072 0.0010375422
0.0 0.0 -0.0027816137 -0.0050127786 0.004141618 0.0 -0.001398952 0.00056826416
0.0 0.0 0.00019011187 -6.384144e-05 -0.000831724 0.0 -0.00091232755 0.0
0.008246279 0.0 -0.00041260087 0.00047119713 0.0 -0.001012007 -0.0059179906 0.00030280696
0.0024201686 0.0 0.0 0.0 -0.0009216054 8.1734965e-05 0.0 6.1152946e-06
-0.0006841917 0.0 0.0 -0.00043722647 -8.103708e-05 0.0005895904 0.0 -0.000140138
0.0 0.000775599 0.0 0.0 -0.0011247974 0.0 -0.00097615947 -0.0019675998
0.00048301776 8.679677e-06 0.0 0.0 0.0 0.0 0.0 0.0
0.0 0.0 0.0 0.0 0.0 0.0 0.0 0.0
0.0 0.0 0.0 0.0 0.0 0.0 0.0 0.0
0.0 0.0 0.0 0.0 0.0 0.001047089 0.0028679715 -0.0014820036
0.0 0.000112374255 0.00039411947 0.0 0.0 0.0004696548 0.00016852055 -0.0002457181
0.0 -0.00010548961 0.0 -0.0035268837 0.0 0.0003693153 0.0007391318 0.0
0.0012997225 0.0033615823 -0.00020039822 5.9291197e-05 0.0 0.0 0.0 0.0
0.0 0.0 0.0 0.0 0.0 0.0 0.0 0.0
0.0 0.0 0.0 0.0 0.0 0.0 0.0 0.0
0.0 0.0 0.0 0.0 0.0 0.0 0.0 -0.008037988
-0.013986471 0.011853799 0.0 -0.0031007142 0.003178983 0.0 0.0 0.001466515
-8.906967e-05 -0.0032724408 0.0 -0.00015002783 0.0 0.022578167 0.0 -0.0018775447
0.0038228575 0.0 -0.0012811631 -0.012490633 -0.0013715752 0.0037994087 0.0 0.0
0.0 0.0 0.0 0.0 0.0 0.0 0.0 0.0
0.0 0.0 0.0 0.0 0.0 0.0 0.0 0.0
0.0 0.0 0.0 0.0 0.0 0.0 0.0 0.0
0.0 0.0 0.0 0.0 0.0 0.0 0.0 0.0
0.0 0.0 0.0 0.0 0.0 0.0 0.0 0.0
0.0 0.0 0.0 0.0 0.0 0.0 0.0 0.0
0.0 0.0 0.0 0.0 0.0 0.0 0.0 0.0
00000000: 0000 0000 0000 0000 0000 0000 0000 0000
00000010: 0000 0000 0000 0000 0000 0000 0000 0000
00000020: 0000 0000 0000 0000 0000 0000 0000 0000
00000030: 0000 0000 0000 0000 0000 0000 0000 0000
00000040: 0000 0000 0000 0000 0000 0000 0000 0000
00000050: 0000 0000 0000 0000 0000 0000 0000 0000
00000060: 0000 0000 7618 bdba 6de3 1cbb 5700 0e3b
00000070: 0000 0000 ac0d 38ba 0171 183a 0000 0000
00000080: 0000 0000 3441 a539 d296 d537 625e 1cba
00000090: 0000 0000 32c3 7fb9 0000 0000 2aeb 873b
000000a0: 0000 0000 aa2a 87b9 197f 2f3a 0000 0000
000000b0: 803c 34b9 f2f0 1ebb 93a4 dcb8 24fe 873a
000000c0: 0000 0000 0000 0000 bc4b 36bb 3c42 a4bb
000000d0: 69b6 873b 0000 0000 0a5d b7ba 90f7 143a
000000e0: 0000 0000 0000 0000 c458 4739 9de2 85b8
000000f0: 0e08 5aba 0000 0000 4429 6fba 0000 0000
00000100: 671b 073c 0000 0000 5a52 d8b9 020b f739
00000110: 0000 0000 52a5 84ba b4eb c1bb 10c2 9e39
00000120: b19b 1e3b 0000 0000 0000 0000 0000 0000
00000130: e497 71ba 2069 ab38 0000 0000 fb31 cd36
00000140: 545b 33ba 0000 0000 0000 0000 8b3b e5b9
00000150: 73f2 a9b8 be8e 1a3a 0000 0000 02f2 12b9
00000160: 0000 0000 9151 4b3a 0000 0000 0000 0000
00000170: f06d 93ba 0000 0000 f4e4 7fba d9f2 00bb
00000180: 8c3d fd39 ee9e 1137 0000 0000 0000 0000
00000190: 0000 0000 0000 0000 0000 0000 0000 0000
000001a0: 0000 0000 0000 0000 0000 0000 0000 0000
000001b0: 0000 0000 0000 0000 0000 0000 0000 0000
000001c0: 0000 0000 0000 0000 0000 0000 0000 0000
000001d0: 0000 0000 0000 0000 0000 0000 0000 0000
000001e0: 0000 0000 0000 0000 0000 0000 0000 0000
000001f0: 0000 0000 7a3e 893a 94f4 3b3b ca3f c2ba
00000200: 0000 0000 78aa eb38 d2a1 ce39 0000 0000
00000210: 0000 0000 003c f639 e4b4 3039 bad3 80b9
00000220: 0000 0000 4e3a ddb8 0000 0000 4a23 67bb
00000230: 0000 0000 a9a0 c139 4cc2 413a 0000 0000
00000240: 735b aa3a fe4d 5c3b fd21 52b9 70af 7838
00000250: 0000 0000 0000 0000 0000 0000 0000 0000
00000260: 0000 0000 0000 0000 0000 0000 0000 0000
00000270: 0000 0000 0000 0000 0000 0000 0000 0000
00000280: 0000 0000 0000 0000 0000 0000 0000 0000
00000290: 0000 0000 0000 0000 0000 0000 0000 0000
000002a0: 0000 0000 0000 0000 0000 0000 0000 0000
000002b0: 0000 0000 0000 0000 0000 0000 c4b1 03bc
000002c0: 8327 65bc 7036 423c 0000 0000 5a35 4bbb
000002d0: 7c56 503b 0000 0000 0000 0000 1438 c03a
000002e0: eaca bab8 7276 56bb 0000 0000 ca50 1db9
000002f0: 0000 0000 d9f5 b83c 0000 0000 f217 f6ba
00000300: e888 7a3b 0000 0000 b3ec a7ba 83a5 4cbc
00000310: 6dc6 b3ba 80ff 783b 0000 0000 0000 0000
00000320: 0000 0000 0000 0000 0000 0000 0000 0000
00000330: 0000 0000 0000 0000 0000 0000 0000 0000
00000340: 0000 0000 0000 0000 0000 0000 0000 0000
00000350: 0000 0000 0000 0000 0000 0000 0000 0000
00000360: 0000 0000 0000 0000 0000 0000 0000 0000
00000370: 0000 0000 0000 0000 0000 0000 0000 0000
00000380: 0000 0000 0000 0000 0000 0000 0000 0000
00000390: 0000 0000 0000 0000 0000 0000 0000 0000
000003a0: 0000 0000 0000 0000 0000 0000 0000 0000
000003b0: 0000 0000 0000 0000 0000 0000 0000 0000
000003c0: 0000 0000 0000 0000 0000 0000 0000 0000
000003d0: 0000 0000 0000 0000 0000 0000 0000 0000
000003e0: 0000 0000 0000 0000 0000 0000 0000 0000
000003f0: 0000 0000 0000 0000 0000 0000 0000 0000

p f4 [1, 25]
-0.033652894 0.13175331 -0.23427348 0.09862237 -0.057752192 -0.17030235 -0.11920812 -0.10636797
-0.13010825 0.13783266 0.022885762 0.016630769 -0.05626689 0.13443778 -0.043180432 0.033572793
0.0773102 -0.23633757 0.018155262 0.038383227 0.1373661 0.013434357 -0.17045178 0.14831598
0.16989692
00000000: 9ed7 09bd 57ea 063e 63e5 6fbe 86fa c93d
00000010: 908d 6cbd bd63 2ebe 6323 f4bd 73d7 d9bd
00000020: 193b 05be 0124 0d3e ec7a bb3c 403d 883c
00000030: 1c78 66bd 0faa 093e f7dd 30bd a083 093d
00000040: cf54 9e3d 7a02 72be 58ba 943c bb37 1d3d
00000050: b3a9 0c3e c71b 5c3c e98a 2ebe 25e0 173e
00000060: 75f9 2d3e

grad f4 [1, 25]
-0.012393794 -0.021371596 0.018330557 0.0 -0.0049558654 0.0049846196 0.0 0.0
0.0023780777 -7.176819e-05 -0.005097072 0.0 -0.0004449686 0.0 0.03490056 0.0
-0.0028073974 0.0059766117 0.0 -0.0018180474 -0.019330982 -0.0020034541 0.0062466753 0.0
0.0
00000000: 570f 4bbc 7c13 afbc f729 963c 0000 0000
00000010: d064 a2bb 0556 a33b 0000 0000 0000 0000
00000020: 86d9 1b3b 4182 96b8 5705 a7bb 0000 0000
00000030: ad4a e9b9 0000 0000 e4f3 0e3d 0000 0000
00000040: 50fc 37bb 74d7 c33b 0000 0000 8c4b eeba
00000050: 025c 9ebc 624c 03bb e9b0 cc3b 0000 0000
00000060: 0000 0000

x f4 [100, 25]
0.27740633 -0.0 0.5202213 0.5730823 -0.0 -0.0 -0.0 -0.0
0.1581525 0.23504324 -0.0 0.13177106 -0.0 0.45269734 1.3635817 0.34686422
-0.0 0.2815881 -0.0 -0.0 -0.0 -0.0 -0.0 0.19888371
0.41849935 0.43506342 0.030261807 0.09578569 0.28222993 -0.0 -0.0 -0.0
-0.0 -0.0 0.14386101 0.10225927 0.06905529 -0.0 0.30432215 0.73031664
0.18041053 -0.0 -0.0 -0.0 -0.0 0.039291352 -0.0 -0.0
0.18613969 0.35949817 0.46406126 -0.0 0.11317514 0.23446752 -0.0 -0.0
-0.0 -0.0 -0.0 0.1359574 0.053652793 0.08579964 -0.0 0.28075355
0.81999224 0.20918438 -0.0 -0.0 -0.0 -0.0 0.030885376 -0.0
-0.0 0.20298062 0.3698175 0.32748994 -0.0 0.39431316 0.49174517 -0.0
-0.0 -0.0 -0.0 0.06289193 0.20210458 -0.0 0.103627294 -0.0
0.41218758 1.1671134 0.28418797 -0.0 0.17242998 -0.0 -0.0 -0.0
-0.0 -0.0 0.19988364 0.39723745 0.26219767 -0.0 0.5757552 0.60049236
-0.0 -0.0 -0.0 -0.0 0.18682556 0.24582182 -0.0 0.14372145
-0.0 0.46717715 1.457392 0.37356213 -0.0 0.3225172 -0.0 -0.0
-0.0 -0.0 -0.0 0.20217586 0.4282444 0.4427627 0.09932953 -0.0
0.2494862 -0.0 -0.0 -0.0 -0.0 -0.0 0.13721576 0.1394643
0.057995122 -0.0 0.29696095 0.53472143 0.13079858 -0.0 -0.0 -0.0
-0.0 0.09859674 -0.0 -0.0 0.15712868 0.3493917 0.38077688 -0.0
0.40024078 0.41183794 -0.0 -0.0 -0.0 -0.0 -0.0 0.1803938
-0.0 0.11698619 -0.0 0.37696716 1.2564701 0.3025859 -0.0 0.12893507
-0.0 -0.0 -0.0 -0.0 -0.0 0.2257792 0.40753976 0.42560917
0.10088217 0.009663701 0.2816407 -0.0 -0.0 -0.0 -0.0 -0.0
0.1428908 0.16061729 0.053906802 -0.0 0.31040424 0.5195414 0.12387642 -0.0
-0.0 -0.0 -0.0 0.09104869 -0.0 -0.0 0.15401986 0.34655255
0.26456192 -0.0 0.46768504 0.5794022 -0.0 -0.0 -0.0 -0.0
0.18011786 0.23694113 -0.0 0.121695615 -0.0 0.44981945 1.2536281 0.32723683
-0.0 0.26685277 -0.0 -0.0 -0.0 -0.0 -0.0 0.18245454
0.4095235 0.23555964 -0.0 0.43601066 0.5950601 -0.0 -0.0 -0.0
-0.0 0.21094717 0.22871166 -0.0 0.11951002 -0.0 0.4323511 1.1824942
0.3302968 -0.0 0.24653369 -0.0 -0.0 -0.0 -0.0 -0.0
0.17089301 0.40373656 0.41450694 -0.0 0.28018677 0.33959287 -0.0 -0.0
00000000: 3408 8e3e 0000 0080 392d 053f 86b5 123f
00000010: 0000 0080 0000 0080 0000 0080 0000 0080
00000020: bbf2 213e 2daf 703e 0000 0080 feee 063e
00000030: 0000 0080 f2c7 e73e d889 ae3f 3098 b13e
00000040: 0000 0080 512c 903e 0000 0080 0000 0080
00000050: 0000 0080 0000 0080 0000 0080 2ca8 4b3e
00000060: 8c45 d63e a2c0 de3e 9ce7 f73c 4a2b c43d
00000070: 7180 903e 0000 0080 0000 0080 0000 0080
00000080: 0000 0080 0000 0080 4d50 133e 4f6d d13d
00000090: dc6c 8d3d 0000 0080 1dd0 9b3e 08f6 3a3f
000000a0: 8abd 383e 0000 0080 0000 0080 0000 0080
000000b0: 0000 0080 f8ef 203d 0000 0080 0000 0080
000000c0: 679b 3e3e 2510 b83e 7099 ed3e 0000 0080
000000d0: 5ec8 e73d 4118 703e 0000 0080 0000 0080
000000e0: 0000 0080 0000 0080 0000 0080 6b38 0b3e
000000f0: 08c3 5b3d b9b7 af3d 0000 0080 eebe 8f3e
00000100: 03eb 513f 6e34 563e 0000 0080 0000 0080
00000110: 0000 0080 0000 0080 5403 fd3c 0000 0080
00000120: 0000 0080 27da 4f3e b858 bd3e c3ac a73e
00000130: 0000 0080 6ae3 c93e 06c6 fb3e 0000 0080
00000140: 0000 0080 0000 0080 0000 0080 7ccd 803d
00000150: 81f4 4e3e 0000 0080 8c3a d43d 0000 0080
00000160: 400a d33e f963 953f 1681 913e 0000 0080
00000170: 7c91 303e 0000 0080 0000 0080 0000 0080
00000180: 0000 0080 0000 0080 4cae 4c3e b562 cb3e
00000190: c63e 863e 0000 0080 b164 133f deb9 193f
000001a0: 0000 0080 0000 0080 0000 0080 0000 0080
000001b0: 334f 3f3e b7b8 7b3e 0000 0080 b72b 133e
000001c0: 0000 0080 d831 ef3e d28b ba3f 8943 bf3e
000001d0: 0000 0080 f920 a53e 0000 0080 0000 0080
000001e0: 0000 0080 0000 0080 0000 0080 3007 4f3e
000001f0: da42 db3e cbb1 e23e 486d cb3d 0000 0080
00000200: 4f79 7f3e 0000 0080 0000 0080 0000 0080
00000210: 0000 0080 0000 0080 4a82 0c3e bbcf 0e3e
00000220: 4b8c 6d3d 0000 0080 440b 983e 81e3 083f
00000230: 10f0 053e 0000 0080 0000 0080 0000 0080
00000240: 0000 0080 16ed c93d 0000 0080 0000 0080
00000250: 57e6 203e 78e3 b23e 30f5 c23e 0000 0080
00000260: 5cec cc3e 6cdc d23e 0000 0080 0000 0080
00000270: 0000 0080 0000 0080 0000 0080 27b9 383e
00000280: 0000 0080 7596 ef3d 0000 0080 d701 c13e
00000290: 03d4 a03f 8aec 9a3e 0000 0080 8e07 043e
000002a0: 0000 0080 0000 0080 0000 0080 0000 0080
000002b0: 0000 0080 aa32 673e 0da9 d03e 72e9 d93e
000002c0: 509b ce3d 8054 1e3c 3633 903e 0000 0080
000002d0: 0000 0080 0000 0080 0000 0080 0000 0080
000002e0: f751 123e dc78 243e 61cd 5c3d 0000 0080
000002f0: 4eed 9e3e aa00 053f ecb2 fd3d 0000 0080
00000300: 0000 0080 0000 0080 0000 0080 bc77 ba3d
00000310: 0000 0080 0000 0080 62b7 1d3e 566f b13e
00000320: a974 873e 0000 0080 6a74 ef3e b453 143f
00000330: 0000 0080 0000 0080 0000 0080 0000 0080
00000340: d170 383e b2a0 723e 0000 0080 8d3b f93d
00000350: 0000 0080 bc4e e63e e376 a03f 968b a73e
00000360: 0000 0080 eda0 883e 0000 0080 0000 0080
00000370: 0000 0080 0000 0080 0000 0080 5dd5 3a3e
00000380: 10ad d13e 8c36 713e 0000 0080 ca3c df3e
00000390: dc55 183f 0000 0080 0000 0080 0000 0080
000003a0: 0000 0080 8902 583e 6433 6a3e 0000 0080
000003b0: abc1 f43d 0000 0080 205d dd3e f85b 973f
000003c0: aa1c a93e 0000 0080 5473 7c3e 0000 0080
000003d0: 0000 0080 0000 0080 0000 0080 0000 0080
000003e0: 94fe 2e3e 8fb6 ce3e 413a d43e 0000 0080
000003f0: a474 8f3e 1edf ad3e 0000 0080 0000 0080
