Proj_253133_270642_271518/Proj2/model/best-model.pt (torch_old, 83253 bytes, 25 tensors)

x f4 [100, 2]
-0.6034572 -1.2136732 -1.6377052 -0.22193398 -1.7349439 1.014263 -1.0327408 1.3635316
-0.9921289 -1.366484 1.0125786 0.23452331 1.4876401 0.84480757 -0.38551465 -0.9393281
-0.5995086 0.38711166 0.11234113 0.36552793 1.1549584 -0.07802543 -0.8013311 0.41251928
0.6443648 1.14817 0.35429654 0.7032069 0.7883062 1.4610804 -0.66113746 -0.7240737
-0.85460013 1.3806846 1.3860017 -0.2856955 0.60101146 -0.7062473 -0.4595472 1.6970309
1.5404017 1.671571 0.53881824 -0.7808248 1.6996348 1.0931494 0.45806077 -1.5780798
1.486983 -1.5826745 0.9039472 -0.0710335 -0.009489043 0.666618 -0.9740823 -0.18613747
-0.8303513 0.74809015 0.46720195 -0.7678739 -0.78337973 1.3423148 -1.667038 -1.564897
0.6095825 -0.61684245 0.13331296 0.6222783 1.5003778 -0.40447694 1.6190134 -0.98611504
0.66069686 1.2479599 0.2823667 1.3201772 0.7451221 -1.7176574 1.7029091 0.041928686
-1.5857639 0.52679324 0.16560623 -0.8732516 0.72977924 -0.7211011 -0.22345658 -0.5671492
1.0409106 0.52978146 -0.8597314 -1.2363588 0.27558476 0.98431903 1.3817048 0.8482835
0.27212936 -0.06856986 -0.39021674 0.006089554 -1.0128018 1.5426384 0.8677939 0.6941826
-0.7246093 0.9870569 -1.5042512 -0.024855144 1.5995083 0.40531942 -0.58505964 -0.08026202
-1.638105 -0.5517719 0.41634727 0.5079337 -1.0323329 -0.2214645 -0.42859417 1.2765039
-1.4076529 -1.452073 1.3525608 -1.5391405 1.6546485 -1.155181 0.8165157 1.2314106
0.7133467 0.18585698 -1.3926004 -1.1473846 1.6261681 0.4104012 1.2557683 1.6563662
-0.5008278 -0.911403 -0.71530616 -1.2071335 1.471656 1.3496315 0.32287714 -0.107520305
0.55700666 -0.1370472 -0.16873437 1.4570142 0.75640255 0.5227922 -0.1098569 -1.3250899
-1.3448988 -0.20757462 0.06250567 -0.542724 0.02991799 -0.6078736 -1.3133327 -1.6643692
-0.5829056 -1.4928344 -0.31190896 -0.6091463 -0.56613827 -0.49053055 0.42021188 -0.9756421
0.5975897 1.4624425 -0.27326083 -1.1295019 0.3681047 -0.077874474 -1.1762475 -0.58323115
-0.7619885 1.4862814 -1.724702 0.60612833 0.6115407 -1.0391965 -1.5610317 0.7891934
-0.5923605 0.5833682 0.6828268 -1.4645659 0.852354 1.233087 0.41128027 0.4905241
-0.35541037 -0.86814755 -0.60909516 0.36248752 -0.19770342 -1.6561441 0.7095707 -0.47348425
00000000: 2c7c 1abf a559 9bbf 53a0 d1bf a942 63be
00000010: a412 debf 5fd3 813f da30 84bf 3488 ae3f
00000020: 29fc 7dbf f3e8 aebf 2d9c 813f e126 703e
00000030: fe6a be3f 4f45 583f 2d62 c5be ce77 70bf
00000040: 6579 19bf 8033 c63e 1b13 e63d 7a26 bb3e
00000050: add5 933f cccb 9fbd 0924 4dbf ba35 d33e
00000060: 17f5 243f 3cf7 923f 5b66 b53e 5e05 343f
00000070: 6fce 493f af04 bb3f 4e40 29bf e55c 39bf
00000080: 13c7 5abf 46ba b03f 8168 b13f ae46 92be
00000090: e3db 193f a0cc 34bf c549 ebbe 4f38 d93f
000000a0: e22b c53f 0af6 d53f feef 093f 22e4 47bf
000000b0: a28d d93f 52ec 8b3f f186 ea3e 85fe c9bf
000000c0: 7555 be3f 1495 cabf 1569 673f 037a 91bd
000000d0: ee77 1bbc 7aa7 2a3f 755d 79bf d29a 3ebe
000000e0: e791 54bf d682 3f3f 1835 ef3e 6293 44bf
000000f0: 938b 48bf f9d0 ab3f 8061 d5bf 8b4e c8bf
00000100: 990d 1c3f 63e9 1dbf 3183 083e a14d 1f3f
00000110: 610c c03f 9a17 cfbe d53b cf3f 0972 7cbf
00000120: 6e23 293f 26bd 9f3f 5e92 903e 91fb a83f
00000130: 52c0 3e3f 33dc dbbf edf8 d93f 6abd 2b3d
00000140: 50fa cabf ecdb 063f ae94 293e 6b8d 5fbf
00000150: d0d2 3a3f 159a 38bf cdd1 64be b130 11bf
00000160: 8f3c 853f c29f 073f 5b17 5cbf 0141 9ebf
00000170: 7219 8d3e 55fc 7b3f b4db b03f 1c29 593f
00000180: 8a54 8b3e 5b6e 8cbd 7dca c7be e28a c73b
00000190: 7da3 81bf 2d75 c53f be27 5e3f f3b5 313f
000001a0: ff7f 39bf c3af 7c3f 4e8b c0bf 049d cbbc
000001b0: b0bc cc3f 0786 cf3e 78c6 15bf 6a60 a4bd
000001c0: 6dad d1bf ec40 0dbf 782b d53e f107 023f
000001d0: 7c23 84bf 97c7 62be b270 dbbe 7b64 a33f
000001e0: f82d b4bf 87dd b9bf b620 ad3f 8e02 c5bf
000001f0: 86cb d33f f9dc 93bf 2c07 513f dd9e 9d3f
00000200: e49d 363f 4b51 3e3e bb40 b2bf 80dd 92bf
00000210: 4726 d03f 1b20 d23e 04bd a03f cf03 d43f
00000220: 4036 00bf b551 69bf 4e1e 37bf 5a83 9abf
00000230: 395f bc3f bac0 ac3f 2750 a53e 9b33 dcbd
00000240: fd97 0e3f 1a56 0cbe b4c8 2cbe 717f ba3f
00000250: 99a3 413f b6d5 053f a8fc e0bd 8c9c a9bf
00000260: a525 acbf 718e 54be f902 803d f6ef 0abf
00000270: 9316 f53c 9b9d 1bbf 491b a8bf 0d0a d5bf
00000280: 4d39 15bf 3315 bfbf 88b2 9fbe 03f1 1bbf
00000290: 70ee 10bf d226 fbbe 0326 d73e aec3 79bf
000002a0: a3fb 183f 5131 bb3f d8e8 8bbe 8593 90bf
000002b0: 3878 bc3e a77c 9fbd 478f 96bf a34e 15bf
000002c0: ae11 43bf 783e be3f 09c3 dcbf 3a2b 1b3f
000002d0: ee8d 1c3f 6404 85bf e3cf c7bf 9408 4a3f
000002e0: f0a4 17bf 9e57 153f bdcd 2e3f e576 bbbf
000002f0: df33 5a3f cbd5 9d3f 5493 d23e fa25 fb3e
00000300: 59f8 b5be eb3e 5ebf a9ed 1bbf f797 b93e
00000310: c472 4abe 88fc d3bf 6da6 353f 876c f2be

x f4 [2, 25]
-0.544359 0.68324167 0.43309563 -0.004057015 -0.36005595 -0.6750156 0.08414257 0.4321693
-0.6526792 -0.62369525 -0.53270745 0.43247035 -0.31724712 0.13565812 0.6514419 0.17109358
0.28343856 0.4124542 -0.0101572275 0.6266082 -0.13505836 -0.29660088 0.3067726 0.42795405
0.42869005 0.29482788 0.096168414 -0.12334728 -0.73410404 0.14911798 -0.28150687 0.61600673
0.23967604 0.342193 0.05693559 0.31924254 -0.07570697 -0.10655033 0.066617645 0.4083858
-0.10863489 0.5552371 0.05828731 -0.12620682 -0.47042358 -0.6869894 -0.5609796 0.5377508
-0.42288366 -0.045520738
00000000: 1d5b 0bbf ede8 2e3f b6be dd3e b5f0 84bb
00000010: 4159 b8be d3cd 2cbf f152 ac3d 4b45 dd3e
00000020: fc15 27bf 7eaa 1fbf 845f 08bf c16c dd3e
00000030: 376e a2be f6e9 0a3e e5c4 263f 2833 2f3e
00000040: dc1e 913e 322d d33e 806a 26bc 6569 203f
00000050: bd4c 0abe 12dc 97be 4c11 9d3e cb1c db3e
00000060: 437d db3e aef3 963e f2f3 c43d 809d fcbd
00000070: 3eee 3bbf 62b2 183e ab21 90be 9eb2 1d3f
00000080: a36d 753e ec33 af3e 4b35 693d c273 a33e
00000090: 420c 9bbd 0f37 dabd d56e 883d f217 d13e
000000a0: f87b debd 0524 0e3f adbe 6e3d 5c3c 01be
000000b0: 5cdb f0be 8ade 2fbf 5c9c 0fbf 09aa 093f
000000c0: 3584 d8be f473 3abd

b f4 [1, 25]
1.0 1.0 1.0 1.0 1.0 1.0 1.0 1.0
1.0 1.0 1.0 1.0 1.0 1.0 1.0 1.0
1.0 1.0 1.0 1.0 1.0 1.0 1.0 1.0
1.0
00000000: 0000 803f 0000 803f 0000 803f 0000 803f
00000010: 0000 803f 0000 803f 0000 803f 0000 803f
00000020: 0000 803f 0000 803f 0000 803f 0000 803f
00000030: 0000 803f 0000 803f 0000 803f 0000 803f
00000040: 0000 803f 0000 803f 0000 803f 0000 803f
00000050: 0000 803f 0000 803f 0000 803f 0000 803f
00000060: 0000 803f

grad f4 [2, 25]
-0.00032852392 0.0066873315 0.0 0.0012476869 0.0002039535 -0.014843212 0.009045455 0.0
0.0058667655 -0.0067289965 -0.02718196 0.041007526 0.0014799082 0.007504238 0.0 -0.0013293029
0.0 0.00062959903 0.0 0.020868063 -0.036556788 -0.017908085 -0.015206245 0.0073795877
-0.006462219 0.00012491966 0.0027269502 0.0 0.0013346053 -0.00043093163 -0.004660057 0.0053534256
0.0 0.0016203115 -0.0015472253 -0.0007235445 0.00092209876 0.0007893235 0.004012451 0.0
0.00078201684 0.0 0.00055018405 0.0 0.00052116066 -0.010066459 -0.0015423195 -0.0023979153
0.0021345005 -0.00052239496
00000000: bc3d acb9 6721 db3b 0000 0000 6d89 a33a
00000010: 5adc 5539 f230 73bc 6333 143c 0000 0000
00000020: ff3d c03b ea7e dcbb b4ac debc 82f7 273d
00000030: 7bf9 c13a 1ce6 f53b 0000 0000 013c aeba
00000040: 0000 0000 ad0b 253a 0000 0000 80f3 aa3c
00000050: 92bc 15bd fab3 92bc 9d23 79bc 78d0 f13b
00000060: 06c1 d3bb defc 0239 a2b6 323b 0000 0000
00000070: eced ae3a aaee e1b9 64b3 98bb ca6b af3b
00000080: 0000 0000 a260 d43a 44cc caba 40ac 3dba
00000090: 00b9 713a 9aea 4e3a e17a 833b 0000 0000
000000a0: 4300 4d3a 0000 0000 3a3a 103a 0000 0000
000000b0: 809e 083a caed 24bc a827 caba 5826 1dbb
000000c0: fae2 0b3b 55f1 08ba

p f4 [1, 25]
0.39098403 -0.0019707046 0.19109607 0.40876612 -0.4158782 0.2807711 0.50257075 0.19890161
0.4271827 0.31905866 -0.7771922 0.8692233 0.35763177 0.50597906 0.43016332 -0.4011868
-0.122915864 -0.08476752 0.11736691 -0.35937503 0.10266197 0.03916815 0.47801965 0.506024
-0.30764407
00000000: 0f2f c83e f026 01bb b0ae 433e cb49 d13e
00000010: fded d4be 3bc1 8f3e 7aa8 003f ddac 4b3e
00000020: b1b7 da3e a85b a33e 11f6 46bf 6b85 5e3f
00000030: 831b b73e d887 013f 5e3e dc3e 5b68 cdbe
00000040: 50bb fbbd 989a adbd 105e f03d 0100 b8be
00000050: 7040 d23d c86e 203d febe f43e ca8a 013f
00000060: 8683 9dbe

grad f4 [1, 25]
0.00018034535 -0.0030677007 0.0 0.001363303 -0.00060597 0.012607281 -0.0027725575 0.0
-0.0073260493 0.0067244447 0.022513054 -0.03491224 0.0013025405 -0.0061080363 0.0 0.0009898352
0.0 0.0017210076 0.0 -0.018051054 0.027151892 0.01224606 0.014560343 -0.006228076
0.0066188155
00000000: 161b 3d39 7a0b 49bb 0000 0000 dcb0 b23a
00000010: f5d9 1eba c58e 4e3c ccb3 35bb 0000 0000
00000020: 5b0f f0bb bb58 dc3b 4c6d b83c 2300 0fbd
00000030: 02ba aa3a ec25 c8bb 0000 0000 5cbd 813a
00000040: 0000 0000 6f93 e13a 0000 0000 cedf 93bc
00000050: a56d de3c b3a3 483c 818e 6e3c e314 ccbb
00000060: a6e2 d83b

x f4 [100, 25]
-0.15052721 0.38578686 -0.22841088 -0.108972415 -0.041278727 0.047324464 -0.00067745894 -0.117305405
0.015074864 0.04585281 0.025888935 0.07622448 0.23641089 0.3989345 -0.25960553 -0.20792863
-0.154902 0.06582423 -0.25756326 0.030771524 0.11793724 0.027849838 0.14629261 0.036885843
0.1540096 -0.03713815 0.36746368 -0.3654787 -0.11638203 0.15604155 0.08923009 -0.17857337
-0.12783903 0.07967689 0.11650743 0.059232518 0.015877292 0.2992956 0.13055673 -0.21370658
-0.026612118 -0.24540317 -0.13617003 -0.15144484 0.1140013 0.20126788 0.053377148 0.08548169
0.13660687 0.24164246 0.07897927 0.32483855 -0.57061946 -0.15987542 0.2297207 0.16936944
-0.46715993 -0.13846 0.21484023 0.31557146 0.24240908 0.033419788 0.47060156 -0.7577189
-0.1293289 0.16893442 -0.41888547 -0.26626977 -0.12888259 0.28441432 0.1969744 0.13341632
0.16381468 0.3567583 0.2377191 0.11402102 0.2314003 -0.54153347 -0.07171151 0.17882435
0.15581867 -0.42527223 -0.2482844 0.28100386 0.31458753 0.3352527 0.05643688 0.50965655
-1.0941106 -0.059304886 0.22090153 -0.42106825 -0.24488169 -0.18001935 0.2780928 0.17861
0.08464597 0.23790252 0.35245183 0.167841 -0.1364437 0.37233776 -0.20887433 -0.07893614
0.064972654 -0.08441593 0.028249703 -0.13791995 -0.042081602 -0.08370094 -0.04422079 -0.045867518
0.23646513 0.7718394 -0.33297092 -0.22409919 -0.111189745 0.04597447 -0.24566342 -0.070483595
0.21388865 -0.04906758 0.10735029 -0.09722395 0.20026816 -0.2558158 0.27221835 -0.22795916
0.10449083 0.07402803 0.119656175 -0.2759578 -0.2627585 0.23866814 0.048156127 0.2761984
0.22098723 0.2389564 -1.0741292 -0.1954701 -0.14271134 -0.20240128 0.10053266 -0.47747585
0.19356382 -0.5259518 0.1517502 0.22306907 0.25606918 -0.057112135 -0.24640779 0.25088271
-0.21834831 0.1859026 0.23590703 0.09495668 -0.38494223 -0.3499839 0.31090763 -0.10929774
0.24603611 0.20715371 0.3153929 -1.4054261 -0.23684143 -0.122589186 -0.19171664 0.17163518
-0.58245116 0.20313834 -0.6647082 0.15531164 0.34645796 0.19774531 -0.09490136 -0.14891924
0.39047474 -0.25290036 -0.1327303 -0.111987256 0.16204095 -0.039360583 -0.09958391 0.062428605
0.16149963 0.09543391 0.16345048 0.23856819 0.06986287 -0.19772123 -0.18631351 -0.1898758
0.05752124 -0.2664634 0.11355998 0.03213353 0.09682142 0.17309578 0.15557602 0.118694454
0.04464349 0.21330188 -0.39012784 -0.04016415 0.0040023923 0.20442764 -0.2704441 -0.24467635
0.24832356 0.30416733 0.31931713 0.12497041 0.3712235 -0.8103882 -0.052362144 0.084269434
-0.305064 -0.1723108 -0.14862211 0.24098933 0.0575983 0.06651519 0.16761623 0.3367473
0.08327995 -0.049636927 0.23157242 -0.3061684 0.022322528 0.014256299 0.18497503 -0.23482913
-0.25102 0.2753148 0.21183273 0.2955348 0.1608344 0.29513407 -0.9611131 -0.071922004
-0.009047814 -0.25626135 -0.08984276 -0.27478454 0.20922679 -0.18480557 0.12206519 0.20594507
0.303754 0.03279788 -0.30297422 0.29464376 -0.22937708 0.091975614 0.06299445 0.13054407
00000000: ce23 1abe db85 c53e 8be4 69be ee2c dfbd
00000010: e213 29bd 4cd7 413d 8097 31ba d13d f0bd
00000020: 90fc 763c 28d0 3b3d 0815 d43c 951b 9c3d
00000030: b215 723e 2541 cc3e 04eb 84be 3eeb 54be
00000040: a19e 1ebe dbce 863d 55df 83be 9014 fc3c
00000050: 1489 f13d 5825 e43c bbcd 153e 9c15 173d
00000060: b1b4 1d3e 2c1e 18bd 3324 bc3e 0620 bbbe
00000070: b459 eebd 5bc9 1f3e 44be b63d f0db 36be
00000080: 3ce8 02be a32d a33d 739b ee3d cc9d 723d
00000090: 1811 823c 463d 993e aab0 053e e6d5 5abe
000000a0: a801 dabc f84a 7bbe 2870 0bbe 5b14 1bbe
000000b0: 8379 e93d 2b19 4e3e ffa1 5a3d 0611 af3d
000000c0: ace2 0b3e 1f71 773e e2bf a13d 3d51 a63e
000000d0: 1e14 12bf 62b6 23be e73b 6b3e 2f6f 2d3e
000000e0: 962f efbe 75c8 0dbe 14ff 5b3e 9592 a13e
000000f0: 163a 783e 30e3 083d b0f2 f03e def9 41bf
00000100: cc6e 04be 25fd 2c3e 2878 d6be 8354 88be
00000110: ccf9 03be c19e 913e a8b3 493e 4a9e 083e
00000120: 09bf 273e 06a9 b63e a36c 733e da83 e93d
00000130: 33f4 6c3e f0a1 0abf 7cdd 92bd bb1d 373e
00000140: ee8e 1f3e 48bd d9be 443e 7ebe bddf 8f3e
00000150: 9e11 a13e 3ea6 ab3e 5c2a 673d da78 023f
00000160: d10b 8cbf aee9 72bd 0334 623e 4296 d7be
00000170: 44c2 7abe fe56 38be 2e62 8e3e 8ae5 363e
00000180: de5a ad3d b89c 733e 9174 b43e 83de 2b3e
00000190: e6b7 0bbe 0ea3 be3e 27e3 55be 45a9 a1bd
000001a0: 6210 853d 42e2 acbd ec6b e73c e33a 0dbe
000001b0: c25d 2cbd 666b abbd dc20 35bd 94df 3bbd
000001c0: ea23 723e 4497 453f 2a7b aabe 427a 65be
000001d0: 73b7 e3bd ba4f 3c3d 318f 7bbe b459 90bd
000001e0: a005 5b3e 16fb 48bd 78da db3d 5a1d c7bd
000001f0: 1913 4d3e 4afa 82be 3460 8b3e 206e 69be
00000200: 4aff d53d 029c 973d 4c0e f53d 574a 8dbe
00000210: 4888 86be 6c65 743e 5c3f 453d e069 8d3e
00000220: 7a4a 623e fdb0 743e 117d 89bf 5029 48be
00000230: ec22 12be 4842 4fbe 11e4 cd3d b777 f4be
00000240: 9835 463e c7a4 06bf 6864 1b3e 386c 643e
00000250: 801b 833e 6aee 69bd 5352 7cbe b373 803e
00000260: b396 5fbe 405d 3e3e 9d91 713e a678 c23d
00000270: 2617 c5be 1731 b3be 492f 9f3e 7ed7 dfbd
00000280: e4f0 7b3e 1a20 543e 2e7b a13e 01e5 b3bf
00000290: 8f86 72be 0a10 fbbd 5e51 44be 22c1 2f3e
000002a0: 851b 15bf 7f03 503e 512a 2abf 040a 1f3e
000002b0: f062 b13e bf7d 4a3e a55b c2bd 497e 18be
000002c0: 4eec c73e 287c 81be 74ea 07be 9359 e5bd
000002d0: 10ee 253e 9038 21bd a6f2 cbbd 23b5 7f3d
000002e0: 2960 253e db72 c33d 905f 273e 384b 743e
000002f0: 4414 8f3d 6f77 4abe f8c8 3ebe cd6e 42be
00000300: 649b 6b3d e46d 88be 2392 e83d 739e 033d
00000310: 4f4a c63d 0540 313e 524f 1f3e 1416 f33d
00000320: 18dc 363d cf6b 5a3e d6be c7be 2a83 24bd
00000330: 8026 833b 7b55 513e a677 8abe 708c 7abe
00000340: 8848 7e3e d2bb 9b3e 897d a33e 7cf0 ff3d
00000350: 0211 be3e 9a75 4fbf b079 56bd 7495 ac3d
00000360: 5931 9cbe 3e72 30be 6530 18be e8c5 763e
00000370: 32ec 6b3d 1e39 883d 97a3 2b3e 246a ac3e
00000380: ae8e aa3d 1750 4bbd 5221 6d3e 1bc2 9cbe
00000390: bcdd b63c 4093 693c 186a 3d3e 0c77 70be
000003a0: b285 80be 10f6 8c3e aeea 583e 5650 973e
000003b0: c6b1 243e d01b 973e 820b 76bf d84b 93bd
000003c0: 483d 14bc b034 83be 7bff b7bd 8fb0 8cbe
000003d0: 8c3f 563e ac3d 3dbe 50fd f93d 44e3 523e
000003e0: a585 9b3e 1257 063d 701f 9bbe 8cdb 963e
000003f0: d3e1 6abe b65d bc3d 3c03 813d 58ad 053e

x f4 [100, 25]
0.3616567 -0.0 0.07944468 1.3021768 -0.0 1.0297716 -0.0 -0.0
0.40573618 0.62633085 -0.0 0.70012945 0.6783941 0.34326315 -0.0 -0.0
-0.0 -0.0 0.27667022 -0.0 1.0179446 0.89900005 -0.0 0.7610146
-0.0 1.2170514 -0.0 -0.0 0.57833296 0.14069298 1.4487237 0.2280572
-0.0 1.4201347 1.3278517 0.024374783 0.17776632 0.9008361 0.26902634 -0.0
-0.0 -0.0 -0.0 0.16201103 -0.0 0.47631404 0.64941335 -0.0
-0.0 -0.0 1.6344495 -0.0 -0.0 -0.0 0.36004356 1.1663634
0.98138094 -0.0 1.9066181 1.4588827 0.4708212 0.04212475 0.7999677 0.33818763
-0.0 -0.0 -0.0 -0.0 0.006982222 -0.0 -0.0 -0.0
0.49120715 -0.0 -0.0 1.3551729 -0.0 -0.0 -0.0 0.15929332
0.5940438 1.2556179 0.0793886 1.5678221 1.0408077 0.20825386 0.31936467 0.5399811
0.45671466 0.31423965 -0.0 0.3414489 -0.0 -0.0 -0.0 -0.0
-0.0 0.8944433 -0.0 -0.0 0.5281808 -0.0 -0.0 1.4159327
-0.0 1.3351483 -0.0 -0.0 0.6071233 0.86004317 -0.0 0.5436094
0.8179811 0.28035676 -0.0 -0.0 -0.0 -0.0 0.2999038 -0.0
1.1754173 1.1000041 -0.0 0.6593022 -0.0 -0.0 0.7124189 0.60071164
0.23249356 -0.0 -0.0 0.73223966 0.6927166 -0.0 -0.0 -0.0
1.2893784 0.011405587 0.65896696 1.1855755 -0.0 0.29430398 0.3465445 0.077483475
0.16478977 -0.0 -0.0 0.9147661 0.84018505 0.11576262 -0.0 1.0956908
0.7311818 -0.0 -0.0 -0.0 1.1481518 1.0442941 -0.0 -0.0
-0.0 1.4486258 -0.0 0.7640686 1.7442818 -0.0 0.76780725 0.5780574
-0.0 0.17537507 -0.0 -0.0 1.3886828 0.7854103 0.29163617 0.3239023
-0.0 0.13999492 1.0998946 -0.0 0.80542684 -0.0 -0.0 0.35736862
0.50602114 -0.0 0.77361333 0.5800209 0.39110506 -0.0 -0.0 -0.0
-0.0 0.23983228 -0.0 0.8000374 0.68045604 -0.0 0.73826796 -0.0
0.8314632 -0.0 -0.0 0.1270181 -0.0 0.5764742 0.69058996 0.0325938
0.95093644 0.71500975 -0.0 0.5806465 0.50657725 0.45043933 0.19770925 -0.0
-0.0 -0.0 0.07460013 -0.0 -0.0 -0.0 0.5022765 0.085758686
-0.0 0.43759793 0.10993768 0.19466364 0.13997483 -0.0 0.10204047 0.7371911
0.3350603 0.47894108 0.26980358 -0.0 0.8901345 0.28304476 0.54556966 0.6526235
-0.0 0.111880615 -0.0 0.07009372 -0.0 -0.0 -0.0 0.70904577
0.39952505 -0.0 -0.0 0.7796414 0.70092773 0.46135923 -0.0 -0.0
00000000: 112b b93e 0000 0080 e4b3 a23d bbad a63f
00000010: 0000 0080 8ecf 833f 0000 0080 0000 0080
00000020: a7bc cf3e 3857 203f 0000 0080 af3b 333f
00000030: 3cab 2d3f 30c0 af3e 0000 0080 0000 0080
00000040: 0000 0080 0000 0080 b8a7 8d3e 0000 0080
00000050: 024c 823f de24 663f 0000 0080 dad1 423f
00000060: 0000 0080 57c8 9b3f 0000 0080 0000 0080
00000070: a10d 143f d211 103e c76f b93f d487 693e
00000080: 0000 0080 f9c6 b53f 0bf7 a93f a0ad c73c
00000090: 6008 363e 329d 663f d2bd 893e 0000 0080
000000a0: 0000 0080 0000 0080 0000 0080 38e6 253e
000000b0: 0000 0080 6fdf f33e f43f 263f 0000 0080
000000c0: 0000 0080 0000 0080 a435 d13f 0000 0080
000000d0: 0000 0080 0000 0080 a157 b83e 654b 953f
000000e0: c83b 7b3f 0000 0080 100c f43f abbc ba3f
000000f0: 7a0f f13e 008b 2c3d afca 4c3f ee26 ad3e
00000100: 0000 0080 0000 0080 0000 0080 0000 0080
00000110: 20cb e43b 0000 0080 0000 0080 0000 0080
00000120: 817f fb3e 0000 0080 0000 0080 4e76 ad3f
00000130: 0000 0080 0000 0080 0000 0080 ca1d 233e
00000140: 4113 183f 16b8 a03f 7e96 a23d 65ae c83f
00000150: 3039 853f 8040 553e c483 a33e 343c 0a3f
00000160: 81d6 e93e 05e4 a03e 0000 0080 64d2 ae3e
00000170: 0000 0080 0000 0080 0000 0080 0000 0080
00000180: 0000 0080 3cfa 643f 0000 0080 0000 0080
00000190: db36 073f 0000 0080 0000 0080 483d b53f
000001a0: 0000 0080 24e6 aa3f 0000 0080 0000 0080
000001b0: 6f6c 1b3f ca2b 5c3f 0000 0080 fc29 0b3f
000001c0: 3667 513f ec8a 8f3e 0000 0080 0000 0080
000001d0: 0000 0080 0000 0080 fe8c 993e 0000 0080
000001e0: 1374 963f efcc 8c3f 0000 0080 07c8 283f
000001f0: 0000 0080 0000 0080 1661 363f 3dc8 193f
00000200: cb12 6e3e 0000 0080 0000 0080 0f74 3b3f
00000210: e055 313f 0000 0080 0000 0080 0000 0080
00000220: 5a0a a53f 80de 3a3c 0fb2 283f f0c0 973f
00000230: 0000 0080 03af 963e 486e b13e a8af 9e3d
00000240: a6be 283e 0000 0080 0000 0080 1c2e 6a3f
00000250: 5e16 573f f414 ed3d 0000 0080 993f 8c3f
00000260: bb2e 3b3f 0000 0080 0000 0080 0000 0080
00000270: a3f6 923f 6eab 853f 0000 0080 0000 0080
00000280: 0000 0080 926c b93f 0000 0080 009a 433f
00000290: a044 df3f 0000 0080 048f 443f 92fb 133f
000002a0: 0000 0080 8695 333e 0000 0080 0000 0080
000002b0: 5cc0 b13f a610 493f 5651 953e 86d6 a53e
000002c0: 0000 0080 d45a 0f3e 59c9 8c3f 0000 0080
000002d0: 7430 4e3f 0000 0080 0000 0080 05f9 b63e
000002e0: 9a8a 013f 0000 0080 860b 463f 407c 143f
000002f0: ec3e c83e 0000 0080 0000 0080 0000 0080
00000300: 0000 0080 9896 753e 0000 0080 40cf 4c3f
00000310: 5e32 2e3f 0000 0080 21ff 3c3f 0000 0080
00000320: c6da 543f 0000 0080 0000 0080 0811 023e
00000330: 0000 0080 d093 133f 81ca 303f 1481 053d
00000340: 9270 733f e10a 373f 0000 0080 40a5 143f
00000350: 0caf 013f fc9f e63e 4b74 4a3e 0000 0080
00000360: 0000 0080 0000 0080 f4c7 983d 0000 0080
00000370: 0000 0080 0000 0080 3195 003f 40a2 af3d
00000380: 0000 0080 d60c e03e 0227 e13d e855 473e
00000390: 9055 0f3e 0000 0080 98fa d03d 8eb8 3c3f
000003a0: 068d ab3e c437 f53e b223 8a3e 0000 0080
000003b0: dbdf 633f 3eeb 903e 74aa 0b3f 5512 273f
000003c0: 0000 0080 aa21 e53d 0000 0080 4c8d 8f3d
000003d0: 0000 0080 0000 0080 0000 0080 0684 353f
000003e0: 8c8e cc3e 0000 0080 0000 0080 9496 473f
000003f0: 0070 333f 4737 ec3e 0000 0080 0000 0080

x f4 [25, 25]
-0.14837861 -0.030685581 -0.1716944 -0.09526077 0.078520864 0.11261567 -0.0087676 0.028048327
0.15471542 0.23021978 0.008687235 0.10240492 -0.123848386 0.09862911 -0.120319225 0.2198287
-0.14050457 -0.1816116 -0.17532276 -0.009013026 0.15642084 -0.2442209 0.0029088682 0.012024585
0.017215097 0.05957736 0.10982744 0.06553142 0.024905693 0.03578766 -0.12893702 0.19421513
0.10464443 -0.1490795 -0.093206234 0.049862526 -0.012524932 -0.06863207 -0.09428531 -0.12906304
-0.043195754 0.18389653 -0.12927036 0.11341329 -0.1780657 -0.19264011 -0.10445981 -0.040659565
0.009064129 -0.01486965 -0.10577246 -0.28455785 -0.03230861 -0.12301249 0.16716549 0.029572489
0.022004401 -0.11263927 0.20788634 -0.030154232 -0.0070899385 0.0690862 0.11748644 -0.07282099
0.18315415 -0.18836538 0.07497068 -0.1398853 0.08102001 -0.033956893 -0.39676407 -0.12052466
-0.18881501 0.17416793 -0.057391003 -0.0059234365 0.1577745 0.11369972 0.12172315 0.006239369
-0.008050861 -0.21867645 -0.099790365 -0.14298889 -0.07004443 -0.017772699 -0.15044574 0.10109585
0.17596151 -0.09562814 -0.033264875 0.03841433 -0.2202937 0.0623499 0.12840787 0.24451056
0.0142172575 -0.019950682 0.057370506 0.14346334 0.015001854 0.0197812 -0.0657752 -0.13721491
-0.19209619 -0.18147139 -0.13248126 -0.09211884 0.2312099 -0.11963281 0.16946329 0.17563291
-0.07337924 -0.040816322 0.17539962 -0.045762725 0.013313651 0.016543174 -0.17119539 -0.006476486
-0.06929145 0.06428256 0.0881322 -0.050136495 0.13729014 -0.032810032 -0.10329105 0.09831993
-0.1851532 0.14846568 -0.01968975 0.102926366 0.15503754 -0.11566318 -0.052937854 0.19181667
-0.054827653 0.1103794 0.0623131 -0.19677477 0.16005707 -0.109188676 -0.03134953 0.007818013
-0.137597 0.2060759 0.075422876 -0.03801335 -0.019068249 0.0985158 0.11668158 -0.19314675
-0.16764176 -0.0818817 -0.028138613 0.13201496 0.17405798 0.19381133 0.048378337 0.3054321
0.0791122 -0.11089902 -0.03567337 -0.10307039 0.037825227 0.14293113 0.15944348 0.011459984
0.13463427 0.0106152855 -0.1410217 0.18372884 0.18987237 0.077395245 -0.15948914 -0.02224467
0.09884787 0.054461285 0.15857416 0.19578677 0.1487668 0.046968147 0.021368504 -0.015258887
-0.14951758 -0.031887855 0.049664445 -0.03753275 0.062380023 0.033242464 0.0064745843 -0.0045038164
-0.113716595 0.07192923 0.05751759 0.12559542 -0.13364454 -0.1216336 0.1789977 0.07807546
-0.00680028 -0.1530206 0.15598069 0.063784115 -0.11805441 -0.14642671 0.1713638 -0.020402817
0.1819305 0.12221294 -0.10125914 0.15183337 0.17492236 -0.04988688 -0.05787602 -0.12278366
0.00686042 -0.03306879 -0.14459197 0.10771068 0.06679242 -0.023221405 0.07173712 -0.2063861
0.057709727 -0.16799194 0.17871213 -0.09989502 0.1680549 -0.095788136 0.120931916 -0.07882494
-0.16263819 0.16966894 0.10118283 0.11835217 -0.19051738 0.19316837 0.19663042 -0.19817209
0.14488077 0.1762601 -0.06603081 -0.17836797 0.042174038 -0.008557556 0.037590068 -0.00428887
-0.16096927 0.011262852 -0.058787383 0.15954188 -0.14134017 -0.15284793 -0.009144149 -0.17872718
00000000: 90f0 17be 5460 fbbc a8d0 2fbe 1418 c3bd
00000010: 8ccf a03d 0ba3 e63d fba5 0fbc 9bc5 e53c
00000020: b86d 1e3e bcbe 6b3e e854 0e3c acb9 d13d
00000030: 39a4 fdbd 0ffe c93d ed69 f6bd c61a 613e
00000040: 6ee0 0fbe 64f8 39be cf87 33be 5fab 13bc
00000050: c92c 203e 0b15 7abe b6a2 3e3b c402 453c
00000060: ad06 8d3c 6407 743d 35ed e03d 5635 863d
00000070: 0607 cc3c 1596 123d 1108 04be 55e0 463e
00000080: d24f d63d 4ca8 18be e9e2 bebd a63c 4c3d
00000090: 5f35 4dbc f98e 8cbd a818 c1bd 1a29 04be
000000a0: 08ee 30bd 5f4f 3c3e 735f 04be 3a45 e83d
000000b0: db56 36be 7343 45be 06ef d5bd a58a 26bd
000000c0: b681 143c d59f 73bc 3b9f d8bd 91b1 91be
000000d0: 0856 04bd f9ed fbbd 6e2d 2b3e 0142 f23c
000000e0: 9342 b43c 6baf e6bd 28e0 543e 0206 f7bc
000000f0: b752 e8bb 117d 8d3d bb9c f03d 2c23 95bd
00000100: c38c 3b3e dbe2 40be 3a8a 993d 183e 0fbe
00000110: d2ed a53d 6216 0bbd a924 cbbe a2d5 f6bd
00000120: b958 41be 1459 323e d412 6bbd 6319 c2bb
00000130: a38f 213e 66db e83d fd49 f93d 9f73 cc3b
00000140: c2e7 03bc b8ec 5fbe e45e ccbd ae6b 12be
00000150: 7473 8fbd 0d98 91bc 730e 1abe 570b cf3d
00000160: 412f 343e b0d8 c3bd c040 08bd 5858 1d3d
00000170: ac94 61be 9c62 7f3d 5a7d 033e fa60 7a3e
00000180: 80ef 683c 9d6f a3bc 56fd 6a3d 0ee8 123e
00000190: 56ca 753c 2f0c a23c 26b5 86bd 1182 0cbe
000001a0: ddb4 44be a3d3 39be 2ba9 07be cda8 bcbd
000001b0: 4ac2 6c3e 0c02 f5bd c987 2d3e 1dd9 333e
000001c0: db47 96bd 042f 27bd f59b 333e b271 3bbd
000001d0: 8021 5a3c 8d85 873c d84d 2fbe b438 d4bb
000001e0: ade8 8dbd 93a6 833d a87e b43d ed5b 4dbd
000001f0: c995 0c3e d063 06bd 428a d3bd f65b c93d
00000200: cd98 3dbe 6307 183e 664c a1bc 0fcb d23d
00000210: 29c2 1e3e d1e0 ecbd 5dd5 58bd 976b 443e
00000220: f692 60bd 980e e23d 053c 7f3d 537f 49be
00000230: 00e6 233e 509e dfbd 5d68 00bd 2017 003c
00000240: 3ae6 0cbe 9005 533e 4f77 9a3d e3b3 1bbd
00000250: 0435 9cbc a7c2 c93d c1f6 ee3d 43c8 45be
00000260: 48aa 2bbe 98b1 a7bd f382 e6bc ee2e 073e
00000270: 413c 323e 7a76 463e 5d28 463d 9961 9c3e
00000280: 9405 a23d 071f e3bd 3d1e 12bd 9216 d3bd
00000290: a0ee 1a3d 8a5c 123e 2745 233e a8c2 3b3c
000002a0: 91dd 093e bceb 2d3c fe67 10be 6a23 3c3e
000002b0: e76d 423e 6681 9e3d 1f51 23be 743a b6bc
000002c0: c170 ca3d cc12 5f3d 4461 223e 547c 483e
000002d0: 5356 183e ac61 403d 000d af3c 6900 7abc
000002e0: 231b 19be d79c 02bd f26c 4b3d f1bb 19bd
000002f0: 3282 7f3d 4029 083d c028 d43b c094 93bb
00000300: 3fe4 e8bd a24f 933d 9097 6b3d 169c 003e
00000310: 1dda 08be 091b f9bd 2c4b 373e 07e6 9f3d
00000320: e2d4 debb 6fb1 1cbe 67b9 1f3e 3fa1 823d
00000330: 83c6 f1bd e2f0 15be fe79 2f3e cf23 a7bc
00000340: fd4b 3a3e c74a fa3d f460 cfbd 357a 1b3e
00000350: d91e 333e 2f56 4cbd 680f 6dbd 0076 fbbd
00000360: 60cd e03b 2473 07bd eb0f 14be 6b97 dc3d
00000370: 77ca 883d d13a bebc e9ea 923d e156 53be
00000380: 0961 6c3d 1406 2cbe 5000 373e c395 ccbd
00000390: 9516 2c3e 922c c4bd 27ab f73d f86e a1bd
000003a0: a08a 26be b2bd 2d3e f238 cf3d 9f62 f23d
000003b0: fd16 43be eecd 453e 7c59 493e a0ed 4abe
000003c0: a05b 143e 877d 343e 293b 87bd 18a6 36be
000003d0: afbe 2c3d fe34 0cbc 0bf8 193d a689 8cbb
000003e0: 21d5 24be d387 383c 0acb 70bd f25e 233e
000003f0: 7abb 10be 2b84 1cbe 57d1 15bc 4204 37be

b f4 [1, 25]
1.0 1.0 1.0 1.0 1.0 1.0 1.0 1.0
1.0 1.0 1.0 1.0 1.0 1.0 1.0 1.0
1.0 1.0 1.0 1.0 1.0 1.0 1.0 1.0
1.0
00000000: 0000 803f 0000 803f 0000 803f 0000 803f
00000010: 0000 803f 0000 803f 0000 803f 0000 803f
00000020: 0000 803f 0000 803f 0000 803f 0000 803f
00000030: 0000 803f 0000 803f 0000 803f 0000 803f
00000040: 0000 803f 0000 803f 0000 803f 0000 803f
00000050: 0000 803f 0000 803f 0000 803f 0000 803f
00000060: 0000 803f

grad f4 [25, 25]
-0.00032407368 0.04259753 0.0 0.00013796045 -0.019088216 0.0013597972 -0.00067987817 0.0
-0.025086736 -0.020817509 0.0023065603 0.0008968799 0.008980195 0.010319044 0.0 0.0019075001
0.0 0.00048029382 0.0 0.0036097718 0.05323975 0.00689598 -0.0021775553 0.0008056195
0.016634936 0.0 0.003721161 0.0 0.00035153166 -0.0012558432 0.0017328156 0.0
0.0 -0.0016322698 -0.0004220616 0.00050288194 0.000661867 0.00088405155 0.0 0.0
0.00020973917 0.0 7.3166746e-05 0.0 0.0005857539 0.0 0.0007176198 -0.00013771991
0.00059949304 0.00032668863 -2.1102844e-07 0.0028351536 0.0 0.00026448618 -0.0007672956 0.0012621683
0.00025206694 0.0 -0.0021926714 -0.0013502146 0.0005826141 0.0005638926 0.00079385686 -8.2625775e-05
0.0 0.0001062722 0.0 0.00023778682 0.0 0.00034771298 -1.6507693e-06 0.00065506727
0.00025130142 0.00055366004 0.00044954848 -3.8228223e-05 0.03449473 0.0 9.953124e-05 -0.019458968
0.0013166989 7.039786e-05 0.0 -0.018817158 -0.016212309 0.0020114132 0.0011362679 0.008601851
0.0126034925 0.0 0.00018441155 0.0 0.0021905198 0.0 0.001237727 0.041068837
0.0045703677 -0.0046734675 0.001740469 0.012330317 -6.0298702e-05 0.0006279119 0.0 0.0
-0.00026082614 0.00017479858 0.0 0.0 -0.0005886752 -0.00030137645 7.8431374e-05 9.213809e-05
2.962066e-05 -0.0001045697 0.0 0.00033198541 0.0 0.0 0.0 0.000133122
0.00067786913 0.00021988177 0.0002825176 -3.643728e-05 0.00026179935 -0.00025191705 0.057070535 0.0
-6.446326e-06 -0.028612578 0.0012285787 -0.0008471233 0.0 -0.03111529 -0.026556592 0.00277267
0.0010946365 0.013024237 0.017723016 0.0 0.0013172808 0.0 0.0017111553 0.0
0.0035365494 0.07167875 0.008094057 -0.0058607776 0.0015705483 0.02145982 -0.00018053716 0.01428869
0.0 0.00057161285 -0.0055276686 0.0027926269 0.0 0.0 -0.008377602 -0.005140974
0.0010659987 0.0010072213 0.0028792666 0.0014709444 0.0 0.0014752132 0.0 2.9582377e-05
0.0 0.0018509355 0.011911264 0.002741773 0.00015637348 0.00081942254 0.0044734613 -2.136742e-05
0.0041627437 0.0 0.00041191737 -0.0015596405 0.0018783628 0.0 0.0 -0.0018619802
-0.00042495813 0.00047544687 0.0006701901 0.0009579264 0.0 0.0 0.00042696198 0.0
5.9572958e-05 0.0 0.00064324646 0.00027533414 0.00081820256 -0.00011610304 0.0006263554 0.00052256347
-0.0003773151 0.04944151 0.0 0.00014677586 -0.022104684 0.0015094623 -0.0008191241 0.0
-0.029012103 -0.024123581 0.0026676264 0.0010198664 0.01042728 0.012047643 0.0 0.0022077875
0.0 0.0005434941 0.0 0.004175966 0.06197831 0.007968207 -0.0025648905 0.0009011434
0.019327324 -0.00029750547 0.04851267 0.0 4.3072607e-05 -0.023068396 0.0011655223 -0.00078565464
0.0 -0.027423086 -0.023141192 0.002456244 0.0009279938 0.010629923 0.013497037 0.0
0.0016064488 0.0 0.000983242 0.0 0.003553015 0.0611922 0.007348416 -0.0037662196
0.0010513195 0.018594641 -6.5128384e-05 0.00065540057 0.0 0.0 -0.0002989472 0.00018688754
00000000: 6fe8 a9b9 bf7a 2e3d 0000 0000 7aa9 1039
00000010: e45e 9cbc 393b b23a da39 32ba 0000 0000
00000020: b382 cdbc 7b89 aabc a929 173b 971c 6b3a
00000030: ab21 133c 3511 293c 0000 0000 1505 fa3a
00000040: 0000 0000 f2cf fb39 0000 0000 ec91 6c3b
00000050: ed11 5a3d acf7 e13b 51b5 0ebb 3630 533a
00000060: fd45 883c 0000 0000 b9de 733b 0000 0000
00000070: c84d b839 1b9b a4ba a51f e33a 0000 0000
00000080: 0000 0000 e3f1 d5ba 2648 ddb9 d6d3 033a
00000090: 2481 2d3a b2bf 673a 0000 0000 0000 0000
000000a0: 6eed 5b39 0000 0000 1971 9938 0000 0000
000000b0: 478d 193a 0000 0000 a61e 3c3a e868 10b9
000000c0: 4c27 1d3a 6847 ab39 0e97 62b4 fccd 393b
000000d0: 0000 0000 bcaa 8a39 5624 49ba 576f a53a
000000e0: da27 8439 0000 0000 ecb2 0fbb aff9 b0ba
000000f0: 92ba 183a 31d2 133a d51a 503a 6047 adb8
00000100: 0000 0000 74de de38 0000 0000 6a56 7939
00000110: 0000 0000 3f4d b639 0090 ddb5 d2b8 2b3a
00000120: 1bc1 8339 7f23 113a 60b1 eb39 3e57 20b8
00000130: 594a 0d3d 0000 0000 6dbb d038 6a68 9fbc
00000140: 1595 ac3a 90a2 9338 0000 0000 7126 9abc
00000150: adcf 84bc ead1 033b d3ee 943a c7ee 0c3c
00000160: e17e 4e3c 0000 0000 995e 4139 0000 0000
00000170: d38e 0f3b 0000 0000 3a3b a23a cc37 283d
00000180: 06c3 953b e323 99bb 7320 e43a 1905 4a3c
00000190: 3de9 7cb8 749a 243a 0000 0000 0000 0000
000001a0: 7ebf 88b9 234a 3739 0000 0000 0000 0000
000001b0: 5351 1aba 1002 9eb9 867b a438 433a c138
000001c0: e279 f837 6e4c dbb8 0000 0000 540e ae39
000001d0: 0000 0000 0000 0000 0000 0000 aa96 0b39
000001e0: 07b3 313a 1090 6639 df1e 9439 3bd4 18b8
000001f0: 1d42 8939 bc13 84b9 cbc2 693d 0000 0000
00000200: 854d d8b6 ed64 eabc 4308 a13a 7b11 5eba
00000210: 0000 0000 7ee5 febc 368d d9bc afb5 353b
00000220: e879 8f3a 9c63 553c dc2f 913c 0000 0000
00000230: 9ca8 ac3a 0000 0000 d848 e03a 0000 0000
00000240: 74c5 673b 4fcc 923d f09c 043c c40b c0bb
00000250: dbda cd3a 81cc af3c 934e 3db9 1c1b 6a3c
00000260: 0000 0000 4ad8 153a 7221 b5bb 8104 373b
00000270: 0000 0000 0000 0000 3642 09bc 9e75 a8bb
00000280: fbb8 8b3a bd04 843a 14b2 3c3b b4cc c03a
00000290: 0000 0000 f15b c13a 0000 0000 ac27 f837
000002a0: 0000 0000 179b f23a 7627 433c 51af 333b
000002b0: 30f8 2339 84ce 563a 1d96 923b 2f3e b3b7
000002c0: a067 883b 0000 0000 9df6 d739 da6c ccba
000002d0: 6633 f63a 0000 0000 0000 0000 b00d f4ba
000002e0: eacc deb9 6645 f939 b2af 2f3a 5a1d 7b3a
000002f0: 0000 0000 0000 0000 ded9 df39 0000 0000
00000300: fadd 7938 0000 0000 8a9f 283a b95a 9039
00000310: a57c 563a 587c f3b8 0032 243a a4fc 083a
00000320: 60d2 c5b9 2e83 4a3d 0000 0000 d8e7 1939
00000330: e214 b5bc 26d9 c53a 7dba 56ba 0000 0000
00000340: caaa edbc d19e c5bc 58d3 2e3b 0aad 853a
00000350: 2fd7 2a3c 7a63 453c 0000 0000 87b0 103b
00000360: 0000 0000 4679 0e3a 0000 0000 8bd6 883b
00000370: f8dc 7d3d 158d 023c b917 28bb b63a 6c3a
00000380: 5654 9e3c 82fa 9bb9 39b5 463d 0000 0000
00000390: dca8 3438 eff9 bcbc 70c4 983a 64f4 4dba
000003a0: 0000 0000 61a6 e0bc 9992 bdbc f0f8 203b
000003b0: 9c44 733a 2129 2e3c ad22 5d3c 0000 0000
000003c0: 7a8f d23a 0000 0000 20e0 803a 0000 0000
000003d0: b3d9 683b aca4 7a3d fbca f03b aed2 76bb
000003e0: 6ecc 893a ca53 983c 8995 88b8 30cf 2b3a
000003f0: 0000 0000 0000 0000 04bc 9cb9 3ef7 4339

p f4 [1, 25]
0.086024806 0.07699127 -0.005516723 -0.15707786 0.15394397 -0.003355437 -0.08164215 -0.15087469
0.31107447 0.015290455 -0.13650435 -0.018525826 -0.18353735 -0.04324829 -0.045816213 0.123708144
-0.039030626 0.0583611 0.08798681 0.11443452 -0.4307682 -0.20029299 -0.14203191 -0.014453877
0.068024166
00000000: c62d b03d 99ad 9d3d a0c5 b4bb 05d9 20be
00000010: 7da3 1d3e e4e6 5bbb 0034 a7bd e57e 1abe
00000020: 2745 9f3e d184 7a3c ccc7 0bbe 79c3 97bc
00000030: 37f1 3bbe 1e25 31bd c8a9 3bbd b25a fd3d
00000040: 94de 1fbd 0c0c 6f3d 6e32 b43d a55c ea3d
00000050: a68d dcbe 9b19 4dbe d070 11be f4cf 6cbc
00000060: 4150 8b3d

grad f4 [1, 25]
-0.00021702373 0.046358097 0.0 0.00059334736 -0.021827267 0.003267082 0.00012214988 0.0
-0.029028429 -0.02347192 0.00315248 0.0017787945 0.01031004 0.010822274 0.0 0.0014717716
0.0 0.0014552823 0.0 0.0036825284 0.05222123 0.007885707 -0.002266035 0.0021135518
0.017063724
00000000: dd90 63b9 fde1 3d3d 0000 0000 de8a 1b3a
00000010: 19cf b2bc 8a1c 563b 5c15 0039 0000 0000
00000020: 07cd edbc 2f48 c0bc d799 4e3b 7026 e93a
00000030: 71eb 283c e84f 313c 0000 0000 76e8 c03a
00000040: 0000 0000 2cbf be3a 0000 0000 9356 713b
00000050: eee5 553d 0d33 013c c281 14bb 8483 0a3b
00000060: 39c9 8b3c

x f4 [100, 25]
-0.0 0.2708803 0.58826745 0.21096443 0.3578027 -0.0 -0.0 -0.0
0.2504161 -0.0 -0.0 -0.0 0.055967808 0.5043326 -0.0 0.25551105
0.034220323 -0.0 0.063145295 0.24589673 0.21059519 -0.0 -0.0 -0.0
0.34202555 -0.0 0.10823313 0.17435552 0.06029199 0.16001661 -0.0 -0.0
-0.0 0.6493742 0.4516104 0.1552768 -0.0 0.14131637 0.6318729 -0.0
0.69761056 0.047125913 -0.0 -0.0 0.22033086 0.3569556 -0.0 0.18300405
-0.0 0.3366238 -0.0 -0.0 -0.0 -0.0 -0.0 0.24510056
0.29308924 -0.0 1.0157347 1.0524476 0.38830644 -0.0 0.14277373 0.33481577
-0.0 0.93359876 0.27347142 -0.0 -0.0 0.37095174 0.05687952 -0.0
0.3673666 -0.0 0.12508011 -0.0 -0.0 -0.0 -0.0 -0.0
0.5245954 0.34069455 -0.0 0.8920976 1.0917484 0.33315864 -0.0 -0.0
-0.0 -0.0 0.7281464 0.35166705 -0.0 -0.0 0.33428407 -0.0
-0.0 0.57484365 -0.0 -0.0 -0.0 0.35674742 0.6187015 0.25623173
0.36272824 -0.0 -0.0 -0.0 0.22465155 -0.0 0.010251835 -0.0
0.14305918 0.67099226 -0.0 0.3964126 -0.0 -0.0 -0.0 0.29853892
0.50989 -0.0 0.001014635 -0.0 0.47639537 0.14920598 -0.0 0.12329598
0.08992989 0.2925215 0.7951187 0.011608683 -0.0 0.24721347 0.1130726 0.005912766
-0.0 -0.0 -0.0 0.06414156 -0.0 0.63571775 -0.0 0.7981468
-0.0 -0.0 -0.0 0.16646788 0.7640751 -0.0 0.012358688 -0.0
0.04447887 0.113009766 0.3529626 1.05099 0.20853901 -0.0 0.09594454 0.11903779
0.19998622 -0.0 -0.0 -0.0 0.17242324 -0.0 0.91227406 -0.0
1.0423032 -0.0 -0.0 -0.0 0.40143913 1.1031065 -0.0 0.0051844195
0.17608343 0.5090663 0.1524746 0.3314784 0.020877928 -0.0 -0.0 0.3219738
0.0103505775 -0.0 -0.0 -0.0 0.3717849 -0.0 0.18275371 0.083775885
-0.0 0.10225089 0.19170225 -0.0 -0.0 -0.0 -0.0 0.22036386
-0.0 -0.0 -0.0 -0.0 0.059191488 0.42985496 0.082129106 -0.0
0.67712 0.72242916 0.08379778 -0.0 -0.0 0.007643137 -0.0 0.44609588
0.2345017 -0.0 -0.0 0.11303494 -0.0 -0.0 0.34584716 -0.0
-0.0 0.056169547 -0.0 -0.0 0.032340825 0.12846895 0.6189436 0.0040098056
-0.0 0.5085269 0.46518794 0.041627914 -0.0 -0.0 -0.0 -0.0
0.14001356 0.36659306 -0.0 0.31658214 0.053083744 -0.0 -0.0 0.30990744
0.2802725 -0.0 0.18899027 -0.0 0.18227941 0.14908199 0.31586716 0.79631424
00000000: 0000 0080 d3b0 8a3e b298 163f 0f07 583e
00000010: ea31 b73e 0000 0080 0000 0080 0000 0080
00000020: 8a36 803e 0000 0080 0000 0080 0000 0080
00000030: 803e 653d f11b 013f 0000 0080 58d2 823e
00000040: 9c2a 0c3d 0000 0080 5252 813d 5acc 7b3e
00000050: 44a6 573e 0000 0080 0000 0080 0000 0080
00000060: f91d af3e 0000 0080 55a9 dd3d 418a 323e
00000070: bcf4 763d 65db 233e 0000 0080 0000 0080
00000080: 0000 0080 633d 263f 7a39 e73e e200 1f3e
00000090: 0000 0080 3db5 103e 6cc2 213f 0000 0080
000000a0: 9b96 323f 1a07 413d 0000 0080 0000 0080
000000b0: 6a9e 613e e2c2 b63e 0000 0080 6a65 3b3e
000000c0: 0000 0080 f459 ac3e 0000 0080 0000 0080
000000d0: 0000 0080 0000 0080 0000 0080 a4fb 7a3e
000000e0: cb0f 963e 0000 0080 9803 823f 9ab6 863f
000000f0: 1ad0 c63e 0000 0080 4733 123e f96c ab3e
00000100: 0000 0080 5400 6f3f 7204 8c3e 0000 0080
00000110: 0000 0080 63ed bd3e 80fa 683d 0000 0080
00000120: 7a17 bc3e 0000 0080 0015 003e 0000 0080
00000130: 0000 0080 0000 0080 0000 0080 0000 0080
00000140: e24b 063f 846f ae3e 0000 0080 8260 643f
00000150: 69be 8b3f c593 aa3e 0000 0080 0000 0080
00000160: 0000 0080 0000 0080 cd67 3a3f b40d b43e
00000170: 0000 0080 0000 0080 4827 ab3e 0000 0080
00000180: 0000 0080 f428 133f 0000 0080 0000 0080
00000190: 0000 0080 99a7 b63e 3963 1e3f ce30 833e
000001a0: 84b7 b93e 0000 0080 0000 0080 0000 0080
000001b0: 0e0b 663e 0000 0080 50f7 273c 0000 0080
000001c0: 1b7e 123e 26c6 2b3f 0000 0080 98f6 ca3e
000001d0: 0000 0080 0000 0080 0000 0080 18da 983e
000001e0: 2788 023f 0000 0080 80fd 843a 0000 0080
000001f0: 18ea f33e 74c9 183e 0000 0080 9a82 fc3d
00000200: 2a2d b83d 61c5 953e e68c 4b3f 5832 3e3c
00000210: 0000 0080 8725 7d3e 9b92 e73d e0bf c13b
00000220: 0000 0080 0000 0080 0000 0080 a65c 833d
00000230: 0000 0080 66be 223f 0000 0080 5953 4c3f
00000240: 0000 0080 0000 0080 0000 0080 8e76 2a3e
00000250: 6d9a 433f 0000 0080 187c 4a3c 0000 0080
00000260: 7a2f 363d aa71 e73d 84b7 b43e d786 863f
00000270: 408b 553e 0000 0080 927e c43d 16ca f33d
00000280: 30c9 4c3e 0000 0080 0000 0080 0000 0080
00000290: b88f 303e 0000 0080 cb8a 693f 0000 0080
000002a0: 316a 853f 0000 0080 0000 0080 0000 0080
000002b0: 6e89 cd3e 9832 8d3f 0000 0080 10e2 a93b
000002c0: 374f 343e 2b52 023f 4d22 1c3e 89b7 a93e
000002d0: 3008 ab3c 0000 0080 0000 0080 c0d9 a43e
000002e0: 7895 293c 0000 0080 0000 0080 0000 0080
000002f0: 975a be3e 0000 0080 ca23 3b3e b192 ab3d
00000300: 0000 0080 ea68 d13d 984d 443e 0000 0080
00000310: 0000 0080 0000 0080 0000 0080 10a7 613e
00000320: 0000 0080 0000 0080 0000 0080 0000 0080
00000330: c672 723d f315 dc3e 4e33 a83d 0000 0080
00000340: bc57 2d3f 1ef1 383f 2c9e ab3d 0000 0080
00000350: 0000 0080 4873 fa3b 0000 0080 ae66 e43e
00000360: 3721 703e 0000 0080 0000 0080 dd7e e73d
00000370: 0000 0080 0000 0080 e112 b13e 0000 0080
00000380: 0000 0080 0a12 663d 0000 0080 0000 0080
00000390: d077 043d 5d8d 033e 1673 1e3f b064 833b
000003a0: 0000 0080 d22e 023f 1d2d ee3e 0882 2a3d
000003b0: 0000 0080 0000 0080 0000 0080 0000 0080
000003c0: b75f 0f3e 16b2 bb3e 0000 0080 0e17 a23e
000003d0: 576e 593d 0000 0080 0000 0080 30ac 9e3e
000003e0: e17f 8f3e 0000 0080 aa86 413e 0000 0080
000003f0: 74a7 3a3e f3a8 183e 57b9 a13e 40db 4b3f

x f4 [25, 25]
-0.17932054 -0.019206103 -0.084069826 -0.08585411 0.08852604 -0.17495455 0.046878763 0.07366373
-0.06306187 -0.10681485 -0.090525806 -0.023232682 -0.10254296 0.0003868663 0.0972286 0.124440156
0.12174724 -0.15644288 -0.17557482 0.22477643 -0.076749265 0.18341994 0.017030194 -0.052650116
0.13740292 0.16355579 -0.13584696 0.048556373 0.117295295 0.04671767 -0.180029 -0.08434488
-0.14190164 -0.05022272 -0.30718112 -0.14630581 -0.27149627 0.120546095 0.33321148 -0.13866055
-0.03772463 0.1161436 -0.16239685 0.17659222 -0.11892962 0.090426266 -0.21151774 -0.04242092
0.09399424 -0.15300038 -0.11994044 0.10214879 -0.048764497 -0.02750947 -0.022606261 -0.13322392
0.15804328 0.049504925 -0.19588913 -0.02806594 -0.042315427 0.056444053 0.08347183 0.39978442
-0.10551005 -0.039050605 -0.19001113 0.22071481 -0.18677905 -0.20465161 0.06654076 -0.10036391
-0.046381265 -0.039380457 0.16199286 -0.01671498 0.016797239 0.061726734 -0.09337767 0.027444256
0.05779417 0.019547308 -0.14995277 0.16765569 -0.22538148 -0.11854567 -0.075676404 -0.04408208
-0.0045533204 0.13059457 -0.09369151 0.122679606 0.17201026 0.11386992 0.02312739 0.17866926
0.09701047 0.072362736 -0.2176565 -0.053411014 -0.14301324 0.052976504 -0.027712077 0.05147999
-0.14437939 0.109720066 -0.017881049 -0.09246444 0.15329374 -0.0082332045 0.13006945 0.07985328
0.16714638 -0.17991143 -0.15377948 -0.118512005 0.12436606 0.15972377 -0.15078911 0.22043656
-0.23500025 -0.123265214 0.10492683 -0.05842165 0.032660663 0.1676219 0.0048565473 -0.02439721
0.024450317 -0.105893955 -0.20729522 0.12231476 0.028323608 0.080488235 -0.08448563 0.13973193
-0.121600196 -0.057874843 -0.16046925 0.031771928 0.02323933 0.15964203 -0.13643748 -0.13083854
-0.21695077 -0.18749142 -0.0708865 0.20627448 0.073662914 -0.097153865 0.046356335 -0.06126557
-0.19368513 -0.12205645 0.039846092 -0.054478355 -0.002197653 0.04008089 -0.20650718 0.10999462
0.0063700373 -0.0017969788 -0.09480137 -0.06193795 -0.011318773 0.07951313 0.106839046 -0.08391711
-0.1089911 0.15856355 0.10925668 0.11700921 0.12783007 -0.033173922 -0.052599758 -0.029743358
-0.1471968 0.15686436 0.10509767 0.068538085 -0.015979141 -0.08745237 -0.029122666 0.13412811
0.09292154 -0.16740076 0.11904551 -0.010772869 -0.075502805 0.02845785 0.08869092 -0.11930802
0.11820997 0.18964298 0.06620531 0.067003384 -0.16422656 0.014650866 -0.053445607 -0.06480007
0.08329335 0.09577698 -0.11111458 -0.13643697 0.043264132 0.19294707 -0.024045534 -0.018265976
0.08637902 0.24557616 -0.00088220363 -0.03158697 0.03635171 -0.316361 -0.0019218028 -0.035243567
-0.17845416 -0.12946582 -0.045946673 -0.06665907 -0.04110349 0.12802273 -0.11881812 0.18336803
0.16937885 0.093634635 -0.06920099 -0.16579847 0.057107776 0.027771372 -0.13820803 -0.16172054
-0.09137544 0.0896117 0.13160948 0.12758829 0.07913842 0.08574765 -0.44635075 0.041608125
0.14011486 -0.17930368 -0.005787278 0.13160129 0.21322785 0.09136232 -0.13027048 -0.102046266
0.08653312 0.11118561 0.09020196 0.13371474 -0.13849926 -0.053670235 0.21918258 0.07183836
00000000: ce9f 37be 1e56 9dbc cd2c acbd 48d4 afbd
00000010: 244d b53d 4927 33be f203 403d 02dd 963d
00000020: 9526 81bd bec1 dabd 9865 b9bd 7752 bebc
00000030: 0b02 d2bd 51d4 ca39 ca1f c73d 7bda fe3d
00000040: 9e56 f93d 9032 20be e3c9 33be cb2b 663e
00000050: b82e 9dbd 70d2 3b3e e882 8b3c a6a7 57bd
00000060: 5ab3 0c3e 2b7b 273e 771b 0bbe 0ce3 463d
00000070: 8438 f03d 075b 3f3d 8659 38be 02bd acbd
00000080: aa4e 11be 57b6 4dbd d846 9dbe 31d1 15be
00000090: 8f01 8bbe dfe0 f63d b29a aa3e 08fd 0dbe
000000a0: 2485 1abd b2dc ed3d 5c4b 26be 97d4 343e
000000b0: 5f91 f3bd 6831 b93d 1b98 58be 8fc1 2dbd
000000c0: 0d80 c03d 22ac 1cbe 55a3 f5bd 6333 d13d
000000d0: 48bd 47bd 8a5b e1bc c430 b9bc da6b 08be
000000e0: 19d6 213e adc5 4a3d 2997 48be 8bea e5bc
000000f0: f152 2dbd e131 673d 47f3 aa3d 8bb0 cc3e
00000100: a715 d8bd 87f3 1fbd 4792 42be 1003 623e
00000110: 0243 3fbe 3190 51be 8646 883d 988b cdbd
00000120: 48fa 3dbd 674d 21bd 75e1 253e dbed 88bc
00000130: 5d9a 893c 2cd5 7c3d cb3c bfbd c7d2 e03c
00000140: 94b9 6c3d ad21 a03c 388d 19be efad 2b3e
00000150: 67ca 66be 12c8 f2bd 3bfc 9abd 698f 34bd
00000160: 0534 95bb 95ba 053e 56e1 bfbd 723f fb3d
00000170: 7523 303e a234 e93d a775 bd3c 13f5 363e
00000180: 6dad c63d ea32 943d 58e1 5ebe 82c5 5abd
00000190: 1072 12be e4fd 583d 7004 e3bc afdc 523d
000001a0: 31d8 13be eab4 e03d 477b 92bc ff5d bdbd
000001b0: 09f9 1c3e 90e4 06bc ed30 053e 1e8a a33d
000001c0: 6c28 2b3e b43a 38be 5e78 1dbe 6cb6 f2bd
000001d0: a2b3 fe3d a18e 233e 7668 1abe 1fba 613e
000001e0: e8a3 70be 7972 fcbd e1e3 d63d 8a4b 6fbd
000001f0: 30c7 053d 13a5 2b3e ac23 9f3b a8dc c7bc
00000200: 084c c83c eede d8bd 3345 54be 2980 fa3d
00000210: e906 e83c 04d7 a43d cd06 adbd e315 0f3e
00000220: 8609 f9bd 2c0e 6dbd 0d52 24be 4823 023d
00000230: 6860 be3c 3379 233e 44b6 0bbe 8afa 05be
00000240: 5828 5ebe c0fd 3fbe f12c 91bd 9e39 533e
00000250: 95dc 963d 9bf8 c6bd 24e0 3d3d 9bf1 7abd
00000260: 6555 46be bbf8 f9bd a835 233d b224 5fbd
00000270: 8006 10bb dc2b 243d 9e76 53be dc44 e13d
00000280: bfbb d03b 9a88 ebba 3827 c2bd a6b2 7dbd
00000290: 6072 39bc c8d7 a23d 6ece da3d bcdc abbd
000002a0: ba36 dfbd 7c5e 223e f7c1 df3d 86a2 ef3d
000002b0: e3e5 023e 61e1 07bd d872 57bd 58a8 f3bc
000002c0: c2ba 16be 0da1 203e 723d d73d b25d 8c3d
000002d0: b0e6 82bc 3a1a b3bd a892 eebc e158 093e
000002e0: a64d be3d 1b6b 2bbe 22ce f33d b080 30bc
000002f0: 37a1 9abd 7020 e93c 96a3 b53d c357 f4bd
00000300: 1218 f23d c531 423e a696 873d 1239 893d
00000310: 022b 28be 300a 703c c8e9 5abd e6b5 84bd
00000320: b495 aa3d b926 c43d 0a90 e3bd 22b6 0bbe
00000330: bb35 313d eb93 453e 24fb c4bc 87a2 95bc
00000340: 7ce7 b03d 5178 7b3e af43 67ba 5761 01bd
00000350: 88e5 143d 12fa a1be 00e5 fbba 8f5b 10bd
00000360: b0bc 36be b092 04be 9432 3cbd 8d84 88bd
00000370: 225c 28bd 6418 033e ea56 f3bd d4c4 3b3e
00000380: a671 2d3e 84c3 bf3d 40b9 8dbd 13c7 29be
00000390: d8e9 693d ca80 e33c 6886 0dbe 129a 25be
000003a0: 0c23 bbbd 5786 b73d a3c4 063e 81a6 023e
000003b0: 5313 a23d 779c af3d 1688 e4be 486d 2a3d
000003c0: 457a 0f3e 629b 37be 35a3 bdbb 7dc2 063e
000003d0: 6758 5a3e 2b1c bb3d a065 05be a2fd d0bd
000003e0: 4738 b13d 48b5 e33d cebb b83d 84ec 083e
000003f0: c0d2 0dbe 52d5 5bbd 6671 603e fd1f 933d

b f4 [1, 25]
1.0 1.0 1.0 1.0 1.0 1.0 1.0 1.0
1.0 1.0 1.0 1.0 1.0 1.0 1.0 1.0
1.0 1.0 1.0 1.0 1.0 1.0 1.0 1.0
1.0
00000000: 0000 803f 0000 803f 0000 803f 0000 803f
00000010: 0000 803f 0000 803f 0000 803f 0000 803f
00000020: 0000 803f 0000 803f 0000 803f 0000 803f
00000030: 0000 803f 0000 803f 0000 803f 0000 803f
00000040: 0000 803f 0000 803f 0000 803f 0000 803f
00000050: 0000 803f 0000 803f 0000 803f 0000 803f
00000060: 0000 803f
