Proj_253133_270642_271518/Proj2/model/best-model.pt (torch_old, 83253 bytes, 25 tensors)

x f4 [100, 2]
0	0xbfaa2b75	-1.3294512
1	0xbfab414b	-1.3379301
2	0xbebae474	-0.3650242
3	0x3f9a099e	1.2034185
4	0xbe18046f	-0.14845441
5	0xbfa449d0	-1.2835026
6	0x3a4a8ebd	0.0007726958
7	0x3e956488	0.29178262
8	0xbf08338e	-0.53203666
9	0xbfbe3299	-1.4859191
10	0xbfae67bc	-1.3625407
11	0x3fd59399	1.6685668
12	0x3fd0ea3b	1.6321481
13	0xbed7ed76	-0.42173356
14	0x3e94e449	0.29080418
15	0xbe588ff6	-0.21148667
16	0x3f778acd	0.9669617
17	0xbf199717	-0.5999617
18	0xbd8f4ea3	-0.06997421
19	0xbf28523a	-0.6575047
20	0xbf8d99a6	-1.1062515
21	0xbdaf23b8	-0.08551735
22	0xbfa46c2a	-1.2845509
23	0x3dddc919	0.10829372
24	0xbf590e8d	-0.8478783
25	0x3f135406	0.57550085
26	0xbf61332f	-0.87968725
27	0xbca64529	-0.02029665
28	0xbe3e68ea	-0.18594709
29	0x3fd3205a	1.6494248
30	0xbd85db8f	-0.06536018
31	0x3f4a71ef	0.790801
32	0x3f28c492	0.6592494
33	0xbe2a285d	-0.1661696
34	0xbf1c72ae	-0.6111249
35	0x3f245453	0.6419117
36	0x3fca4f0e	1.5805376
37	0xbf631330	-0.8870115
38	0x3f57c0c0	0.8427849
39	0x3eef7e49	0.46776035
40	0xbf9aa769	-1.208234
41	0xbf188584	-0.5957873
42	0x3fcd2025	1.6025435
43	0x3f88cbed	1.0687233
44	0xbe986ffa	-0.2977293
45	0x3e5f8ddb	0.21831457
46	0x3f93b601	1.1539918
47	0x3f6e8495	0.93171054
48	0x3edcc41e	0.43118376
49	0xbe34b00b	-0.1764528
50	0xbf8abbde	-1.0838583
51	0x3f0ebd43	0.5575754
52	0x3f7c9778	0.9866862
53	0x3f2a3be2	0.66497624
54	0xbf777e6f	-0.966773
55	0xbe1567e5	-0.14590414
56	0x3e91d7c4	0.2848493
57	0x3e2774c1	0.16353132
58	0xbeac83a8	-0.33694196
59	0x3f9d5d7d	1.2294155
60	0xbf56f325	-0.8396476
61	0x3deca8e1	0.115556486
62	0x3fa085b3	1.2540802
63	0xbf9c64a2	-1.2218211
64	0xbe0df2bc	-0.13862127
65	0xbd517273	-0.051134538
66	0xbf80c759	-1.0060836
67	0xbeacd93c	-0.33759487
68	0xbf03d6ef	-0.5149984
69	0xbfb383a0	-1.4024544
70	0x3fb82f72	1.4389479
71	0xbf2ee6e0	-0.6832104
72	0xbcb0e593	-0.021593845
73	0x3f10cf2f	0.5656614
74	0x3f47f2e2	0.78104985
75	0x3f4ae0b4	0.7924912
76	0xbf9d6c22	-1.2298625
77	0xbf517e93	-0.8183376
78	0x3faeeb79	1.366561
79	0x3f364a28	0.71206903
80	0x3e581ce4	0.21104771
81	0xbfad44e2	-1.3536646
82	0x3f56df5b	0.83934563
83	0xbfd3af28	-1.6537828
84	0xbf8793d9	-1.0591995
85	0x3f95c006	1.1699226
86	0x3fbe16b2	1.4850676
87	0x3fc2fca3	1.5233349
88	0xbee2d375	-0.44301954
89	0x3f919e6d	1.1376473
90	0xbfd0c6b5	-1.631064
91	0xbe658521	-0.22414066
92	0xbf454814	-0.7706311
93	0xbea654ba	-0.32486516
94	0x3fb2a3d6	1.3956249
95	0xbf23884a	-0.63879836
96	0xbf9ff74d	-1.2497345
97	0xbfd5cd86	-1.6703346
98	0x3f09acdf	0.53779405
99	0xbfa1f048	-1.2651453
100	0xbfc0c997	-1.506152
101	0x3f93606a	1.1513798
102	0x3f0b73a8	0.5447335
103	0x3f71ab7b	0.94402283
104	0x3fbd29f3	1.4778427
105	0x3f7178e8	0.94325113
106	0xbf1cb3c5	-0.61211807
107	0x3fa46ed4	1.2846322
108	0xbf85e273	-1.0459732
109	0xbfbb942c	-1.4654593
110	0xbf976371	-1.1827222
111	0xbfa8900d	-1.3168961
112	0x3e154286	0.14576158
113	0xbe1d5960	-0.15366125
114	0x3dfebe2f	0.124386184
115	0x3f1c65ec	0.6109302
116	0x3d8f2367	0.06989174
117	0x3f3e6f84	0.7438891
118	0x3e830f06	0.255974
119	0x3f9f21bd	1.2432171
120	0xbf0573d9	-0.52129894
121	0x3fc19520	1.5123634
122	0x3f6cbdbb	0.92477006
123	0xbe9ec463	-0.31009206
124	0x3efbd3dc	0.49185073
125	0xbf1818b5	-0.594127
126	0x3f800d25	1.0004011
127	0xbfc89984	-1.5671849
128	0x3fc34179	1.5254356
129	0x3f943d71	1.158125
130	0xbf91041f	-1.1329383
131	0x3f979fe5	1.1845671
132	0xbf4954ba	-0.7864491
133	0xbf1cdb59	-0.612722
134	0x3f2f593c	0.68495536
135	0x3fc9342d	1.5719048
136	0x3f693ba6	0.9110664
137	0x3f5c80ee	0.8613423
138	0xbf9e0c6b	-1.234754
139	0x3fcdba3c	1.6072459
140	0xbf02db00	-0.5111542
141	0xbeb6fca7	-0.35739633
142	0x3f5ade66	0.85495603
143	0x3fade0cd	1.3584229
144	0xbe958e95	-0.29210344
145	0xbeea0665	-0.45708004
146	0x3ed8c978	0.42341208
147	0x3f8c0217	1.0938138
148	0xbfb3316b	-1.3999456
149	0xbee67622	-0.45012003
150	0x3f93be17	1.1542386
151	0x3e9fe5c2	0.3122998
152	0xbf1cfe8a	-0.61325896
153	0xbe933882	-0.2875405
154	0x3fa73ffe	1.3066404
155	0x3fbb584d	1.4636322
156	0xbf7ba6d0	-0.9830141
157	0xbe50e73c	-0.20400709
158	0xbfb0d45e	-1.3814809
159	0x3f924c60	1.1429558
160	0x3fa43e20	1.2831459
161	0x3f3aaf4d	0.7292374
162	0xbf08d0ee	-0.534438
163	0xbe9aa927	-0.30207178
164	0xbfd58fc6	-1.6684501
165	0xbec13d23	-0.37741956
166	0x3f7f509e	0.9973239
167	0xbf4c3e00	-0.79782104
168	0xbf5063d1	-0.8140231
169	0xbe5c0d0e	-0.21489355
170	0x3dd9ca94	0.10634342
171	0xbed3b75f	-0.4135084
172	0x3f40fc76	0.75385225
173	0x3f961ee1	1.1728173
174	0xbf00c563	-0.5030119
175	0xbfce369a	-1.6110413
176	0x3f8f039a	1.1172974
177	0x3ea19dc5	0.3156568
178	0xbf057d30	-0.52144146
179	0x3f3e2ae3	0.7428419
180	0xbf7368ce	-0.95081794
181	0x3f2e8bc3	0.6818201
182	0x3f90b589	1.13054
183	0x3fb2063d	1.3908154
184	0x3fbec3fa	1.4903557
185	0x3d52a674	0.051428273
186	0x3ef0596f	0.46943232
187	0xbe2cac48	-0.16862595
188	0xbf985cf1	-1.1903363
189	0xbef0a5e5	-0.47001567
190	0xbf03101a	-0.51196444
191	0xbfa020bf	-1.2509993
192	0xbde58695	-0.1120731
193	0x3fd6a361	1.6768609
194	0xbfdc3995	-1.7205073
195	0x3fd00ec8	1.6254511
196	0x3f33b21b	0.7019364
197	0x3d7ea0ef	0.062165197
198	0x3fa65c0e	1.2996843
199	0xbfbde4b0	-1.4835415

x f4 [2, 25]
0	0xbd02b420	-0.03191006
1	0xbf35cde7	-0.7101731
2	0x3f4071bc	0.75173545
3	0xbe7cd443	-0.24690346
4	0xbd91c6a0	-0.07117963
5	0x3eee1614	0.4650122
6	0xbf2cb9c4	-0.67470956
7	0xbeaaf525	-0.33390155
8	0xbe8458a5	-0.2584888
9	0x3f0b61b6	0.5444597
10	0xbeff2b02	-0.498375
11	0x3ec3347d	0.38125983
12	0xbf26e1c3	-0.65188235
13	0x3e0e341f	0.1388707
14	0x3ece752a	0.40323764
15	0x3f201a22	0.62539876
16	0x3ecad3ad	0.3961462
17	0x3ecbb4ad	0.39786282
18	0xbb94b9f3	-0.0045387684
19	0xba4b5db4	-0.00077577983
20	0x3e41c3be	0.18922326
21	0x3f499a23	0.7875082
22	0x3e7bae70	0.24578261
23	0xbdbdca80	-0.092671394
24	0x3e9613cc	0.2931198
25	0xbf28ffde	-0.6601542
26	0x3dcf7db2	0.10131396
27	0x3eaeb080	0.34119034
28	0x3f14c14c	0.5810745
29	0x3f250013	0.6445324
30	0xbe72a257	-0.2369474
31	0xbec5323a	-0.38514882
32	0x3ee43b77	0.44576618
33	0x3f046dd3	0.5173008
34	0xbf29dfae	-0.66356933
35	0xbe94a493	-0.2903181
36	0x3f288c86	0.6583942
37	0xbf517b57	-0.81828827
38	0xbe8bf185	-0.27332702
39	0x3ebc7599	0.3680847
40	0xbe84e45d	-0.25955477
41	0xbf013639	-0.5047336
42	0xbe1c70b5	-0.1527737
43	0x3c3f3411	0.011670128
44	0xbed5b729	-0.41741303
45	0x3e88e55f	0.26737496
46	0xbe998b14	-0.2998892
47	0xbea95878	-0.3307531
48	0x3ecb6a5a	0.39729577
49	0xbf32a2a4	-0.6977942

b f4 [1, 25]
0	0x3f800000	1.0
1	0x3f800000	1.0
2	0x3f800000	1.0
3	0x3f800000	1.0
4	0x3f800000	1.0
5	0x3f800000	1.0
6	0x3f800000	1.0
7	0x3f800000	1.0
8	0x3f800000	1.0
9	0x3f800000	1.0
10	0x3f800000	1.0
11	0x3f800000	1.0
12	0x3f800000	1.0
13	0x3f800000	1.0
14	0x3f800000	1.0
15	0x3f800000	1.0
16	0x3f800000	1.0
17	0x3f800000	1.0
18	0x3f800000	1.0
19	0x3f800000	1.0
20	0x3f800000	1.0
21	0x3f800000	1.0
22	0x3f800000	1.0
23	0x3f800000	1.0
24	0x3f800000	1.0

grad f4 [2, 25]
0	0x00000000	0.0
1	0xba8e41f6	-0.0010853398
2	0x3c0a5a15	0.008444329
3	0x00000000	0.0
4	0x3c7e8c4a	0.015536377
5	0x3a158ba6	0.0005704708
6	0xbc201d12	-0.009772556
7	0xbaf8c20a	-0.0018978727
8	0x396f1f4c	0.00022804475
9	0xbb435fe6	-0.0029811799
10	0x00000000	0.0
11	0x394e2a5f	0.00019661475
12	0xbc554347	-0.013016528
13	0x00000000	0.0
14	0x3ae79ac7	0.0017670029
15	0x3b098ac9	0.0020987263
16	0x3c589a78	0.013220422
17	0xbad9836d	-0.0016594954
18	0xb8d9d685	-0.00010387324
19	0x37e3ffa0	2.7179543e-05
20	0xbb2e7963	-0.0026622645
21	0x3bee4fb4	0.007272685
22	0x3b6792a0	0.0035335198
23	0x00000000	0.0
24	0xb92cd4d1	-0.00016482479
25	0x00000000	0.0
26	0xbafea9d4	-0.0019429275
27	0x3c5ba1ac	0.013405245
28	0x00000000	0.0
29	0x3cc29696	0.023753446
30	0x3afe9ecc	0.0019425987
31	0xbc9113ef	-0.0177097
32	0xba85d717	-0.0010211196
33	0x3a66ef2f	0.0008809445
34	0xbb126a00	-0.0022341013
35	0x00000000	0.0
36	0x379b9aa0	1.8549443e-05
37	0xbc7cf060	-0.015438169
38	0x00000000	0.0
39	0x3afa02fb	0.0019074375
40	0x3b5571e7	0.0032569112
41	0x3c8583b5	0.016298154
42	0xbaf5b5d4	-0.0018746206
43	0xb9db0705	-0.00041776165
44	0x397b5a5a	0.00023970884
45	0xbb6d77b7	-0.0036234686
46	0x3c2c0753	0.010499793
47	0x3bb6d977	0.005580123
48	0x00000000	0.0
49	0x3a0163cd	0.0004935831

p f4 [1, 25]
0	0xbeafd1c7	-0.34339735
1	0x3ed3b334	0.4134766
2	0x3f4b7fa6	0.7949165
3	0x3d919b83	0.0710974
4	0x3f45dda9	0.7729135
5	0xbe061fcc	-0.13098067
6	0xbdfcb4a9	-0.12339146
7	0xbd88ed1c	-0.0668585
8	0xbaea000a	-0.0017852795
9	0x3f077ccd	0.52924806
10	0xbdd2bfd0	-0.102904916
11	0x3f29bf34	0.6630738
12	0x3e6af459	0.22944774
13	0xbed8d659	-0.42351034
14	0x3d1634ab	0.03667132
15	0xbf1e037f	-0.61724085
16	0x3eb70062	0.3574248
17	0xbf164a6a	-0.58707297
18	0xbf0e0e8b	-0.5549094
19	0x3f259778	0.6468425
20	0x3e0c3b9f	0.13694619
21	0x3c6cd929	0.014456072
22	0xbe9e57b6	-0.30926293
23	0x3f283e07	0.65719646
24	0xbf22bc53	-0.6356861

grad f4 [1, 25]
0	0x00000000	0.0
1	0x3b00ac3a	0.0019633905
2	0xbc81f0fb	-0.015861979
3	0x00000000	0.0
4	0xbcd8863d	-0.026431197
5	0xbb1656a7	-0.0022939832
6	0x3ca628c3	0.020283109
7	0x3ac7c42b	0.0015240958
8	0xba50306f	-0.00079417875
9	0x3b299d5e	0.0025881152
10	0x00000000	0.0
11	0x392f129d	0.00016696235
12	0x3c9abf66	0.018890094
13	0x00000000	0.0
14	0xbb182055	-0.002321263
15	0xbb5969f2	-0.003317472
16	0xbc9cfcba	-0.019163478
17	0x3b065c4d	0.0020501793
18	0x39df6c48	0.0004261455
19	0xba880273	-0.0010376706
20	0x3b78b38b	0.0037948813
21	0xbc488d4b	-0.012240718
22	0xbbbf9b82	-0.0058473954
23	0x00000000	0.0
24	0xba0592f3	-0.00050954445

x f4 [100, 25]
0	0xbe741166	-0.23834762
1	0x3deb0434	0.11475411
2	0x3f07d44e	0.53058326
3	0xbf0737c6	-0.5281948
4	0xbe1394b8	-0.144122
5	0x3f3b7067	0.7321839
6	0x3f3102a3	0.6914465
7	0x3db94b94	0.090476185
8	0xbec72aed	-0.38899937
9	0x3e5d3fa9	0.21606316
10	0xbf382f08	-0.71946764
11	0xbe0044d0	-0.1252625
12	0xbe9a618d	-0.3015255
13	0xbead6b60	-0.33870983
14	0x3f4361b2	0.76320946
15	0xbe526e5c	-0.20549911
16	0xbe43f287	-0.19135486
17	0x3e098cca	0.13432613
18	0xbe241f73	-0.16027622
19	0x3ca8fe68	0.020629123
20	0xbe800c06	-0.25009173
21	0x3ea0e114	0.3142172
22	0xbde9ebde	-0.11421941
23	0xbea0d12a	-0.3140958
24	0xbe8af6e9	-0.27141502
25	0xbdbcebad	-0.09224639
26	0x3e4ffb74	0.20310766
27	0x3dde0944	0.10841611
28	0xbe26b754	-0.16280872
29	0x3e6c0b0a	0.23051086
30	0xbee8b5a0	-0.4545107
31	0x3f1c332f	0.610156
32	0xbf02ff10	-0.51170444
33	0xbd162b54	-0.036662415
34	0xbe0d166e	-0.13778087
35	0xbeeb3452	-0.45938355
36	0xbd2631ea	-0.040574946
37	0x3f09dc7a	0.53852046
38	0xbe460750	-0.19338727
39	0xbf2f4816	-0.6846937
40	0x3e6bb786	0.23019227
41	0x3e2ff28b	0.17182367
42	0x3eb710a0	0.3575487
43	0x3e7a5aa9	0.24448647
44	0x3ed84334	0.42238772
45	0x3f2ea456	0.68219507
46	0xbe03044b	-0.12794606
47	0x3ea2e6bb	0.31816658
48	0xbe8e39c4	-0.27778447
49	0x3e202c9c	0.15642017
50	0xbe0280a8	-0.12744391
51	0x3e2c5f29	0.16833176
52	0x3ee5d7fa	0.4489134
53	0xbe87d886	-0.26532382
54	0x3e46d6b8	0.19417846
55	0xbd205fbc	-0.0391538
56	0x3e9da109	0.30786923
57	0xbe112772	-0.14175203
58	0x3d4b4630	0.049627483
59	0xbe81b612	-0.2533422
60	0xbec0c788	-0.3765223
61	0xbdb2334f	-0.087011926
62	0x3ede3b0c	0.43404424
63	0xbe5cd398	-0.21565092
64	0xbd7a2031	-0.061065856
65	0x3e9d5980	0.30732346
66	0x3e6f2270	0.2335298
67	0x3d432278	0.047640294
68	0x3cfe1248	0.031014577
69	0x3e52d638	0.2058953
70	0x3e950eb4	0.2911278
71	0xbd289f35	-0.041167457
72	0x3e021174	0.1270197
73	0xbe14017a	-0.14453688
74	0x3c1387ec	0.009004574
75	0xbded58a7	-0.11589175
76	0x3dcd3a5e	0.10020898
77	0x3e46629e	0.19373557
78	0xbe5a8c2a	-0.21342531
79	0x3e78dc0e	0.24302694
80	0xbe92bb11	-0.28658345
81	0x3f066e04	0.5251162
82	0xbea66eff	-0.32506558
83	0x3cae31b4	0.021263935
84	0xbe939a03	-0.2882844
85	0xbebce294	-0.36891615
86	0xbd464160	-0.04840219
87	0x3f03172a	0.5120722
88	0xbe86a680	-0.26298904
89	0xbef4ffb0	-0.47851324
90	0x3e855b9f	0.26046464
91	0x3e78af0e	0.24285528
92	0x3e2fa116	0.17151293
93	0x3e028feb	0.12750213
94	0x3eaa59b0	0.3327155
95	0x3f09ed27	0.5387749
96	0xbd13f2c7	-0.036120202
97	0x3e53c17f	0.20679282
98	0xbe624d23	-0.22099738
99	0x3e0cade0	0.13738203
100	0xbe3e1d14	-0.1856578
101	0x3e37f28b	0.17963617
102	0x3ef2629a	0.47340852
103	0xbeb98349	-0.36232975
104	0x3d1caec8	0.038252622
105	0x3ea743ee	0.32669014
106	0x3ee311c4	0.44349492
107	0xbdb89ee3	-0.0901468
108	0xbdb8aad1	-0.09016956
109	0xbd6d8c94	-0.057995394
110	0xbf0cde3c	-0.550266
111	0xbdc2f2cb	-0.09518965
112	0x3dee2016	0.11627214
113	0xbe8b7ea2	-0.2724505
114	0x3e99c178	0.30030417
115	0x3d8c3de4	0.06847742
116	0x3cf14328	0.029450968
117	0x3dbc3c65	0.09191207
118	0xbd3d0d98	-0.046155542
119	0x3e0249e8	0.12723505
120	0x3d52020b	0.05127148
121	0x3e089023	0.13336234
122	0x3c9e6fb8	0.019340381
123	0xbe509503	-0.20369343
124	0xbd8175f8	-0.06321329
125	0xbdf4aeeb	-0.119474255
126	0x3e99f1f4	0.30067408
127	0x3d5ca508	0.053868324
128	0xbdfad8c9	-0.1224838
129	0x3e76f85a	0.24118176
130	0xbf21c77b	-0.6319501
131	0x3f22099e	0.63295925
132	0xbf2817f0	-0.65661526
133	0xbdd1ecf7	-0.102502756
134	0xbda742f1	-0.08167065
135	0xbefce0aa	-0.49390155
136	0xbd4565b6	-0.048192702
137	0x3f0b2858	0.54358435
138	0xbd4e0892	-0.050301142
139	0xbf4aa621	-0.7915974
140	0x3e82036d	0.2539324
141	0x3e57ca42	0.21073249
142	0x3edb6ec6	0.4285795
143	0x3eb18558	0.34672046
144	0x3ee4c180	0.4467888
145	0x3f41aeea	0.7565752
146	0xbe68f5fa	-0.22750083
147	0x3ed2b27c	0.41151798
148	0xbeb644a6	-0.3559925
149	0x3e32ade4	0.17449147
150	0xbdf2b32a	-0.11850579
151	0x3e5bf4f9	0.21480168
152	0x3ec4300a	0.383179
153	0xbe0fb556	-0.14034018
154	0x3ea2f8f5	0.31830564
155	0xbe36bb2c	-0.17844838
156	0x3ee0f0da	0.43933755
157	0xbe31dc10	-0.17369103
158	0x3dd24740	0.10267496
159	0xbe98ede4	-0.29868996
160	0xbeef9456	-0.4679286
161	0x3b7b71e0	0.0038367435
162	0x3eca2aa0	0.39485645
163	0xbe94627d	-0.2898139
164	0xbedc70aa	-0.43054706
165	0x3eac1c96	0.3361556
166	0x3e8f62f0	0.2800517
167	0x3e926b88	0.28597665
168	0x3e82b80a	0.25531036
169	0x3eb21bf8	0.34786963
170	0x3f194d26	0.59883344
171	0xbd31fc39	-0.04345343
172	0x3e7278d4	0.23678905
173	0xbe1eb893	-0.15500097
174	0xbe321178	-0.17389476
175	0xbdf513f8	-0.11966699
176	0x3ddf8a63	0.10915067
177	0x3e8908e0	0.26764584
178	0xbe63ef41	-0.22259237
179	0x3e842f2c	0.2581724
180	0xbe72cd64	-0.23711163
181	0x3ee5f5b6	0.44914025
182	0xbe6783b1	-0.2260883
183	0x3d777974	0.06041856
184	0xbea2f09e	-0.318242
185	0xbeae825e	-0.34083837
186	0xbd953a21	-0.07286478
187	0x3efc37ce	0.49261326
188	0xbe951d56	-0.29123944
189	0xbec9c5c6	-0.39408702
190	0x3ea4e722	0.3220759
191	0x3e97aa4a	0.29622108
192	0x3dcc90e2	0.09988572
193	0x3dd136be	0.10215519
194	0x3ea29c57	0.31759903
195	0x3efd4858	0.49469256
196	0xbcda26a6	-0.026629757
197	0x3e472b9d	0.19450231
198	0xbe38a665	-0.18032224
199	0x3de83b3d	0.11339424
200	0xbdfe00f5	-0.12402526
201	0x3e3ff658	0.18746316
202	0x3eb56692	0.35429817
203	0xbe4a5066	-0.19757232
204	0x3e829ad2	0.25508744
205	0xbe5c337d	-0.21504016
206	0x3ed12802	0.40850836
207	0xbe1cd0b4	-0.15313989
208	0x3db76010	0.08953869
209	0xbe9ca5dc	-0.3059529
210	0xbec10322	-0.37697703
211	0xbd8113b7	-0.063025884
212	0x3edd7011	0.43249562
213	0xbe9895b2	-0.29801708
214	0xbeb634c2	-0.35587126
215	0x3eacf0d5	0.3377749
216	0x3e956424	0.29177964
217	0x3e35d75e	0.17757937
218	0x3e156733	0.14590149
219	0x3eaf21c0	0.34205437
220	0x3f032963	0.51235026
221	0xbd56b9ec	-0.052423403
222	0x3e6eccf8	0.23320377
223	0xbe28df35	-0.16491397
224	0xbcf0d63a	-0.029399026
225	0xbddcfe9a	-0.10790749
226	0x3e002f98	0.12518156
227	0x3eae3c03	0.3403016
228	0xbe7c32ba	-0.24628726
229	0x3e801410	0.25015306
230	0xbe421f1c	-0.1895718
231	0x3ebbf69d	0.36711589
232	0xbe4063b6	-0.18788037
233	0x3dabe189	0.08392627
234	0xbe9fd4f6	-0.31217164
235	0xbea869e8	-0.328933
236	0xbdc70bf1	-0.097190745
237	0x3f048065	0.51758415
238	0xbe6a8fd4	-0.22906429
239	0xbe8904ca	-0.26761466
240	0x3eb47890	0.35248232
241	0x3e8e521e	0.27797025
242	0x3d5a7b59	0.05334029
243	0x3d9c331c	0.07626936
244	0x3e83c803	0.25738534
245	0x3edd3f30	0.4321227
246	0xbd50f984	-0.051019207
247	0x3e2aa455	0.1666425
248	0xbe1f54f0	-0.15559745
249	0x3dd28aaf	0.10280358
250	0xbe2c47ff	-0.1682434
251	0x3dc0d960	0.09416461
252	0x3eb6678f	0.35625884
253	0xbe94cb32	-0.29061276
254	0x3e502690	0.2032721
255	0xbe056f4a	-0.13030735

x f4 [100, 25]
0	0x3f150f5e	0.58226573
1	0x3f9c6ca9	1.222066
2	0x80000000	-0.0
3	0x80000000	-0.0
4	0x3baa8700	0.0052040815
5	0x80000000	-0.0
6	0x3fa4fad0	1.2889042
7	0x80000000	-0.0
8	0x80000000	-0.0
9	0x3f31772e	0.6932248
10	0x3f72b5be	0.94808567
11	0x80000000	-0.0
12	0x400c37ce	2.190906
13	0x80000000	-0.0
14	0x80000000	-0.0
15	0x80000000	-0.0
16	0x3f018d8c	0.5060661
17	0x80000000	-0.0
18	0x80000000	-0.0
19	0x3f9a6975	1.2063433
20	0x80000000	-0.0
21	0x80000000	-0.0
22	0x80000000	-0.0
23	0x3e7ed11e	0.2488446
24	0x80000000	-0.0
25	0x80000000	-0.0
26	0x3f4b6ce0	0.79463005
27	0x3f6e5d34	0.93110967
28	0x3f5c49a8	0.8604989
29	0x3fc98a76	1.574538
30	0x80000000	-0.0
31	0x80000000	-0.0
32	0x3f176a60	0.5914669
33	0x3f3710b6	0.71509874
34	0x80000000	-0.0
35	0x80000000	-0.0
36	0x3fa87a2d	1.3162285
37	0x80000000	-0.0
38	0x80000000	-0.0
39	0x3eaa358b	0.33243975
40	0x80000000	-0.0
41	0x80000000	-0.0
42	0x80000000	-0.0
43	0x80000000	-0.0
44	0x3e144744	0.1448031
45	0x3ec77ec6	0.38963908
46	0x80000000	-0.0
47	0x80000000	-0.0
48	0x3f95a646	1.1691368
49	0x80000000	-0.0
50	0x3f0236da	0.50864947
51	0x3ec719bb	0.38886818
52	0x3e7b49f8	0.24539936
53	0x80000000	-0.0
54	0x80000000	-0.0
55	0x3dd53702	0.104108825
56	0x3ef1358c	0.47111166
57	0x80000000	-0.0
58	0x80000000	-0.0
59	0x3fa66a1f	1.3001136
60	0x3eaffa1d	0.3437051
61	0x80000000	-0.0
62	0x3fb03113	1.3764976
63	0x80000000	-0.0
64	0x80000000	-0.0
65	0x80000000	-0.0
66	0x3f724a07	0.94644207
67	0x80000000	-0.0
68	0x80000000	-0.0
69	0x3f9762fc	1.1827083
70	0x80000000	-0.0
71	0x3e909e04	0.28245556
72	0x3da15338	0.07877201
73	0x3e24e36c	0.1610238
74	0x3e5d9d1c	0.21641964
75	0x80000000	-0.0
76	0x3ee28dfc	0.4424895
77	0x3f65220c	0.89505076
78	0x3e763996	0.24045405
79	0x3f75fefa	0.9609219
80	0x80000000	-0.0
81	0x80000000	-0.0
82	0x3d80ec18	0.06295031
83	0x3e18877e	0.14895436
84	0x3eac0ed8	0.33605075
85	0x80000000	-0.0
86	0x3f5b0080	0.8554764
87	0x80000000	-0.0
88	0x80000000	-0.0
89	0x3e13d94d	0.14438362
90	0x80000000	-0.0
91	0x3e578268	0.2104584
92	0x80000000	-0.0
93	0x80000000	-0.0
94	0x3f06698c	0.525048
95	0x3e5c4536	0.21510777
96	0x80000000	-0.0
97	0x80000000	-0.0
98	0x3f45e688	0.7730489
99	0x80000000	-0.0
100	0x3f278e58	0.65451574
101	0x3f240986	0.6407703
102	0x80000000	-0.0
103	0x80000000	-0.0
104	0x80000000	-0.0
105	0x80000000	-0.0
106	0x3f4ed125	0.8078788
107	0x80000000	-0.0
108	0x80000000	-0.0
109	0x3f9ce000	1.2255859
110	0x3f17f8aa	0.59363806
111	0x80000000	-0.0
112	0x3fe56642	1.7921832
113	0x80000000	-0.0
114	0x80000000	-0.0
115	0x80000000	-0.0
116	0x3f658b1b	0.89665383
117	0x80000000	-0.0
118	0x80000000	-0.0
119	0x3fa23d5a	1.2674973
120	0x80000000	-0.0
121	0x3d2847a7	0.041083958
122	0x3d52b700	0.051444054
123	0x3dede0e8	0.11615163
124	0x3e7b1d5c	0.24522918
125	0x80000000	-0.0
126	0x3fc66bd2	1.5501654
127	0x3eae0d4d	0.33994523
128	0x3fb043fe	1.377075
129	0x3ff90108	1.945344
130	0x80000000	-0.0
131	0x3e1cf5c4	0.15328127
132	0x3f90e1a9	1.1318866
133	0x3f9b562b	1.2135671
134	0x80000000	-0.0
135	0x3dbbe02a	0.09173615
136	0x3f9eff50	1.2421665
137	0x80000000	-0.0
138	0x80000000	-0.0
139	0x3dcfb402	0.10141756
140	0x80000000	-0.0
141	0x80000000	-0.0
142	0x80000000	-0.0
143	0x80000000	-0.0
144	0x80000000	-0.0
145	0x3ea687cc	0.3252548
146	0x80000000	-0.0
147	0x80000000	-0.0
148	0x3fb922f7	1.4463795
149	0x80000000	-0.0
150	0x80000000	-0.0
151	0x80000000	-0.0
152	0x3ff06147	1.8779687
153	0x80000000	-0.0
154	0x3ec513d3	0.38491687
155	0x3f3a58c1	0.7279168
156	0x80000000	-0.0
157	0x80000000	-0.0
158	0x80000000	-0.0
159	0x3fd94f6e	1.6977365
160	0x80000000	-0.0
161	0x3f80fba4	1.0076795
162	0x80000000	-0.0
163	0x80000000	-0.0
164	0x3f0a21ff	0.53958124
165	0x3f0351b5	0.5129655
166	0x3f9bc1fa	1.2168572
167	0x3e01c4f8	0.12672794
168	0x80000000	-0.0
169	0x3f525541	0.8216134
170	0x3eaa8254	0.33302557
171	0x3fb68fab	1.4262594
172	0x3e6ceef8	0.23138034
173	0x3ead4176	0.33839005
174	0x3e0c4ce4	0.13701206
175	0x80000000	-0.0
176	0x3e3dfb3e	0.18552873
177	0x3f70fd70	0.94136715
178	0x80000000	-0.0
179	0x3f1dabe6	0.6159042
180	0x3d5ea688	0.054358035
181	0x80000000	-0.0
182	0x80000000	-0.0
183	0x80000000	-0.0
184	0x3f53f242	0.8279153
185	0x80000000	-0.0
186	0x3f227bf8	0.6347041
187	0x3e5a0b8d	0.21293469
188	0x80000000	-0.0
189	0x3d9bd4d0	0.0760895
190	0x80000000	-0.0
191	0x3f14519b	0.5793702
192	0x80000000	-0.0
193	0x80000000	-0.0
194	0x3f3c2206	0.73489416
195	0x3e0aad57	0.13542686
196	0x3e9d2098	0.3068893
197	0x80000000	-0.0
198	0x3f0bd55e	0.5462245
199	0x80000000	-0.0
200	0x3cb2b380	0.021814108
201	0x80000000	-0.0
202	0x3fa89738	1.3171148
203	0x80000000	-0.0
204	0x3ea2810c	0.3173908
205	0x3eebf19a	0.46082765
206	0x80000000	-0.0
207	0x80000000	-0.0
208	0x80000000	-0.0
209	0x3fba174c	1.453836
210	0x80000000	-0.0
211	0x3f23007b	0.6367261
212	0x3db8690e	0.090044126
213	0x80000000	-0.0
214	0x3e52b01e	0.20574996
215	0x3e12a7ec	0.1432187
216	0x3f858afb	1.0433038
217	0x80000000	-0.0
218	0x80000000	-0.0
219	0x3f65829c	0.8965242
220	0x3e2354c7	0.15950309
221	0x3f74b3ca	0.95586836
222	0x3e01e1fc	0.12683862
223	0x3ea8901e	0.32922453
224	0x3d87fc58	0.066399276
225	0x3dbe3d20	0.092890024
226	0x3ecb0963	0.396556
227	0x3f049a5a	0.5179802
228	0x80000000	-0.0
229	0x3eb54e10	0.3541112
230	0x80000000	-0.0
231	0x3e354eb0	0.17705798
232	0x80000000	-0.0
233	0x80000000	-0.0
234	0x3f6d6d5a	0.9274498
235	0x3dfb9ae0	0.122853994
236	0x3e5061d2	0.20349815
237	0x3f5026bc	0.81309104
238	0x80000000	-0.0
239	0x80000000	-0.0
240	0x80000000	-0.0
241	0x3f295c9e	0.6615695
242	0x80000000	-0.0
243	0x80000000	-0.0
244	0x3f6bdd72	0.92134774
245	0x80000000	-0.0
246	0x3e20493c	0.15652937
247	0x80000000	-0.0
248	0x3ece0ee0	0.40245724
249	0x80000000	-0.0
250	0x80000000	-0.0
251	0x3f98606c	1.1904426
252	0x80000000	-0.0
253	0x3e96ce50	0.2945428
254	0x3f4be9e0	0.7965374
255	0x80000000	-0.0

x f4 [25, 25]
0	0x3da49846	0.08036856
1	0x3d1c49b3	0.038156223
2	0x3c220cfb	0.00989079
3	0x3e18b701	0.1491356
4	0x3d9a0ebb	0.07522341
5	0xbca034ca	-0.019556422
6	0x3e4e7e29	0.20165314
7	0xbe551272	-0.20807818
8	0x3e312e46	0.17302808
9	0x3e05169f	0.1299691
10	0xbd976154	-0.07391611
11	0x3bec647d	0.0072141276
12	0x3ba793e1	0.005114064
13	0xbe2a29db	-0.16617529
14	0xbda12c38	-0.07869762
15	0x3e050719	0.12990989
16	0x3e1a5ca5	0.15074404
17	0x3d5605d9	0.05225167
18	0x3e3099c8	0.17246163
19	0xbd878adc	-0.06618282
20	0xbe31b8da	-0.17355672
21	0xbe2c9977	-0.16855417
22	0x3dfee546	0.12446074
23	0xbd0a3518	-0.03374204
24	0x3cf8374f	0.03029981
25	0xbd0206d4	-0.031744793
26	0xbce1e523	-0.027575081
27	0x3db77133	0.08957138
28	0xbcc321e2	-0.023819868
29	0xbbcc363a	-0.0062320502
30	0x3d8918c4	0.06694177
31	0xbdcfb92b	-0.1014274
32	0xbe6c5d36	-0.23082432
33	0x3e539c42	0.20665076
34	0xbe0b32bc	-0.13593572
35	0xbdeaaa33	-0.11458244
36	0xbd471391	-0.048602644
37	0xbdc50c42	-0.096214786
38	0x3c93a13d	0.01802122
39	0xbe0ccf9b	-0.1375107
40	0x3e2c0f50	0.16802716
41	0x3e21c0f3	0.1579626
42	0x3e0e8d7f	0.13921164
43	0xbe00ed1f	-0.12590455
44	0xbde91655	-0.113812126
45	0xbe027a3d	-0.12741943
46	0x3e424e1a	0.18975106
47	0x3d9d3f4c	0.076780885
48	0xbdab84ea	-0.08374961
49	0x3e53a0f8	0.20666873
50	0xbddd2e5a	-0.107998565
51	0xbc9070b3	-0.017631864
52	0x3e3feaa2	0.18741849
53	0xbddc9155	-0.107699074
54	0x3e3116e6	0.17293891
55	0xbea833cc	-0.32852018
56	0xbdc964a1	-0.098336466
57	0xbd331cd8	-0.04372868
58	0xbe8450f7	-0.2584302
59	0xbdb8d906	-0.09025769
60	0x3daa4c62	0.0831535
61	0x3e4366be	0.19082162
62	0x3e0097c2	0.12557891
63	0xbe41e2de	-0.18934199
64	0x3e0f0941	0.13968374
65	0x3d4e87c4	0.050422445
66	0x3e2bf392	0.16792133
67	0xbe39b9bc	-0.18137258
68	0xbd725898	-0.05916652
69	0xbe264c38	-0.16240013
70	0x3e25ff4c	0.1621067
71	0xbd83b586	-0.06431107
72	0xbe489c51	-0.1959088
73	0x3df4ed32	0.11959304
74	0x3e68a47a	0.22718993
75	0x3de5836a	0.11206706
76	0xbdd705cd	-0.10499153
77	0xbd248667	-0.04016724
78	0x3e006540	0.12538624
79	0x3e055452	0.13020447
80	0xbe20c28d	-0.15699215
81	0x3dbaaa1b	0.09114476
82	0x3e1d43ac	0.15357846
83	0x3e32f91e	0.17477843
84	0xbdf11bdd	-0.117728926
85	0x3dda3596	0.10654752
86	0xbda89a26	-0.082325265
87	0x3db61b6d	0.0889195
88	0x3db31a5e	0.087452635
89	0x3d6c4090	0.05767876
90	0x3dba469a	0.090954974
91	0xbe264447	-0.16236983
92	0xbe07e1a0	-0.13269663
93	0xbc2ad2ba	-0.010426218
94	0xbda41d7e	-0.08013438
95	0xbc9d97f1	-0.01923749
96	0xbc2ce926	-0.010553634
97	0xbe8da5db	-0.276656
98	0x3e172737	0.14761053
99	0xbdd113d4	-0.1020886
100	0xbe387157	-0.18011986
101	0xbc6fd9d9	-0.014639341
102	0x3e6f350c	0.2336008
103	0xbe1da375	-0.15394385
104	0x3db219a2	0.08696295
105	0xbef7dcae	-0.48410553
106	0x3e498236	0.19678578
107	0xbdacfb8b	-0.084464155
108	0x3d9488aa	0.07252629
109	0xbc790d60	-0.015200943
110	0x3d97f0fa	0.074190095
111	0x3d4df3e5	0.050281424
112	0x3e2d4ed1	0.16924597
113	0xbd6a1c60	-0.057155967
114	0xbe181a7c	-0.14853853
115	0xbcd0d3a8	-0.02549155
116	0x3e529288	0.2056371
117	0xbe4a0c22	-0.19731191
118	0x3d413e8e	0.047178797
119	0x3d2c6f71	0.042098466
120	0x3d7b3be0	0.061336398
121	0xbe24809d	-0.16064687
122	0xbdf93d6a	-0.12169917
123	0xbc9957e8	-0.018718675
124	0x3e5ae3d6	0.21375975
125	0xbe1030b2	-0.14081076
126	0x3dbe224b	0.092838846
127	0xbd2b9d20	-0.041897893
128	0x3d63b56c	0.05559294
129	0x3d928157	0.07153576
130	0xbda84b5f	-0.08217501
131	0xbd2a4355	-0.04156812
132	0x3e4cc059	0.1999525
133	0x3e02a4bd	0.12758155
134	0x3e123853	0.14279298
135	0x3d528cfc	0.051403984
136	0x3b00286e	0.0019555348
137	0xbdfa6cd4	-0.122277886
138	0x3c818558	0.015810654
139	0xbde72ab3	-0.11287441
140	0xbe31aa0e	-0.17350027
141	0xbe228181	-0.15869714
142	0xbd9afcc0	-0.075677395
143	0xbb9dcaaf	-0.0048154215
144	0xbdf789ce	-0.12086831
145	0xbe38590a	-0.18002716
146	0xbdb350b2	-0.08755626
147	0xbdb58d1a	-0.088648036
148	0x3ba13000	0.004919052
149	0x3d5b912b	0.05360524
150	0x3d354234	0.04425259
151	0x3d3d24d7	0.04617771
152	0xbdee13a7	-0.11624842
153	0xbe06aa5a	-0.13150921
154	0xbd5aa4fa	-0.05337999
155	0x3f043e65	0.51657706
156	0x3cceaa88	0.0252278
157	0x3d6d3a9d	0.057917226
158	0x3e010e55	0.12603123
159	0xbd5ad331	-0.053424064
160	0xbd407f80	-0.046996593
161	0xbc25ef03	-0.010127786
162	0x3e05f9de	0.13083598
163	0x3bcbf404	0.0062241573
164	0x3e283cc0	0.16429424
165	0xbd86ebb9	-0.06587929
166	0x3c947809	0.018123643
167	0xbe4331f9	-0.19062032
168	0x3d535ca4	0.05160202
169	0xbe2b5b85	-0.1673413
170	0x3e863609	0.262131
171	0x3ca26544	0.019823678
172	0x3e77c39e	0.24195716
173	0x3d449234	0.047990993
174	0xbdfce802	-0.123489395
175	0xbd45d8cc	-0.048302457
176	0x3e0a37fb	0.13497917
177	0x3e5eb652	0.21749237
178	0x3da32f22	0.07967974
179	0x3dbf2176	0.09332554
180	0xbdc053dc	-0.09390995
181	0x3c4d7b88	0.012541659
182	0xbd0a50c1	-0.03376842
183	0xbd8d5d76	-0.06902592
184	0xbd024e27	-0.031812813
185	0x3e362377	0.17786966
186	0x3d319e9b	0.04336415
187	0xbd8a85c0	-0.06763792
188	0xbe01064e	-0.12600061
189	0x3d22fc7f	0.03979158
190	0xbd93ab8d	-0.07210455
191	0x3d4231a5	0.047410626
192	0xbb33fe2f	-0.0027464738
193	0xbdb2b678	-0.087262094
194	0x3c4e98b9	0.012609654
195	0xbd0309f3	-0.03199191
196	0xbe05b92c	-0.13058919
197	0x3da6815f	0.08130144
198	0x3e1138f9	0.1418189
199	0xbe2a4cdc	-0.16630882
200	0xbe356262	-0.17713311
201	0xbdf2577b	-0.11833092
202	0x3e44c88c	0.19217128
203	0xbc6bc00b	-0.014389048
204	0x3c803ac2	0.015653018
205	0xbe450cdb	-0.19243185
206	0xbd737880	-0.05944109
207	0x3e194a38	0.14969718
208	0x3de8a607	0.11359792
209	0xbe25e971	-0.16202332
210	0x3d685e84	0.056730762
211	0xbdd799d5	-0.10527388
212	0xbe29adbe	-0.16570184
213	0xbc68d1d1	-0.01421018
214	0xbe0a006c	-0.13476723
215	0xbe0f0747	-0.1396762
216	0xbe1d4cc7	-0.1536132
217	0xbe2664d7	-0.16249405
218	0xbdb05dbd	-0.08611629
219	0xbd84bde8	-0.06481534
220	0xbd8970dd	-0.0671098
221	0x3de9d3ec	0.11417374
222	0x3d899498	0.06717795
223	0xbd70d6cc	-0.058798596
224	0x3de0ad7c	0.109705895
225	0x3d9a91d2	0.07547344
226	0xbcfbaa58	-0.030720875
227	0xbd321b70	-0.043483198
228	0x3e27f401	0.16401674
229	0xbb8b4d03	-0.004251124
230	0xbe2bc238	-0.16773307
231	0x3d4b97a9	0.04970518
232	0xbd506f5d	-0.050887454
233	0xbe2f407e	-0.17114446
234	0x3dc5e906	0.09663586
235	0xbe2bcc62	-0.16777185
236	0x3e43e9d7	0.19132172
237	0xbc153a55	-0.009108146
238	0xbe19a356	-0.15003714
239	0xbd0d8f79	-0.034560654
240	0x3debc031	0.11511267
241	0xbce0427b	-0.02737545
242	0xbdaba6f2	-0.08381452
243	0x3dd62072	0.10455407
244	0x3e01a62d	0.12661047
245	0x3ddbb4db	0.10727855
246	0xbe04fa57	-0.12986122
247	0xbd587ced	-0.052853514
248	0xbe3083ea	-0.17237821
249	0x3d96a680	0.07355976
250	0x3de65386	0.112463996
251	0x3df2ddaa	0.11858685
252	0xbdcaa68b	-0.09895047
253	0x3d9ae077	0.075623445
254	0xbda011f2	-0.07815923
255	0x3ee36b68	0.44417882

b f4 [1, 25]
0	0x3f800000	1.0
1	0x3f800000	1.0
2	0x3f800000	1.0
3	0x3f800000	1.0
4	0x3f800000	1.0
5	0x3f800000	1.0
6	0x3f800000	1.0
7	0x3f800000	1.0
8	0x3f800000	1.0
9	0x3f800000	1.0
10	0x3f800000	1.0
11	0x3f800000	1.0
12	0x3f800000	1.0
13	0x3f800000	1.0
14	0x3f800000	1.0
15	0x3f800000	1.0
16	0x3f800000	1.0
17	0x3f800000	1.0
18	0x3f800000	1.0
19	0x3f800000	1.0
20	0x3f800000	1.0
21	0x3f800000	1.0
22	0x3f800000	1.0
23	0x3f800000	1.0
24	0x3f800000	1.0

grad f4 [25, 25]
0	0x00000000	0.0
1	0xbabb7a88	-0.0014303485
2	0xbb28870a	-0.0025715255
3	0x00000000	0.0
4	0x3b0eae9b	0.0021771553
5	0x3c0ca312	0.008583801
6	0x3aad4fea	0.0013222669
7	0xb8d35425	-0.00010076937
8	0xb9cff60f	-0.00039665445
9	0x3afe390a	0.0019395661
10	0x00000000	0.0
11	0x00000000	0.0
12	0xbb092f9e	-0.0020932923
13	0x00000000	0.0
14	0xb961de02	-0.00021540376
15	0x3a2743d8	0.0006380654
16	0xb907e3dc	-0.00012959488
17	0x39c0affa	0.00036752207
18	0x39b2f639	0.00034134256
19	0xba1f4cf4	-0.00060768356
20	0x39bed1c6	0.00036395917
21	0xb9532c2b	-0.00020138982
22	0x3b401951	0.0029311965
23	0x00000000	0.0
24	0xb9a55e84	-0.00031541672
25	0x00000000	0.0
26	0xbba6bde7	-0.005088556
27	0xbbfc0afe	-0.00769174
28	0x00000000	0.0
29	0x3bf91910	0.0076018646
30	0x3cce6443	0.025194293
31	0x3b83cd80	0.0040223002
32	0xba903b7d	-0.0011004057
33	0xba31525d	-0.0006764287
34	0x3c02d318	0.007984899
35	0x00000000	0.0
36	0xb606dc85	-2.0095915e-06
37	0xbbe5ff8a	-0.007018988
38	0x00000000	0.0
39	0xba64a0fd	-0.0008721499
40	0x3af7fa2e	0.0018919164
41	0xba2876a9	-0.0006426373
42	0x3a60e281	0.00085786736
43	0x3a80bbc7	0.0009821587
44	0xba5a084b	-0.0008317276
45	0x3aa0b189	0.0012259941
46	0xb8cd211a	-9.7813274e-05
47	0x3bd31488	0.0064416565
48	0x00000000	0.0
49	0x39fe26b2	0.00048475486
50	0x00000000	0.0
51	0xba758c56	-0.000936692
52	0xba529316	-0.0008032782
53	0x00000000	0.0
54	0x3a84d084	0.0010132943
55	0x3aa4681a	0.0012543232
56	0x3a459d86	0.00075384264
57	0x00000000	0.0
58	0xb980c656	-0.00024561834
59	0x00000000	0.0
60	0x00000000	0.0
61	0xb957391f	-0.00020525277
62	0xbab9ba42	-0.0014169889
63	0x00000000	0.0
64	0x37af8e69	2.092794e-05
65	0xb8b02c88	-8.4006286e-05
66	0xb9bb6bf8	-0.00035747862
67	0xb8a69dbd	-7.944878e-05
68	0x3aca25c2	0.001542263
69	0xb8767bd2	-5.8766287e-05
70	0xb8fa52a8	-0.00011936325
71	0x370c56be	8.3648465e-06
72	0x3a1c3e48	0.00059602084
73	0x00000000	0.0
74	0xba20b7fa	-0.000613093
75	0x00000000	0.0
76	0xb9cc7315	-0.00038995655
77	0x393dec1a	0.00018112399
78	0x00000000	0.0
79	0x3a1fe30f	0.0006099203
80	0xba896d5a	-0.001048486
81	0x39d8cb6e	0.00041350297
82	0xb8c3248c	-9.305132e-05
83	0xb893bad9	-7.044309e-05
84	0x3a22e65c	0.0006214136
85	0x00000000	0.0
86	0xb7f576b3	-2.926155e-05
87	0xba344053	-0.000687604
88	0x00000000	0.0
89	0xb9151b59	-0.00014219935
90	0xb8b0df86	-8.4339685e-05
91	0xb934aaaf	-0.00017229722
92	0x3876ad70	5.8812497e-05
93	0x3a418a34	0.00073829596
94	0x38437ba0	4.6606758e-05
95	0xb85ace3d	-5.2167325e-05
96	0xb71fe5fa	-9.530684e-06
97	0xb9b00ce6	-0.00033578946
98	0x00000000	0.0
99	0xb8640180	-5.4360833e-05
100	0x00000000	0.0
101	0xbb234148	-0.0024910737
102	0xbb62775a	-0.0034556002
103	0x00000000	0.0
104	0x3b5909fe	0.0033117528
105	0x3c1ddefd	0.009635684
106	0x3adac2e2	0.001669016
107	0xb9bf0b84	-0.0003643894
108	0xb93672bc	-0.00017399614
109	0x3b104e01	0.002201915
110	0x00000000	0.0
111	0xb9001da9	-0.0001221808
112	0xbb55d048	-0.0032625366
113	0x00000000	0.0
114	0xb8ffb95b	-0.00012193873
115	0x3a0b6dbc	0.0005318781
116	0xb9fb1ce2	-0.0004789597
117	0x38a04e58	7.643987e-05
118	0x3a9ec755	0.0012113849
119	0xb923456f	-0.00015570757
120	0x39ac9c2a	0.00032922748
121	0x38d07cf6	9.941489e-05
122	0x3b1465b2	0.0022643623
123	0x00000000	0.0
124	0x37ebcc60	2.8109353e-05
125	0x00000000	0.0
126	0x3895fcaa	7.151936e-05
127	0xb801a365	-3.090817e-05
128	0x00000000	0.0
129	0xb8d40e62	-0.00010111627
130	0x38552046	5.0813214e-05
131	0x378a153d	1.6460772e-05
132	0x00000000	0.0
133	0x35337200	6.684859e-07
134	0x00000000	0.0
135	0x00000000	0.0
136	0xb7e8afb8	-2.773838e-05
137	0xb7ceb7bc	-2.4642672e-05
138	0x00000000	0.0
139	0x356da468	8.852862e-07
140	0xb7ef12aa	-2.8499711e-05
141	0xb86e9908	-5.6886143e-05
142	0x380c30d7	3.3424087e-05
143	0x38e008c5	0.00010682786
144	0xb79eefcf	-1.8946737e-05
145	0xb68ea5a6	-4.251214e-06
146	0x34bdf853	3.5384673e-07
147	0x38d7998a	0.00010280598
148	0x00000000	0.0
149	0x38cf7cbc	9.893763e-05
150	0x00000000	0.0
151	0xbb862fc6	-0.0040950505
152	0xbbc6d426	-0.0060677705
153	0x00000000	0.0
154	0x3bce020e	0.006286866
155	0x3ca6dff0	0.020370454
156	0x3b64a02e	0.0034885514
157	0xba608bb9	-0.0008565742
158	0xba1ee23a	-0.0006060932
159	0x3be442a6	0.006965953
160	0x00000000	0.0
161	0x00000000	0.0
162	0xbbbfb853	-0.0058508306
163	0x00000000	0.0
164	0xba5d468a	-0.0008440992
165	0x3ad17c8e	0.0015982555
166	0xba01d849	-0.00049531885
167	0x3a6940d7	0.00088979065
168	0x3a567063	0.0008180199
169	0xba651c7c	-0.0008739901
170	0x3a852fff	0.0010161399
171	0xb960f0b3	-0.00021451972
172	0x3bb775c6	0.0055987565
173	0x00000000	0.0
174	0x38dbcbde	0.00010480707
175	0x00000000	0.0
176	0xb95b5938	-0.00020918704
177	0x39dd33b0	0.00042190915
178	0x00000000	0.0
179	0x39ecbbb2	0.00045153272
180	0xbabb9f17	-0.001431438
181	0x39aa3c4c	0.0003246985
182	0xb9088189	-0.00013018226
183	0xb8098b7d	-3.2793254e-05
184	0x3a5f424d	0.00085166545
185	0x00000000	0.0
186	0xb6100642	-2.1461315e-06
187	0xb9f79138	-0.00047219708
188	0x00000000	0.0
189	0xb950838a	-0.00019885428
190	0xb87b4737	-5.9909387e-05
191	0xb8ec433f	-0.000112658825
192	0x38d1a5b3	9.9967605e-05
193	0x3a05556e	0.00050862774
194	0x3866cf48	5.502932e-05
195	0xb7afd13a	-2.0959054e-05
196	0xb7999c1d	-1.8311717e-05
197	0xba06d30a	-0.00051431416
198	0x00000000	0.0
199	0x38a01fec	7.6353404e-05
200	0x00000000	0.0
201	0xb9abefdd	-0.00032794374
202	0x392ac3f8	0.00016285467
203	0x00000000	0.0
204	0x3a09f7a5	0.0005263037
205	0xba70c0e0	-0.0009184014
206	0x39b649bb	0.0003476868
207	0xb8a998b8	-8.086994e-05
208	0xb85bc973	-5.2401283e-05
209	0x3a0e8458	0.0005436591
210	0x00000000	0.0
211	0xb7879cd1	-1.6166277e-05
212	0xba1702dc	-0.0005760619
213	0x00000000	0.0
214	0xb9019b6d	-0.000123603
215	0xb894acba	-7.089363e-05
216	0xb9120403	-0.0001392514
217	0x384a3fee	4.8220092e-05
218	0x3a2193ec	0.00061637047
219	0x38313494	4.2249056e-05
220	0xb81f08bc	-3.791669e-05
221	0xb6f4c4e4	-7.2946877e-06
222	0xb9a377e4	-0.00031179108
223	0x00000000	0.0
224	0xb802ca0c	-3.1182586e-05
225	0x00000000	0.0
226	0xbb978b0e	-0.004624731
227	0xbc167241	-0.009182514
228	0x00000000	0.0
229	0x3bcd0edc	0.006257875
230	0x3ceb0d78	0.028692946
231	0x3b5c33d0	0.0033600219
232	0xb991a2cb	-0.00027777845
233	0xba7c0c00	-0.0009614825
234	0x3b71cad3	0.0036894574
235	0x00000000	0.0
236	0xb8b6a1f9	-8.708606e-05
237	0xbbc3d89e	-0.0059767505
238	0x00000000	0.0
239	0xb84688c0	-4.7334237e-05
240	0x3aef7682	0.0018269571
241	0xb9c76461	-0.00038031026
242	0x39ad3399	0.00033035575
243	0x3a81043c	0.0009843181
244	0xbab4dd4c	-0.0013798862
245	0x3a913e8d	0.0011081264
246	0xb94b222e	-0.00019372322
247	0x3c0c4d58	0.008563362
248	0x00000000	0.0
249	0xba18ebb2	-0.0005833461
250	0x00000000	0.0
251	0xbb430ed4	-0.0029763477
252	0xbb8f834a	-0.0043796645
253	0x00000000	0.0
254	0x3b95e49a	0.0045743706
255	0x3c70cbfc	0.014697071

p f4 [1, 25]
0	0xbe3d2db0	-0.1847446
1	0x3e07d6c8	0.13265526
2	0x3e426684	0.18984419
3	0xbe168937	-0.14700781
4	0x3c893374	0.016748168
5	0xbda6da32	-0.08147086
6	0xbdaf48d1	-0.085588105
7	0x3e22de08	0.1590501
8	0x3cb18c85	0.02167345
9	0x3e1cf38e	0.15327284
10	0x3d90b682	0.070660606
11	0xbe52e6f2	-0.20595911
12	0xbd887440	-0.06662798
13	0x3e076f2e	0.13226005
14	0x3e0fef6b	0.14056174
15	0xbd75e480	-0.060032368
16	0x3e26cec5	0.16289814
17	0xbd654ac4	-0.055979505
18	0xbd7c621f	-0.061617013
19	0xbc4e2491	-0.01258196
20	0x3e157c87	0.14598285
21	0xbdb9e9dc	-0.09077808
22	0xbe2c670e	-0.16836187
23	0xbe31d6e7	-0.17367135
24	0xb90365c2	-0.00012531041

grad f4 [1, 25]
0	0x00000000	0.0
1	0xbbd385c0	-0.006455153
2	0xbc395388	-0.011311419
3	0x00000000	0.0
4	0x3c1234d6	0.00892373
5	0x3d129dd6	0.035795055
6	0x3b9a3cfd	0.0047069774
7	0xba6ce64e	-0.00090370036
8	0xba82fe72	-0.0009994044
9	0x3be784f3	0.0070654093
10	0x00000000	0.0
11	0xb8f7d529	-0.00011817582
12	0xbc0af3a7	-0.008480943
13	0x00000000	0.0
14	0xb9eca6bd	-0.00045137657
15	0x3b1d0780	0.002396077
16	0xba4467fa	-0.00074923004
17	0x3a22aa7e	0.0006205215
18	0x3ab25438	0.0013605421
19	0xbaab381a	-0.0013062984
20	0x3abce6f5	0.0014412092
21	0xb8b4d0ff	-8.6219974e-05
22	0x3c20f116	0.009823104
23	0x00000000	0.0
24	0xb8e14e30	-0.000107433996

x f4 [100, 25]
0	0x3c5f2100	0.013618708
1	0x3d9dbb74	0.077017695
2	0x80000000	-0.0
3	0x3df699ea	0.120410755
4	0x80000000	-0.0
5	0x3fdfcf7a	1.7485192
6	0x80000000	-0.0
7	0x80000000	-0.0
8	0x3d135773	0.03597207
9	0x3e603401	0.21894838
10	0x80000000	-0.0
11	0x80000000	-0.0
12	0x3f538fca	0.8264128
13	0x80000000	-0.0
14	0x3e9ddbb6	0.3083169
15	0x3ea3b33f	0.3197269
16	0x3f164b58	0.58708715
17	0x80000000	-0.0
18	0x80000000	-0.0
19	0x80000000	-0.0
20	0x80000000	-0.0
21	0x3eef2429	0.46707276
22	0x3ed1b849	0.4096091
23	0x3e92f076	0.28699082
24	0x3f233d7c	0.6376569
25	0x80000000	-0.0
26	0x3e00ba91	0.1257117
27	0x3fa83914	1.3142419
28	0x3ce16d90	0.027518064
29	0x3f0565e2	0.52108586
30	0x80000000	-0.0
31	0x3ebbf702	0.3671189
32	0x3e9c1d1a	0.30490953
33	0x3e2c5105	0.16827781
34	0x80000000	-0.0
35	0x3f243e56	0.6415762
36	0x80000000	-0.0
37	0x3e5567ca	0.20840374
38	0x80000000	-0.0
39	0x3e80369b	0.2504166
40	0x3d7f4d0a	0.06232933
41	0x3f19ab8a	0.6002737
42	0x80000000	-0.0
43	0x80000000	-0.0
44	0x80000000	-0.0
45	0x3e8fc10e	0.28076977
46	0x80000000	-0.0
47	0x80000000	-0.0
48	0x80000000	-0.0
49	0x3f65176c	0.89488864
50	0x80000000	-0.0
51	0x3d7640e4	0.06012048
52	0x3dbf10c6	0.09329371
53	0x3e2b269b	0.16713946
54	0x80000000	-0.0
55	0x3e325ad7	0.17417465
56	0x80000000	-0.0
57	0x80000000	-0.0
58	0x80000000	-0.0
59	0x3eafbdd0	0.34324503
60	0x80000000	-0.0
61	0x80000000	-0.0
62	0x3f4459f8	0.7669978
63	0x80000000	-0.0
64	0x3e09d0dc	0.1345858
65	0x3e9cf440	0.30655098
66	0x3ef1b852	0.47210938
67	0x80000000	-0.0
68	0x3e0069a5	0.125403
69	0x80000000	-0.0
70	0x80000000	-0.0
71	0x80000000	-0.0
72	0x3d784714	0.06061466
73	0x3e51feef	0.20507406
74	0x3f0710db	0.52760094
75	0x80000000	-0.0
76	0x3e41ba94	0.1891883
77	0x3f5e1f46	0.8676647
78	0x80000000	-0.0
79	0x3e651044	0.22369486
80	0x80000000	-0.0
81	0x3dface81	0.12246419
82	0x3ddd7295	0.108128704
83	0x80000000	-0.0
84	0x3d633498	0.05547008
85	0x3e4ffb1a	0.20310631
86	0x80000000	-0.0
87	0x3ea5ae9c	0.3235978
88	0x80000000	-0.0
89	0x3e8206ef	0.25395915
90	0x3e22bde9	0.15892757
91	0x3f178a49	0.5919538
92	0x80000000	-0.0
93	0x3d8e13fc	0.069374055
94	0x80000000	-0.0
95	0x3e9caa35	0.30598608
96	0x80000000	-0.0
97	0x80000000	-0.0
98	0x80000000	-0.0
99	0x3f43f212	0.76541245
100	0x3d806686	0.06269555
101	0x3a8d6300	0.0010786951
102	0x80000000	-0.0
103	0x3e425271	0.18976761
104	0x80000000	-0.0
105	0x3f5e0b80	0.867363
106	0x80000000	-0.0
107	0x80000000	-0.0
108	0x80000000	-0.0
109	0x3eb5ba9c	0.35493934
110	0x80000000	-0.0
111	0x80000000	-0.0
112	0x3f50d00a	0.8156744
113	0x80000000	-0.0
114	0x3e2403c6	0.16017064
115	0x3eba4cb5	0.36386648
116	0x3f073d4a	0.52827895
117	0x80000000	-0.0
118	0x3cec69f6	0.02885912
119	0x80000000	-0.0
120	0x80000000	-0.0
121	0x3d9835e4	0.07432154
122	0x3e8d6e5d	0.27623263
123	0x3e5657f9	0.20931996
124	0x3f12f9e6	0.57412565
125	0x80000000	-0.0
126	0x3e1a647e	0.15077397
127	0x3fced992	1.6160147
128	0x3df92e7a	0.12167068
129	0x3f20fee6	0.62888944
130	0x80000000	-0.0
131	0x3edbcc80	0.4292946
132	0x3ea23bb7	0.31686184
133	0x3f0b8d86	0.5451282
134	0x80000000	-0.0
135	0x3f3528b8	0.70765257
136	0x80000000	-0.0
137	0x3d7d567c	0.061850056
138	0x3d19b524	0.037526265
139	0x3d1ca4ba	0.038243033
140	0x3dfebabc	0.124379605
141	0x3f11a257	0.56888336
142	0x80000000	-0.0
143	0x80000000	-0.0
144	0x80000000	-0.0
145	0x3dd22ac9	0.10262067
146	0x3de17858	0.11009282
147	0x80000000	-0.0
148	0x80000000	-0.0
149	0x3f5ed47e	0.8704299
150	0x80000000	-0.0
151	0x3e8944ce	0.26810306
152	0x3f1dd262	0.61649144
153	0x3daa310e	0.08310138
154	0x3f075a69	0.5287233
155	0x80000000	-0.0
156	0x3d6a3a4a	0.057184495
157	0x3f16126f	0.5862188
158	0x80000000	-0.0
159	0x3e7820a5	0.24231203
160	0x80000000	-0.0
161	0x80000000	-0.0
162	0x3f41a25d	0.7563837
163	0x80000000	-0.0
164	0x3eb88cae	0.3604483
165	0x3d98ce20	0.0746119
166	0x3f0e3b28	0.55559015
167	0x80000000	-0.0
168	0x3f0308e6	0.5118545
169	0x3e6f4d7f	0.23369406
170	0x3d293e64	0.041319266
171	0x80000000	-0.0
172	0x80000000	-0.0
173	0x3e9495b8	0.29020476
174	0x3f4a2c8b	0.7897422
175	0x80000000	-0.0
176	0x3e4ac38c	0.19801158
177	0x3f2aa473	0.6665718
178	0x80000000	-0.0
179	0x3dc1e9b9	0.09468407
180	0x80000000	-0.0
181	0x3cc446a4	0.023959465
182	0x3d9e6a7b	0.07735153
183	0x80000000	-0.0
184	0x3e4decfa	0.2010993
185	0x80000000	-0.0
186	0x80000000	-0.0
187	0x3f0389fa	0.5138241
188	0x80000000	-0.0
189	0x3e862262	0.26198107
190	0x3e32ce62	0.17461541
191	0x3f13d801	0.5775147
192	0x80000000	-0.0
193	0x3e45f252	0.19330719
194	0x3d893c90	0.067010045
195	0x3e6061a8	0.21912253
196	0x80000000	-0.0
197	0x80000000	-0.0
198	0x3d279d3c	0.040921435
199	0x3f28b662	0.65903294
200	0x80000000	-0.0
201	0x3e7d558b	0.24739663
202	0x3f0eb1b2	0.5573989
203	0x3d6f57c8	0.058433324
204	0x3e8026ac	0.25029504
205	0x80000000	-0.0
206	0x80000000	-0.0
207	0x3ea2dcfa	0.31809217
208	0x80000000	-0.0
209	0x3e953209	0.29139736
210	0x80000000	-0.0
211	0x80000000	-0.0
212	0x3f2acf35	0.6672242
213	0x80000000	-0.0
214	0x3e7de04a	0.2479259
215	0x3e0251b1	0.12726475
216	0x3f05b651	0.5223132
217	0x80000000	-0.0
218	0x3ec8b811	0.39202932
219	0x3e61c146	0.22046384
220	0x3d992d93	0.07479396
221	0x80000000	-0.0
222	0x80000000	-0.0
223	0x3e33a927	0.17544995
224	0x3f1a4c4b	0.60272664
225	0x80000000	-0.0
226	0x3df54d52	0.11977638
227	0x3ed89b92	0.4230619
228	0x3c6422d0	0.013924316
229	0x80000000	-0.0
230	0x80000000	-0.0
231	0x80000000	-0.0
232	0x80000000	-0.0
233	0x80000000	-0.0
234	0x3e5586e4	0.20852238
235	0x80000000	-0.0
236	0x80000000	-0.0
237	0x3f172503	0.5904085
238	0x80000000	-0.0
239	0x3e446e0f	0.19182609
240	0x3e7d7fa4	0.24755722
241	0x3f01cb5e	0.5070094
242	0x80000000	-0.0
243	0x3dbfa514	0.09357658
244	0x3c2922c7	0.010323233
245	0x3de9184f	0.113815896
246	0x80000000	-0.0
247	0x80000000	-0.0
248	0x3e01b0c9	0.12665094
249	0x3f18afa6	0.5964302
250	0x80000000	-0.0
251	0x3e6410b2	0.22271994
252	0x3f026708	0.50938463
253	0x80000000	-0.0
254	0x80000000	-0.0
255	0x3eb42844	0.3518697

x f4 [25, 25]
0	0xbd406920	-0.046975255
1	0xbc0f84ab	-0.008759658
2	0xbd344fe0	-0.044021487
3	0xbe14fd70	-0.14549804
4	0x3e12b475	0.14326651
5	0x3dcf5d1b	0.1012518
6	0x3db7a4c8	0.089669764
7	0x3d6eb353	0.058276486
8	0x3e3417b7	0.17587171
9	0xbc9c9295	-0.019112865
10	0xbcde2d40	-0.027121186
11	0xbc9f02fa	-0.019410599
12	0xbe026e87	-0.12737475
13	0xbd0a9d20	-0.033841252
14	0xbdc63c49	-0.09679467
15	0xbde091fd	-0.10965345
16	0x3dc6201d	0.09674094
17	0x3d337d1a	0.043820478
18	0xbd2909ca	-0.0412691
19	0xbd985b24	-0.07439259
20	0x3e11f096	0.14251933
21	0xbe088a63	-0.1333404
22	0xbdc4bd87	-0.09606462
23	0x3e1f58a1	0.15561153
24	0x3da69d04	0.08135417
25	0xbd772874	-0.060341313
26	0xbde7328c	-0.11288938
27	0x3e0888be	0.13333413
28	0xbe22e23c	-0.15906614
29	0x3d81a014	0.063293606
30	0xbdead443	-0.11466267
31	0x3e372bb7	0.1788777
32	0x3e3b5c6d	0.18296976
33	0xbddd2faa	-0.10800107
34	0xbe115641	-0.1419306
35	0x3d601e74	0.054716542
36	0xbe3aca54	-0.18241245
37	0x3e2cb20f	0.16864799
38	0xbc0c3abf	-0.008558928
39	0x3d75ddd1	0.060025994
40	0x3c4ae414	0.01238348
41	0x3dfd9cf3	0.12383451
42	0xbdc8f1e3	-0.09811761
43	0xbe169561	-0.14705421
44	0xbd16f655	-0.036856014
45	0x3bf88d84	0.0075852294
46	0xbe226548	-0.15858948
47	0xbdb96709	-0.090528555
48	0xbe1cbac0	-0.15305614
49	0xbd52e240	-0.0514853
50	0x3c745e20	0.014915019
51	0x3dc2ac45	0.09505514
52	0xbe382351	-0.17982222
53	0xbdadae34	-0.08480492
54	0x3cf7e3f3	0.030260062
55	0xbe8daded	-0.27671757
56	0x3e4d4c79	0.20048703
57	0xbe57449a	-0.21022263
58	0x3ddba8a8	0.10725528
59	0x3b110a6a	0.0022131451
60	0xbde6681d	-0.11250327
61	0xbe36cfe1	-0.17852737
62	0x3da728da	0.08162089
63	0xbba186e1	-0.004929409
64	0xbe54da40	-0.20786381
65	0x3d9a3c00	0.07530975
66	0x3d81a360	0.063299894
67	0xbb7fa3aa	-0.0039007463
68	0x3e6db603	0.23213963
69	0x3e649d9c	0.22325748
70	0x3e34fd71	0.17674805
71	0xbd563a53	-0.052301716
72	0x3e06da02	0.13169101
73	0x3d178fe0	0.037002444
74	0x3e4872af	0.19574998
75	0xbe2b251d	-0.16713376
76	0x3d758547	0.059941556
77	0x3e05d199	0.13068236
78	0xb8d37867	-0.00010083691
79	0x3d1f5f69	0.03890935
80	0xbc88f0fc	-0.016716473
81	0xbb676574	-0.0035308274
82	0xbe2ebe1b	-0.17064707
83	0xbe096ab4	-0.1341961
84	0xbdd1d87b	-0.102463685
85	0xbd44ec28	-0.04807678
86	0x3df0a286	0.11749749
87	0x3c04c425	0.008103405
88	0xbc2b15b4	-0.010442186
89	0x3e301c42	0.1719828
90	0x3d6a6005	0.057220478
91	0x3e3eb94e	0.18625376
92	0x3e0b9ef2	0.13634852
93	0x3e0fad4d	0.14030953
94	0x3e24035e	0.1601691
95	0xbdddf09b	-0.108369075
96	0xbe009ba6	-0.12559375
97	0x3c0bb321	0.008526594
98	0x3c139dd0	0.009009793
99	0xbe278af4	-0.163616
100	0xbc614ba0	-0.013750941
101	0x3c6d42e1	0.014481277
102	0xbe047843	-0.12936501
103	0x3de5cb6b	0.112204395
104	0x3dc15442	0.09439899
105	0x3dba2f59	0.09091062
106	0x3d50ad0b	0.050946277
107	0xbddba683	-0.10725119
108	0x3dacd250	0.084385514
109	0x3da8fef7	0.08251756
110	0xbcbafa50	-0.022824436
111	0x3dc54a95	0.09633366
112	0xbe6567d0	-0.22402883
113	0x3dcdbea0	0.100461245
114	0xbd3fdb47	-0.04683998
115	0xbe5ff50b	-0.2187082
116	0xbc8f95d5	-0.0175275
117	0x3cb61793	0.022228038
118	0x3e045f4c	0.12926978
119	0xbde044bc	-0.1095061
120	0xbcbfe8e7	-0.023426486
121	0x3d8f9f47	0.070128016
122	0x3d83b87d	0.06431673
123	0x3e0a9e57	0.13536964
124	0xbe312db0	-0.17302585
125	0xbd82ec8a	-0.063927725
126	0xbc986d9f	-0.018606959
127	0x3aac3edf	0.0013141296
128	0xbe249632	-0.1607292
129	0xbea56c1c	-0.32309043
130	0x3ec53d51	0.38523343
131	0x3e2b4b22	0.1672788
132	0x3dd3be22	0.10338999
133	0xbe31cb09	-0.17362608
134	0x3e9cacf1	0.30600694
135	0xbe4424e7	-0.19154702
136	0x3cc179c6	0.023617636
137	0xbef4cfc9	-0.47814777
138	0xbe1d042b	-0.15333621
139	0x3eddf111	0.43347982
140	0xbea7841c	-0.3271798
141	0xbe83907e	-0.25696176
142	0x3d7dd2ff	0.0619688
143	0xbdb13724	-0.08653095
144	0xbd4ff08f	-0.050766524
145	0xbed0794b	-0.4071754
146	0x3e53068f	0.2060797
147	0xbe270500	-0.16310501
148	0xbda10d37	-0.07863849
149	0xbdf21d69	-0.11822016
150	0xbd3643f8	-0.044498414
151	0xbe3dff79	-0.18554486
152	0xbdfeef63	-0.12448003
153	0x3db1c4ef	0.0868014
154	0xbe413947	-0.18869506
155	0x3ce5559d	0.027994925
156	0x3d9dced0	0.07705462
157	0xbe366da0	-0.17815256
158	0xbe4c4a68	-0.19950259
159	0x3e01b271	0.12665726
160	0xbe0a59aa	-0.13510767
161	0xbbc5054a	-0.0060125934
162	0x3c2e2f98	0.010631464
163	0x3e14f9e1	0.14548446
164	0xbdd6e8cf	-0.104936235
165	0x3ba26d02	0.0049568424
166	0xbe00692c	-0.1254012
167	0x3c659bf5	0.014014234
168	0xbe1da77f	-0.15395926
169	0xbe0e09e1	-0.13870956
170	0xbdf03ef7	-0.117307596
171	0xbdb24c4d	-0.087059595
172	0xbca2c639	-0.01986991
173	0xbd92dae6	-0.07170658
174	0x3df90238	0.12158626
175	0xbe15a706	-0.14614496
176	0x3e3ac64c	0.18239707
177	0x3dbd0858	0.09230107
178	0x3dbff558	0.093729675
179	0xbd517d5e	-0.05114495
180	0x3e1aa7f4	0.15103132
181	0x3c6b6006	0.0143661555
182	0x3c976d72	0.018484805
183	0x3e1c580a	0.15267959
184	0x3d02f774	0.03197427
185	0xbdfc05ba	-0.1230578
186	0x3e19755d	0.14986177
187	0x3da1a3a3	0.07892539
188	0xbd9d023b	-0.07666441
189	0xbd3839f0	-0.04497713
190	0x3ce8aa09	0.028401392
191	0xbd6c956c	-0.057759687
192	0x3e27cc6c	0.16386575
193	0x3e1a7ae4	0.15085942
194	0x3d8219a0	0.06352544
195	0x3e49ee44	0.19719797
196	0xbd78cf27	-0.06074443
197	0x3e24e36b	0.16102378
198	0xbddf9d3d	-0.10918663
199	0xbe3a1f7d	-0.18176074
200	0x3d0c9d2c	0.03432958
201	0x3dc169a8	0.094439805
202	0xbc5c4d71	-0.013446198
203	0x3e4aef6a	0.19817892
204	0x3e29608c	0.16540736
205	0xbe02bad8	-0.12766588
206	0xbdaf4771	-0.08558548
207	0xbe29a3f6	-0.16566452
208	0xbe5be931	-0.21475674
209	0x3e41019e	0.18848273
210	0x3d809da2	0.06280066
211	0x3e0da50e	0.13832495
212	0xbcf8130d	-0.030282522
213	0x3e16f4de	0.14741847
214	0xbdfa6b6c	-0.1222752
215	0x3e3f52e8	0.1868397
216	0x3e2c70c4	0.16839892
217	0x3e198246	0.14991102
218	0x3e040cda	0.12895527
219	0x3d020369	0.031741533
220	0x3e1d82b4	0.1538189
221	0xbe0b54dc	-0.1360659
222	0x3e189a4d	0.14902611
223	0xbddc3d23	-0.107538484
224	0xbd33ada3	-0.043866765
225	0x3bb45b60	0.005504057
226	0x3dfeeb38	0.12447208
227	0x3defc4fa	0.11707492
228	0xbcc0e8c0	-0.023548484
229	0x3d54512c	0.051835224
230	0xbe42c3ef	-0.19020055
231	0xbe055c44	-0.13023478
232	0x3a105fc7	0.0005507436
233	0x3e0fda72	0.14048174
234	0x3e085401	0.13313295
235	0x3dbd71ee	0.09250246
236	0xbde36675	-0.111035265
237	0x3e0988db	0.13431112
238	0xbd5241cc	-0.05133228
239	0xbe2966f2	-0.16543177
240	0xbd1f5abd	-0.038904894
241	0x3e00cee6	0.12578925
242	0xbe1144f7	-0.14186464
243	0xbdfb7956	-0.12279002
244	0x3d96ad20	0.0735724
245	0xbe079be4	-0.13243061
246	0xbd8d8c87	-0.06911569
247	0x3e08da25	0.13364466
248	0xbcd2ae10	-0.025717765
249	0x3e041352	0.12897995
250	0x3e35e29b	0.17762224
251	0x3e184846	0.1487132
252	0x3d9b180a	0.075729445
253	0xbde207d6	-0.11036651
254	0xbdeaef12	-0.1147138
255	0xbe0317b2	-0.12802008

b f4 [1, 25]
0	0x3f800000	1.0
1	0x3f800000	1.0
2	0x3f800000	1.0
3	0x3f800000	1.0
4	0x3f800000	1.0
5	0x3f800000	1.0
6	0x3f800000	1.0
7	0x3f800000	1.0
8	0x3f800000	1.0
9	0x3f800000	1.0
10	0x3f800000	1.0
11	0x3f800000	1.0
12	0x3f800000	1.0
13	0x3f800000	1.0
14	0x3f800000	1.0
15	0x3f800000	1.0
16	0x3f800000	1.0
17	0x3f800000	1.0
18	0x3f800000	1.0
19	0x3f800000	1.0
20	0x3f800000	1.0
21	0x3f800000	1.0
22	0x3f800000	1.0
23	0x3f800000	1.0
24	0x3f800000	1.0
