Proj_253133_270642_271518/Proj2/model/best-model.pt (torch_old, 83253 bytes, 25 tensors)

x f4 [100, 2]
000000 78 7f 95 3f 22 e4 73 bf 8d 13 08 be 6a 76 04 bc
       1.1679525 -0.9526998 -0.13288708 -0.008084873
000010 74 0c db bf 0d 4c 13 3f ca 8f cc 3f 1e 84 4e 3f
       -1.7113175 0.5753792 1.5981381 0.80670345
000020 3c c1 2d 3e ff 68 e3 3e ed 36 97 bf 96 c4 88 bf
       0.16968244 0.44416043 -1.1813637 -1.0684993
000030 29 94 41 3f b1 e7 03 bf a3 f0 00 3f a7 eb b8 3f
       0.756167 -0.5152541 0.5036718 1.4446915
000040 17 48 46 3f 12 c4 9a 3f 15 ec b7 3f 53 de b6 3f
       0.7745375 1.2091086 1.4368922 1.4286598
000050 89 31 d5 3f 69 bd 89 3e 73 c1 6e 3f 7f c9 37 3f
       1.6655742 0.2690232 0.9326393 0.71791834
000060 fd 56 b7 3f b0 a1 4f 3f 42 41 9f 3f 0a 3c 85 3f
       1.4323422 0.8110609 1.244179 1.0408947
000070 2c 66 81 3f 74 cf dc bf dc 6f 7d 3f ad de a7 bf
       1.0109305 -1.725081 0.9899881 -1.311483
000080 47 0b 09 3f 1b 9b 55 bf 1c b3 04 3f 37 87 77 bf
       0.5353283 -0.834398 0.518358 -0.96690696
000090 e6 29 48 bf fe 1b 91 bf 72 2c af 3e 0d 73 d4 bf
       -0.7818893 -1.1336668 0.34213597 -1.6597611
0000a0 0e 9c 42 be 87 9a b4 3d 87 e9 da bf 4c de 42 3f
       -0.19004843 0.08818536 -1.7102517 0.7612045
0000b0 84 b8 7f 3f 09 4c 06 3f f6 ad db bf 32 1c eb 3e
       0.99890924 0.5245977 -1.7162464 0.4591995
0000c0 5b 67 6c 3f 53 0e 28 be 04 6b 2c 3f d3 f3 13 3e
       0.9234521 -0.16411714 0.6735079 0.1444848
0000d0 c5 5e 1f 3f 2d b3 9e 3f 8d c5 08 bf 72 43 8e 3f
       0.6225398 1.239843 -0.5342644 1.1114333
0000e0 34 68 98 3f b7 02 0a bf ff bc 46 be d7 97 3c 3f
       1.19068 -0.5391039 -0.19408034 0.7366919
0000f0 7d c3 01 3f ae fc 92 bf d9 2a 09 bc 25 8e c8 bf
       0.50688916 -1.1483362 -0.008372032 -1.5668379
000100 0e a3 58 be 2a a1 5d bf 5d 03 d6 bf 76 95 78 3d
       -0.2115595 -0.8657404 -1.6719776 0.060689412
000110 0a 8b 91 bf 1b 15 a2 3f 1b e0 b1 bf de 3d 0a bf
       -1.1370556 1.2662691 -1.3896517 -0.5400065
000120 e1 d0 11 bf 16 4f 32 bf 50 35 34 bf 9c 41 9a bf
       -0.5695935 -0.69651926 -0.7039385 -1.2051272
000130 e9 cf f2 3b 31 ed 3e bf ae 46 ae 3e 4e e1 fe 3e
       0.0074100387 -0.74580675 0.340383 0.4978127
000140 09 11 a5 3d 1d b8 d6 bf 48 b3 ba be 09 62 92 bf
       0.0805989 -1.6774937 -0.36464906 -1.1436168
000150 ba f9 37 bf 66 b0 59 3e d1 27 94 3d 8a 28 80 3e
       -0.7186543 0.21258697 0.07234157 0.2503093
000160 3e b8 38 3f c0 b0 17 bf 33 f2 15 bf 45 91 23 be
       0.7215613 -0.59254074 -0.5857269 -0.15973385
000170 8d d0 5a be 29 16 58 bf dd 81 d0 bf f1 81 22 bf
       -0.21368618 -0.84408814 -1.6289631 -0.63479525
000180 b2 b9 f3 3e cd 7a 5d be 3e 72 ef 3e 6e 72 f9 be
       0.47602612 -0.21628876 0.46766847 -0.48720115
000190 d4 4e 8d 3f 20 07 8d 3e 90 ca ca bf db 89 51 bf
       1.1039681 0.27544498 -1.5843067 -0.81850976
0001a0 1d bb 60 3c de 18 4f 3f 34 9e 63 3f c7 90 94 bc
       0.013716486 0.8089732 0.88913274 -0.018135441
0001b0 e6 e4 9a bf 7d 53 4a bf 21 81 ac 3e 17 41 c2 3e
       -1.2101104 -0.79033643 0.33692268 0.37940285
0001c0 e3 3d 96 3e fb 9e d9 bf a4 01 24 3f 85 b9 d6 bf
       0.2934409 -1.7001642 0.64065003 -1.6775366
0001d0 fd 8a 67 bf 12 6d 29 3e 41 a9 8d 3f d6 2f 3a bf
       -0.90446454 0.16545513 1.1067277 -0.7272924
0001e0 e8 51 a6 be dd 34 e9 bd 35 ca 0f 3f d1 c4 c1 bf
       -0.32484365 -0.11387036 0.5616792 -1.5138189
0001f0 da ba 4a bf 9a e3 a6 bf b5 2d 18 3f d3 e2 a5 bf
       -0.7919136 -1.3038208 0.59444743 -1.2959846
000200 78 cf 6c bf fd 47 68 3f 95 a9 71 3f d2 2f 91 3f
       -0.9250407 0.90734845 0.94399387 1.1342719
000210 d6 05 f6 3e 50 a1 9f 3d 52 80 c5 3f 10 78 81 bf
       0.48051327 0.0779444 1.5429785 -1.0114765
000220 16 8c 45 3f 69 52 c0 bf 52 07 32 bf 3c 5e 1b bf
       0.7716688 -1.502515 -0.6954242 -0.60690665
000230 9e d0 63 be 78 92 c2 3f 2c 32 76 3e fc b6 eb bd
       -0.2224755 1.5200949 0.24042577 -0.11509511
000240 59 12 d4 be 63 a0 83 bf 34 d9 3f 3e 0a 03 14 3f
       -0.41420248 -1.0283321 0.187352 0.5781714
000250 b1 7a d1 3f 1e 53 9c 3f 4a 5b d8 bf 80 5b 76 3e
       1.6365567 1.2212865 -1.6902859 0.24058342
000260 b1 9f 08 bf e6 fc b6 bf b1 db db bf de 07 f0 be
       -0.5336867 -1.4295928 -1.717642 -0.46881002
000270 9f 84 b8 3f a2 6f db bf 70 36 93 bf 59 ae 8f bf
       1.4415473 -1.7143443 -1.1500988 -1.1225082
000280 b6 19 47 bd 71 48 2e bf ba 1f ec bd 90 1d d0 3f
       -0.048608504 -0.68079287 -0.11529489 1.6259022
000290 90 90 b8 bf f5 e9 3b be 3f 4c ac bf 28 90 0a bd
       -1.4419117 -0.18350966 -1.3460768 -0.033828884
0002a0 c6 1d 0f bf ea 7c 90 bf 9c de 12 3e 4f d3 2a 3e
       -0.55904806 -1.1288121 0.14342731 0.1668217
0002b0 68 12 fd be 41 69 cd bf 2a 2f d9 3f 39 54 56 3f
       -0.49428105 -1.6047746 1.6967518 0.83722264
0002c0 85 b8 e8 3e 25 e1 46 bf e0 05 d4 3f a9 03 ca 3f
       0.45453277 -0.77687293 1.6564293 1.5782367
0002d0 4a c8 91 3f 67 d7 17 bf ce fd 67 3f 2f d7 a2 3b
       1.1389248 -0.5931305 0.9062165 0.0049694995
0002e0 be 2f 3c bf 7d 56 37 be d3 bf 0a bf ae c2 79 bf
       -0.7351035 -0.17904086 -0.5419895 -0.9756268
0002f0 66 8c 8c 3f 9e bf bb 3f 22 ce bc 3f 81 12 53 3f
       1.0980346 1.4667852 1.4750407 0.8245011
000300 0a 39 23 bf ae ca 99 3e 8c 03 92 bf f0 ef db bc
       -0.6375891 0.30037445 -1.1407332 -0.02684781
000310 cf 26 b1 bf f9 e1 9f bf 2a 8b 70 3f 63 8d b0 bf
       -1.3839968 -1.2490836 0.9396235 -1.3793148

x f4 [2, 25]
000000 0e 66 9a 3e 77 b3 7b bf a6 e7 68 bf 4a 94 d3 3e
       0.30155987 -0.98320717 -0.9097847 0.41324073
000010 dd b7 34 3f b7 15 05 3f 4f 7f a4 3d 08 27 f3 3e
       0.70593053 0.5198626 0.08032095 0.47490716
000020 dc f5 25 3f da 3c eb 3e f1 51 e0 bd 44 70 8b be
       0.64828277 0.45944864 -0.10953129 -0.2723409
000030 b4 e4 3f be b4 9f b1 bc dd e8 26 bf d9 e7 6d 3d
       -0.18739587 -0.021682598 -0.6519907 0.058082435
000040 3f 3d 7b be b1 02 2f 3f 05 02 38 3f 99 74 7d bf
       -0.24535082 0.6836348 0.7187808 -0.9900604
000050 3e 08 39 bf fb 95 3c bf 4d ca b1 be 9d f6 b9 be
       -0.722782 -0.7366635 -0.34724656 -0.36320964
000060 ba 67 1c 3e e6 ae bc bd 91 cd 0c 3f 6c b6 d8 3e
       0.15273944 -0.09213047 0.5500117 0.42326677
000070 4f 1c ed 3e f8 9e 09 3f 94 28 f3 be 72 85 93 3f
       0.4631066 0.5375819 -0.47491896 1.1525099
000080 d1 a2 a7 3e 19 87 90 3f b4 13 6a 3e 95 72 91 be
       0.32741407 1.1291229 0.22859079 -0.28407732
000090 7d 3f e4 3e 57 68 00 3f ee 65 9a 3e 53 89 64 3f
       0.44579688 0.5015921 0.3015589 0.8927204
0000a0 78 a6 13 3f 98 8f d8 3c 8c e5 49 bf e6 98 3c bf
       0.57675886 0.026435658 -0.78865886 -0.73670805
0000b0 63 a5 56 3d 92 22 b3 3e a8 ee 19 bf c9 9d 62 3e
       0.05240382 0.34987313 -0.60129786 0.22130503
0000c0 ae 44 51 3f fe b8 38 be
       0.8174542 -0.18039319

b f4 [1, 25]
000000 00 00 80 3f 00 00 80 3f 00 00 80 3f 00 00 80 3f
       1.0 1.0 1.0 1.0
000010 00 00 80 3f 00 00 80 3f 00 00 80 3f 00 00 80 3f
       1.0 1.0 1.0 1.0
000020 00 00 80 3f 00 00 80 3f 00 00 80 3f 00 00 80 3f
       1.0 1.0 1.0 1.0
000030 00 00 80 3f 00 00 80 3f 00 00 80 3f 00 00 80 3f
       1.0 1.0 1.0 1.0
000040 00 00 80 3f 00 00 80 3f 00 00 80 3f 00 00 80 3f
       1.0 1.0 1.0 1.0
000050 00 00 80 3f 00 00 80 3f 00 00 80 3f 00 00 80 3f
       1.0 1.0 1.0 1.0
000060 00 00 80 3f
       1.0

grad f4 [2, 25]
000000 00 00 00 00 b1 ad b1 bd 5c 32 39 bd 66 0e 9b 3c
       0.0 -0.08675707 -0.045214042 0.018927764
000010 9a 3c 57 bd 00 00 00 00 30 40 36 3d 36 a6 64 bd
       -0.05254803 0.0 0.044494808 -0.055822574
000020 7c 55 14 bd 00 00 00 00 8c bc 27 38 82 df 81 bc
       -0.036214337 0.0 3.99915e-05 -0.015853647
000030 3e 9f 89 bb 49 61 5f bb 94 30 36 bd 03 e7 04 bd
       -0.0041998914 -0.0034085086 -0.04447992 -0.032446872
000040 d2 d2 0a 3a 81 19 9e bd db 94 a8 bd 22 75 dc bd
       0.0005295697 -0.07719708 -0.08231517 -0.10764529
000050 1c 93 03 3c 3a c1 f8 bd 25 d7 68 3d 11 49 dd 3b
       0.008030679 -0.1214623 0.056845803 0.006753095
000060 57 25 6b bb 00 00 00 00 89 85 ad 3c 24 fa 35 3c
       -0.003588041 0.0 0.021181839 0.011107001
000070 e5 51 23 bd 9c bd 0e bd 00 00 00 00 df f4 13 bd
       -0.039873023 -0.034848794 0.0 -0.0361222
000080 44 84 86 3b fe 20 6c bd 00 00 00 00 9c 75 68 b8
       0.0041051228 -0.05764865 0.0 -5.5422643e-05
000090 60 fb 1e 3b bb a8 57 3b fb a7 14 bc 6e 5a 2d 3c
       0.0024258718 0.0032906968 -0.009073253 0.010580642
0000a0 69 2c cc 3c e3 d1 84 b9 27 5d 04 3d bc 70 71 3c
       0.02492352 -0.0002533338 0.0323154 0.014736351
0000b0 72 10 32 bc 24 06 a3 bb 58 9a 10 3d f6 40 05 bc
       -0.010868179 -0.0049750973 0.035303444 -0.008133164
0000c0 10 64 24 bc 4d bc 3d 3b
       -0.010033622 0.0028951347

p f4 [1, 25]
000000 8b ff 8f 3e be c9 aa bf 4d 40 c6 bf 1c 40 6d 3d
       0.2812465 -1.3342817 -1.5488373 0.057922468
000010 b4 77 51 bf 78 20 09 bf 22 36 9e bd 7c 38 92 be
       -0.8182328 -0.5356517 -0.07725169 -0.2855872
000020 2a 39 e3 bf ba 61 c0 3e 13 43 1f 3e 53 78 56 bf
       -1.775182 0.3757456 0.1555293 -0.8377735
000030 b6 fd 58 bf a7 6b ee bf 55 52 ec bf c2 cd 9d 3f
       -0.8476213 -1.8626603 -1.8462626 1.2328417
000040 1f b3 9e 3e 46 a2 e1 be 3f f9 ea 3e 02 cf 36 bf
       0.30996034 -0.44069117 0.45893285 -0.7140962
000050 25 0f 65 3d 29 33 2f be 73 1f 38 3f 01 a5 12 be
       0.055922646 -0.1710936 0.7192299 -0.14320756
000060 cb da 4c bf
       -0.8002135

grad f4 [1, 25]
000000 00 00 00 00 d8 49 91 bd 84 95 d0 bc b0 d6 76 bc
       0.0 -0.07094163 -0.02546192 -0.015065834
000010 df 6d b2 3c 00 00 00 00 e3 22 89 ba c1 9b 8a bc
       0.021780906 0.0 -0.0010462668 -0.016919972
000020 d7 56 c7 3c 00 00 00 00 aa 1b 13 b8 cd 27 25 bc
       0.0243334 0.0 -3.5073295e-05 -0.01008029
000030 42 fe 9f b9 f1 73 1b 3c b6 e3 0c bd d3 78 af 3c
       -0.0003051628 0.009488092 -0.03439685 0.021419918
000040 00 82 a8 3a b9 6b 85 bc 9f 78 0f bd 05 70 31 bd
       0.0012856126 -0.016286718 -0.035027143 -0.04331972
000050 a0 75 0a ba 23 1d 76 bd fb 61 d3 3c 0d 4a c2 3c
       -0.000528181 -0.06008638 0.025803557 0.02371695
000060 6a 07 d9 3a
       0.0016557996

x f4 [100, 25]
000000 c6 dc 66 be 53 bd 98 3e cc 08 0c 3d 4a 19 e4 be
       -0.22545156 0.29831943 0.034188077 -0.44550544
000010 7b 06 a3 bd 14 66 af be 9a 22 0d be d0 a0 84 3e
       -0.079602204 -0.34257567 -0.1378273 0.2590394
000020 c4 1f 41 bd f8 0e 88 be 36 d8 72 be 52 33 47 3d
       -0.047149435 -0.2657392 -0.2371529 0.048632927
000030 58 f7 f4 3d a4 6f 5d bd f0 d9 2b 3d e1 3f 47 be
       0.119612396 -0.054061547 0.04195589 -0.19457962
000040 b4 aa bb bd c3 a8 48 3e 88 31 18 3e ca b9 9b 3d
       -0.091634184 0.19595627 0.14862645 0.07603796
000050 30 c5 ab 3d 18 d5 c8 3d c0 34 4c 3c 80 8b 5b 3b
       0.0838722 0.098062694 0.012463748 0.0033499897
000060 5c 0b b9 3d 2e 88 af bd 9a 40 89 3e b5 bd b5 3e
       0.0903537 -0.08570896 0.268071 0.35496297
000070 d4 c3 5b be 10 15 4f bc a1 a3 ea bd 9d 2c af bd
       -0.21461421 -0.012639299 -0.11456991 -0.08553431
000080 08 4d f9 3d 10 9e 1c 3d 8e 26 63 be d8 e8 15 be
       0.12172896 0.038236678 -0.22182676 -0.14639604
000090 07 41 97 3e 6b dd 18 be 3b c7 67 3d 83 0d be 3e
       0.295418 -0.14928214 0.056586485 0.37119684
0000a0 d3 9a 0d bc 7c 78 08 bf ff 64 5a 3e 64 4f 6c be
       -0.00864287 -0.53308845 0.2132759 -0.2307716
0000b0 ac ae a4 bd e7 bc 44 3f 5e c5 0e be 99 41 53 3e
       -0.080411285 0.7685074 -0.13942477 0.20630492
0000c0 98 2a 3d 3e 7a fb 25 be 7a 7f c4 bd e7 ba 11 3f
       0.1847328 -0.16209212 -0.09594627 0.56925815
0000d0 8f 45 7d be 60 ae 1f 3c e8 7a 73 3e 1f 99 01 bf
       -0.24733566 0.009746164 0.23777354 -0.5062427
0000e0 31 c6 f9 3d 91 11 3b 3e 76 42 65 3d d6 44 26 bf
       0.12196005 0.1826842 0.055971585 -0.64948785
0000f0 ad 94 5f be ed d5 59 be 68 44 c8 3e 06 62 a5 3d
       -0.21834059 -0.21273012 0.3911469 0.08075337
000100 32 76 51 be 92 27 ee bd 12 c3 cf 3e 90 35 cd bd
       -0.20455244 -0.11628641 0.40578514 -0.10019982
000110 1a 83 12 3f e2 15 af 3e 60 72 0d bf 69 2d f9 3e
       0.57231295 0.34196383 -0.5525265 0.48667458
000120 04 f8 99 3e 1a 80 f3 bd aa b8 e0 3e 7e ab 82 be
       0.30072033 -0.11889668 0.43890887 -0.25521463
000130 6c d9 0f 3f a4 d1 d9 be 70 82 5e be 50 82 43 3e
       0.56191134 -0.42542756 -0.21729445 0.19092679
000140 09 ab 0e bf 80 35 28 bb 7e dc 7f 3e b2 24 02 be
       -0.5572973 -0.0025666654 0.24986455 -0.1270931
000150 92 cb ff be 6f 26 c0 be ea 51 c5 be ec a0 f6 3e
       -0.4996 -0.37529323 -0.38539058 0.4816965
000160 2c df f1 3d f2 7c 02 bf e4 bd 85 be bd bc 21 3f
       0.11810145 -0.509719 -0.26121438 0.63178617
000170 80 d4 c4 3c 80 bd 1a 3f 11 bc 6d 3e ce 45 75 bf
       0.02402711 0.60445404 0.23216273 -0.9580964
000180 72 3e 16 3f 82 2a 8c 3d 45 13 47 be 18 59 2b 3f
       0.58689034 0.06844045 -0.19440944 0.6693282
000190 e8 3f 94 bd f3 8f 99 3e ad a8 9c 3e c0 b0 0a be
       -0.07238752 0.29992637 0.3059744 -0.13543987
0001a0 50 63 f3 3c 69 93 07 be c0 d8 7a bc 90 57 0a 3e
       0.029710442 -0.13239826 -0.015310466 0.13509965
0001b0 b4 56 9e 3d 20 4a 82 be ce 43 f5 bd 6a fc 74 3e
       0.07731381 -0.25447178 -0.11975823 0.23924413
0001c0 ec d3 cb bd 78 ce b3 3d 35 51 a8 3e 46 41 79 3d
       -0.0995253 0.08779615 0.32874456 0.060853265
0001d0 f3 44 ef be 9e fa e3 3d 00 49 2f be 8f 4b 93 bd
       -0.46732292 0.11131786 -0.17117691 -0.07192146
0001e0 14 f8 36 3f c0 0e d7 bd 68 d4 7f 3e ca 5d 15 3e
       0.7147229 -0.1050086 0.2498337 0.14586559
0001f0 77 29 fe bd 38 81 f0 bd 62 93 c0 3e ee 1b 85 3d
       -0.124102525 -0.117433965 0.37612444 0.06499468
000200 c0 16 7b be 80 2c dc 3c fb 1e 91 be ee 39 78 bd
       -0.24520397 0.026876688 -0.2834395 -0.06060212
000210 d7 cf 1f 3e 60 68 3e bd 51 af c4 be 62 f8 a2 be
       0.15606628 -0.04648626 -0.38415006 -0.31830126
000220 90 22 51 3d 38 b5 e3 3d ae 0e 2f 3d 24 a7 82 3d
       0.051058352 0.11118549 0.04273861 0.06379536
000230 b1 c6 16 be 58 22 27 bd 1d a8 2a 3e 9a c4 1f 3e
       -0.14724232 -0.040804237 0.16665693 0.15602341
000240 66 ae 98 3d 10 1d 5c 3d ec 11 fb 3d 9e 96 80 3d
       0.07455139 0.053738654 0.12259278 0.06278728
000250 08 fa e4 3c 40 54 09 3e b7 a2 e0 bd 3e 52 6d 3e
       0.027951255 0.13411045 -0.109685354 0.23175904
000260 17 3b be 3e 18 12 97 be c0 d9 e8 3b dc 4d 32 be
       0.37154457 -0.29505992 0.007106036 -0.17412513
000270 9c 14 e1 bd ce d4 28 3e 67 64 e8 3d bc 0a e6 bd
       -0.10990259 0.16487429 0.11347275 -0.11232516
000280 ad 2b 21 be 92 6e 90 3e 4f 0a 08 be 00 2c 96 39
       -0.15739317 0.28209358 -0.13285182 0.00028643012
000290 be 00 c9 3e a0 42 1e 3a 4c 2b 0e bf 2f f6 23 3e
       0.3925838 0.00060371496 -0.55534816 0.1601188
0002a0 e0 ce 63 be 2c 45 81 bd 09 d4 35 3f 72 c1 22 be
       -0.22246885 -0.063120216 0.71026665 -0.15894106
0002b0 d3 09 58 3e b9 b3 33 3e 9a 3c 34 be b9 38 9b bd
       0.21097498 0.17549028 -0.17601243 -0.07579178
0002c0 5a 37 e9 3e 18 c2 be bc e6 24 a9 3d c0 12 51 3e
       0.45550042 -0.02328591 0.08258991 0.20417309
0002d0 e2 1e 8d be 3f c4 87 3d 97 b2 24 3e 93 11 f5 3d
       -0.27562624 0.06629228 0.16083752 0.11966243
0002e0 7b 9d f4 be 9e f9 b1 bd 48 98 eb bc d8 9b 37 3e
       -0.47776398 -0.08690189 -0.028759137 0.17930543
0002f0 18 3a 3c 3e f8 e2 25 bd b2 c6 71 3d 00 95 42 3c
       0.18381536 -0.040499657 0.05902738 0.011876345
000300 10 f1 3a be 33 0a 88 3e 3e 05 a1 3d 00 42 84 3a
       -0.1825602 0.2657028 0.07862328 0.001009047
000310 bd 69 81 3e bc a8 dd 3e d0 36 93 bc e8 1a 7a 3e
       0.25275984 0.43292797 -0.017970473 0.24424326
000320 76 88 bc bd 1e eb dd 3e 00 51 aa 3b c0 27 86 3c
       -0.09205715 0.43343443 0.0051976442 0.016376376
000330 2a da 37 3e 9f 99 88 be 3a f0 3e 3d e9 1d 2a 3e
       0.17954317 -0.26679704 0.046615817 0.16612972
000340 a0 a9 c0 3d b5 3d d3 be b5 91 f8 bd 00 e5 6b bc
       0.094073534 -0.41258016 -0.121371664 -0.01439786
000350 fc c1 01 3e 04 67 24 3e 60 7e 4f bc 06 f4 33 3d
       0.12671655 0.16054922 -0.0126644075 0.04393389
000360 18 bf 31 bd 98 6f e5 bd c2 7e 42 3e 1c 90 45 3d
       -0.04339513 -0.112029254 0.18993667 0.048233137
000370 50 62 86 3d 24 9d 4e 3e 26 c9 b9 3e 80 79 c0 3a
       0.0656172 0.20177132 0.36286277 0.0014684647
000380 52 44 59 3e 85 27 aa be 5e 99 46 3f 80 61 74 bf
       0.21217468 -0.33233276 0.7757777 -0.95461273
000390 58 1c e3 bd 4b 57 a5 3e 00 f0 43 bf 7e 18 52 3d
       -0.110893905 0.32293162 -0.76538086 0.05129289
0003a0 03 de 82 3e 79 ff 96 be 2f 8f 51 bf 26 60 ea be
       0.25560006 -0.29491785 -0.81859106 -0.4577648
0003b0 25 10 51 bf 87 cc 5e 3f 21 2d 67 3e e6 68 93 bf
       -0.8166526 0.87030834 0.22575809 -1.1516387
0003c0 41 64 cd be 62 1a b3 3f ac 4c a0 bd 7a b4 8d 3f
       -0.4011555 1.3992426 -0.07827124 1.1070702
0003d0 c2 5a c7 3e de 2d 03 c0 ba 01 8c 3f 76 dd 0d 3d
       0.3893643 -2.0496745 1.0938027 0.03463503
0003e0 10 93 e9 be 56 1a 97 3f 34 b4 81 be 7c d0 ee 3e
       -0.45620012 1.1804912 -0.25332797 0.46643436
0003f0 6d 1d 56 be 69 90 a9 be b0 f1 eb 3d e6 5d 01 bf
       -0.20909663 -0.3311799 0.115207076 -0.505339

x f4 [100, 25]
000000 52 a2 38 3f 00 00 00 80 00 00 00 80 a7 80 cb 3d
       0.7212268 -0.0 -0.0 0.09936648
000010 00 00 00 80 72 23 06 3f 00 00 00 80 00 00 00 80
       -0.0 0.52397835 -0.0 -0.0
000020 00 00 00 80 16 d0 31 3f 39 b3 98 3e 00 00 00 80
       -0.0 0.6945814 0.29824236 -0.0
000030 00 00 00 80 00 00 00 80 00 00 00 80 b9 4e 40 3f
       -0.0 -0.0 -0.0 0.7512012
000040 00 00 00 80 8c f7 8d 3f db 04 00 40 00 00 00 80
       -0.0 1.109117 2.0002964 -0.0
000050 00 00 00 80 00 00 00 80 f8 95 d2 3d 00 00 00 80
       -0.0 -0.0 0.102825105 -0.0
000060 00 00 00 80 58 b9 77 3e 00 00 00 80 00 00 00 80
       -0.0 0.24191797 -0.0 -0.0
000070 00 00 00 80 00 00 00 80 00 00 00 80 00 00 00 80
       -0.0 -0.0 -0.0 -0.0
000080 00 00 00 80 00 00 00 80 ea 2c a0 3e bb 84 30 3e
       -0.0 -0.0 0.31284267 0.17238133
000090 00 00 00 80 00 00 00 80 00 00 00 80 00 00 00 80
       -0.0 -0.0 -0.0 -0.0
0000a0 0b 38 9c 3f 93 48 af 3e 00 00 00 80 60 1e bd 3e
       1.2204603 0.34235057 -0.0 0.36937237
0000b0 00 00 00 80 c6 b8 18 3e 00 00 00 80 52 7a 43 3f
       -0.0 0.14914235 -0.0 0.7635852
0000c0 00 00 00 80 00 00 00 80 00 00 00 80 ec 2d 2a 3f
       -0.0 -0.0 -0.0 0.6647632
0000d0 e8 d5 80 3e 00 00 00 80 00 00 00 80 00 00 00 80
       0.25163198 -0.0 -0.0 -0.0
0000e0 d2 97 e5 3e 00 00 00 80 00 00 00 80 00 00 00 80
       0.44842392 -0.0 -0.0 -0.0
0000f0 14 d4 37 3e 00 00 00 80 00 00 00 80 00 00 00 80
       0.17951995 -0.0 -0.0 -0.0
000100 00 00 00 80 ed 8e bb 3f 35 bb 3e 3f 00 00 00 80
       -0.0 1.4652992 0.74504405 -0.0
000110 00 00 00 80 98 53 81 3f 0a 40 bf 3f 65 5c 3e 3f
       -0.0 1.0103636 1.4941418 0.7435973
000120 92 6c b8 3f 5e de 72 3f 00 00 00 80 0e 59 30 3f
       1.4408133 0.94870555 -0.0 0.68885887
000130 00 00 00 80 00 00 00 80 4b c4 8b 3f 48 5d 3e 3f
       -0.0 -0.0 1.0919279 0.74361086
000140 00 00 00 80 ba 18 7b 3f 32 cd 3c 3f 30 da 2f 3e
       -0.0 0.98084605 0.73750603 0.17173076
000150 52 af a5 3f 00 00 00 80 00 00 00 80 00 00 00 80
       1.2944129 -0.0 -0.0 -0.0
000160 00 00 00 80 00 00 00 80 7c 3d e5 3f 00 00 00 80
       -0.0 -0.0 1.7909389 -0.0
000170 10 1b 80 3c 17 b5 81 3f 00 00 00 80 00 00 00 80
       0.015637904 1.0133389 -0.0 -0.0
000180 00 00 00 80 b8 84 af 3e 00 00 00 80 00 00 00 80
       -0.0 0.34280944 -0.0 -0.0
000190 dc 3e 95 3e 00 00 00 80 00 00 00 80 6a df aa 3e
       0.2914952 -0.0 -0.0 0.33373576
0001a0 00 00 00 80 00 00 00 80 86 84 e5 3e 00 00 00 80
       -0.0 -0.0 0.4482767 -0.0
0001b0 00 00 00 80 02 24 0e 3f b0 6b 30 3c 00 00 00 80
       -0.0 0.55523694 0.010767862 -0.0
0001c0 00 00 00 80 00 00 00 80 00 00 00 80 ff da bf 3f
       -0.0 -0.0 -0.0 1.4988707
0001d0 5f 65 8f 3e 00 00 00 80 72 e2 81 3e 00 00 00 80
       0.28007028 -0.0 0.25368077 -0.0
0001e0 5a 9d b5 3d 00 00 00 80 d1 33 42 3f 71 0a 22 3e
       0.08867903 -0.0 0.75860316 0.15824296
0001f0 00 00 00 80 d0 fc bf 3c 00 00 00 80 00 00 00 80
       -0.0 0.02343598 -0.0 -0.0
000200 00 00 00 80 00 00 00 80 00 00 00 80 00 00 00 80
       -0.0 -0.0 -0.0 -0.0
000210 00 00 00 80 00 00 00 80 00 00 00 80 72 a5 16 3f
       -0.0 -0.0 -0.0 0.588462
000220 00 00 00 80 00 00 00 80 00 00 00 80 00 00 00 80
       -0.0 -0.0 -0.0 -0.0
000230 07 47 0c 3f ea 51 12 3f 00 00 00 80 c8 3e cb 3e
       0.5479588 0.5715624 -0.0 0.39696336
000240 6c 8f cc 3e 24 34 09 3f 87 bb ab 3f ff 9a 64 3f
       0.39953172 0.53595185 1.3416604 0.89299005
000250 00 00 00 80 00 00 00 80 f4 86 0e 3f 00 00 00 80
       -0.0 -0.0 0.5567467 -0.0
000260 00 00 00 80 5b f2 06 3e 00 00 00 80 c0 36 d1 3d
       -0.0 0.13178389 -0.0 0.10215521
000270 00 00 00 80 00 00 00 80 00 00 00 80 64 fa 1a 3f
       -0.0 -0.0 -0.0 0.60538316
000280 d0 55 60 3e 00 00 00 80 00 00 00 80 00 00 00 80
       0.21907735 -0.0 -0.0 -0.0
000290 00 00 00 80 0b c6 7a 3f f6 f1 e2 3d bc 18 f7 3e
       -0.0 0.9795844 0.11081307 0.48261058
0002a0 c9 e6 b0 3f 00 00 00 80 00 00 00 80 00 00 00 80
       1.382043 -0.0 -0.0 -0.0
0002b0 92 6c af 3e 00 00 00 80 00 00 00 80 02 9e 99 3e
       0.3426252 -0.0 -0.0 0.30003363
0002c0 00 00 00 80 00 00 00 80 22 63 6f 3f f8 bf a0 3e
       -0.0 -0.0 0.9351064 0.3139646
0002d0 00 00 00 80 ae 69 d0 3f 44 6e da 3e b0 f4 3a 3e
       -0.0 1.6282251 0.4266225 0.18257403
0002e0 74 f9 6f 3f 00 00 00 80 00 00 00 80 00 00 00 80
       0.9374001 -0.0 -0.0 -0.0
0002f0 00 00 00 80 00 00 00 80 f8 19 06 40 18 f7 65 3e
       -0.0 -0.0 2.095335 0.2245754
000300 00 00 00 80 00 00 00 80 00 00 00 80 91 12 4a 3e
       -0.0 -0.0 -0.0 0.19733645
000310 00 00 00 80 52 32 5d 3f b1 d5 5a 3f 00 00 00 80
       -0.0 0.8640491 0.8548232 -0.0
000320 18 8d ce 3e 00 00 00 80 00 00 00 80 c7 1c 70 3f
       0.4034202 -0.0 -0.0 0.9379391
000330 ec ce c1 3e 00 00 00 80 b1 71 b0 3f da cc f4 3e
       0.3785318 -0.0 1.3784696 0.4781254
000340 50 c3 bc 3d 0a 06 81 3f 00 00 00 80 00 00 00 80
       0.092169404 1.0079968 -0.0 -0.0
000350 00 00 00 80 00 00 00 80 00 00 00 80 1e d3 fc 3f
       -0.0 -0.0 -0.0 1.9751928
000360 2f 89 1b 3e 00 00 00 80 38 c9 ff 3d 00 00 00 80
       0.1518905 -0.0 0.12489551 -0.0
000370 00 00 00 80 00 00 00 80 6d c5 37 3f 62 59 10 3f
       -0.0 -0.0 0.7178562 0.5638639
000380 00 00 00 80 10 3b 15 3f 00 00 00 80 00 00 00 80
       -0.0 0.5829325 -0.0 -0.0
000390 16 1b a8 3f 8c d1 76 3f 00 00 00 80 6e a4 d7 3f
       1.3133266 0.96413493 -0.0 1.6847055
0003a0 3c 54 5d 3f 84 fb 44 3f 78 66 ae 3f 00 00 00 80
       0.86456656 0.7694628 1.3625021 -0.0
0003b0 00 00 00 80 00 00 00 80 00 00 00 80 00 00 00 80
       -0.0 -0.0 -0.0 -0.0
0003c0 8c fa 08 40 00 00 00 80 00 00 00 80 d6 e3 e0 3e
       2.1402922 -0.0 -0.0 0.43923825
0003d0 00 00 00 80 00 00 00 80 00 00 00 80 5e 54 09 3f
       -0.0 -0.0 -0.0 0.5364436
0003e0 19 b5 00 3f 00 00 00 80 3c 3c 42 3f 00 00 00 80
       0.50276333 -0.0 0.7587316 -0.0
0003f0 00 00 00 80 39 ec 5e 3f 24 8e 00 3f 0c 50 4f 3e
       -0.0 0.870792 0.5021689 0.20245379

x f4 [25, 25]
000000 c6 77 1c be fe ac 4f 3c 0f d9 12 3d e8 42 63 bc
       -0.15280065 0.012675522 0.035851534 -0.013870932
000010 f5 0a 0e 3c 98 aa 1e 3e 9e 08 87 bd d6 bb 6c be
       0.008669605 0.15494764 -0.065934405 -0.23118529
000020 48 c6 0b be 17 24 b5 bd 42 d0 38 be 94 ca 3f be
       -0.13649857 -0.08844774 -0.18048194 -0.18729621
000030 51 5a 37 bd 72 e7 40 3e a4 45 09 be cb 38 0b 3e
       -0.044763867 0.1883829 -0.13405472 0.13595884
000040 01 06 3c bd 50 64 14 be 76 df b8 bd 18 26 5e be
       -0.045904163 -0.14491391 -0.09026997 -0.21694219
000050 63 23 d3 3d dd 28 1b be 89 b4 be 3d ee 93 0c bf
       0.10309484 -0.15152307 0.09311778 -0.5491322
000060 8f 7e a5 bb 1e fd 8e bd 0b df 81 be 49 49 67 3e
       -0.0050504874 -0.06981872 -0.2536548 0.2258655
000070 7d 8e 64 be b3 a7 0b be 64 99 fb bc 2f 98 17 3f
       -0.2231998 -0.13638191 -0.03071279 0.5921659
000080 6a 7e e4 bd 46 ad 82 bd 92 d1 9d 3d 57 b8 b1 bc
       -0.11156924 -0.063807055 0.07705988 -0.021694345
000090 ce 2c 63 3e f1 af 5a 3f ef 11 d9 3c 65 3d 81 3c
       0.2218506 0.85424715 0.02649781 0.015776346
0000a0 3c 38 35 be f3 e1 35 be 4e da 80 3d 23 0b 06 3d
       -0.17697233 -0.17761974 0.06291638 0.032725465
0000b0 b4 b5 79 be 97 15 3d 3d 5c c9 69 ba d9 eb 7a bb
       -0.2438572 0.046163168 -0.00089182495 -0.0038287549
0000c0 c8 07 39 3f 12 2e d0 3e 22 54 fc bd 1c d5 51 3d
       0.722775 0.4066015 -0.123207346 0.051228628
0000d0 60 be c8 3d 12 a2 01 be ea 61 52 bd f4 7e 31 3c
       0.09801936 -0.12659481 -0.05136291 0.010833491
0000e0 46 aa 9a 3e 8a ad c4 3c 0c da 3f bd b6 fb db 3d
       0.30208033 0.024008531 -0.046838805 0.107413694
0000f0 94 b7 fd bd 0e b8 a9 3e c5 72 17 3f 82 cf fe 3d
       -0.123885304 0.33148235 0.591595 0.12441923
000100 76 0c cf bd 54 48 53 bd d9 ce 66 be 5e d0 24 3e
       -0.101097986 -0.05158265 -0.22539844 0.16095111
000110 bc 12 c9 bd f3 7c 02 bc 81 64 e2 bd 05 a0 1b be
       -0.098180264 -0.0079643605 -0.11054326 -0.15197761
000120 17 f9 37 be 3c 05 99 3e 9b 6c 78 bd d7 03 c9 bd
       -0.17966114 0.29886806 -0.06065045 -0.098151855
000130 3c 8f 6a 3b 49 1b 82 3d 1c d5 f1 3d 28 9c 30 3e
       0.003579094 0.063528605 0.118082255 0.17247069
000140 f1 e3 30 3d 00 59 2c 3e aa f6 07 3d 8a a0 8b bd
       0.043186132 0.16830826 0.03319422 -0.0681773
000150 ba b7 cb bd 21 5f 2a be 17 03 62 3e 1d a0 0a 3f
       -0.099471524 -0.16637851 0.22071491 0.54150563
000160 80 4e 84 be 86 9f 9b bd bc 0e 6f bd de 41 38 bc
       -0.2584114 -0.07598786 -0.05836366 -0.011246173
000170 98 fb 00 bc 69 bc 9a 3d bd 5e 79 be d3 8c 4b 3d
       -0.007872485 0.07555468 -0.24352546 0.049694847
000180 60 c1 6d 3d 7f 57 10 be b1 66 85 bd 94 e1 23 3b
       0.058045745 -0.14095877 -0.065137275 0.0025006281
000190 13 84 86 bb 2c c7 d9 bc a5 b8 8e 3e 30 ea 09 3e
       -0.0041051 -0.02658423 0.27875248 0.13468242
0001a0 1b a1 b8 39 6b 17 67 bd b8 bf aa 3e 53 5a 17 3e
       0.00035215248 -0.056418817 0.33349395 0.1478055
0001b0 e1 60 1d 3e a8 6a 10 3d 90 31 10 be 3b 11 a9 3e
       0.15368988 0.035257965 -0.14081407 0.33020958
0001c0 da 36 9b 3f 0f e1 9b bd 0c a2 a6 bd 65 a5 57 3d
       1.2126114 -0.07611286 -0.08136377 0.052647967
0001d0 69 8a b2 3d dd 42 30 3c c5 66 dd bd 98 d6 d9 be
       0.08717806 0.010758129 -0.10810617 -0.42546535
0001e0 ff f1 bd 3d 97 20 82 be 1f 88 28 bd af 41 e7 3c
       0.09274673 -0.2541549 -0.04114544 0.028229563
0001f0 38 02 6c 3c ee 48 da 3d 4b 99 b3 3c 9f 2d 6c bd
       0.014404826 0.106584415 0.021923682 -0.057660695
000200 ab fa 20 bc 1a 61 d3 bd 20 b5 5c bd 88 61 1c bc
       -0.009825389 -0.10321255 -0.05388367 -0.009544738
000210 22 27 25 bd 54 29 ea bb 5b d7 35 be 68 46 54 bd
       -0.040320523 -0.00714604 -0.17757933 -0.051824957
000220 3c 69 b7 3e 85 67 2f 3f aa 7d 73 be 03 37 b8 3d
       0.35822475 0.68517333 -0.23778406 0.08994868
000230 d3 69 07 be 96 76 07 be 34 93 3b bd bf fe a9 bd
       -0.13223962 -0.1322883 -0.04579468 -0.08300542
000240 99 14 ad be 33 de fa 3d 87 53 e3 bd a9 65 5c 3e
       -0.33804777 0.122494124 -0.11099916 0.21523155
000250 ce f0 5e 3e b4 8a 32 3e 49 05 ef 3c b0 70 d2 bd
       0.21771547 0.17435724 0.029177325 -0.102754
000260 09 de fe 3d 27 b5 0b be 23 ad 2d be c9 ea 1d be
       0.124446936 -0.13643323 -0.16960578 -0.15421595
000270 7c 0c b6 3e 1c 1a f4 3d 6b 8c 42 3e 20 d7 14 be
       0.355564 0.119190425 0.18998878 -0.14535189
000280 bd 89 19 bd 6d b0 a9 3d 1c 21 18 3f 0f b1 b4 bd
       -0.037484873 0.08285604 0.5942552 -0.08822834
000290 88 b3 04 be 8f 33 71 bd 15 fa 9b bd 36 0d 53 bc
       -0.1295911 -0.05888706 -0.07616059 -0.012881568
0002a0 be 78 b2 bd df 2f e0 be 5b 60 9d bd 3b 4f 27 bd
       -0.08714436 -0.43786523 -0.07684394 -0.040847044
0002b0 75 5e 9c 3c d3 21 1a 3d e2 a6 8b bd e5 69 52 3d
       0.01908801 0.037629914 -0.0681894 0.05137052
0002c0 d2 bc e4 3a f9 8e c1 bd 25 67 59 bd a6 f7 15 be
       0.0017451292 -0.09451098 -0.053076882 -0.14645252
0002d0 19 1c 7c bc 22 6c d9 3e 20 86 1b be 29 86 a8 bc
       -0.015387558 0.4246531 -0.15187883 -0.020571785
0002e0 c0 f7 db bd db d7 a2 3d 2b 08 1d 3d b7 2c 26 3f
       -0.10740614 0.079513274 0.038337868 0.6491198
0002f0 c7 9e 4c be d6 49 8d 3b 12 fb b5 3d ca aa d4 3c
       -0.19982444 0.0043117804 0.088857785 0.025960345
000300 bf da 1e 3e e6 16 32 3e 3e 19 ed be 8f 16 07 be
       0.15513133 0.17391548 -0.4630832 -0.13192199
000310 69 be 62 be 00 3e 40 3e f2 38 16 be 8b 2e d0 3d
       -0.22142948 0.18773651 -0.1467016 0.10165127
000320 bc 17 3b 3e 2a a5 97 be ae c0 f1 3d 99 ce 02 bd
       0.18270773 -0.29618198 0.11804329 -0.031935308
000330 e3 17 c4 3d d6 e9 09 be 06 70 be 3e 07 77 b4 bd
       0.095748685 -0.13468108 0.37194842 -0.08811765
000340 c3 d7 85 3c 4a 37 36 be 11 9d 98 3c be 05 6b 3c
       0.016338235 -0.17794529 0.018629583 0.014344631
000350 df 5f 44 3f 5b f6 93 3d 78 07 42 be 98 58 5a be
       0.7670879 0.07224723 -0.18948162 -0.21322858
000360 9d 4a e4 bc b7 1f c6 3c b1 1a 53 bd 62 eb cf be
       -0.02786761 0.024185045 -0.051539127 -0.4060927
000370 72 b0 2e bd fd 29 42 be b5 cf 8a 3d 0b 45 c6 3e
       -0.04264874 -0.1896133 0.06777898 0.3872455
000380 cd 3c 60 3e 8e 2d dc bc cd c1 28 3e 32 70 e4 3a
       0.21898194 -0.02687719 0.16480179 0.0017428456
000390 23 a0 be 3d 16 7e a3 3c f0 26 40 be 39 d8 21 3e
       0.093078874 0.019957583 -0.18764853 0.15805139
0003a0 ce 45 3e bd c6 e6 01 be d1 32 33 3e a6 0e 1f be
       -0.04645329 -0.1268569 0.17499854 -0.15532932
0003b0 a0 49 bb bd 87 b8 f7 3e 95 a4 85 be 99 ed 8c 3d
       -0.09144902 0.4838297 -0.2610213 0.06881256
0003c0 30 7f e1 bd b2 e8 0e 3e e0 44 e3 3d 78 89 0a be
       -0.11010587 0.13955954 0.11097121 -0.13529003
0003d0 26 ab bc bd 2d e1 60 3e ef 49 2f 3e 8f 8a a2 bd
       -0.092123315 0.21960898 0.17118047 -0.07936584
0003e0 a1 be 2a bf 93 9b c3 bd d3 f3 33 be dd ab 8d be
       -0.66697127 -0.09551158 -0.1757348 -0.27670184
0003f0 d9 53 44 bd 4a 16 19 be 58 ac 3e 3e 53 f7 e5 bd
       -0.047931526 -0.14949909 0.18620431 -0.11228814

b f4 [1, 25]
000000 00 00 80 3f 00 00 80 3f 00 00 80 3f 00 00 80 3f
       1.0 1.0 1.0 1.0
000010 00 00 80 3f 00 00 80 3f 00 00 80 3f 00 00 80 3f
       1.0 1.0 1.0 1.0
000020 00 00 80 3f 00 00 80 3f 00 00 80 3f 00 00 80 3f
       1.0 1.0 1.0 1.0
000030 00 00 80 3f 00 00 80 3f 00 00 80 3f 00 00 80 3f
       1.0 1.0 1.0 1.0
000040 00 00 80 3f 00 00 80 3f 00 00 80 3f 00 00 80 3f
       1.0 1.0 1.0 1.0
000050 00 00 80 3f 00 00 80 3f 00 00 80 3f 00 00 80 3f
       1.0 1.0 1.0 1.0
000060 00 00 80 3f
       1.0

grad f4 [25, 25]
000000 00 00 00 00 cc 14 a3 3c 2f 19 41 bb 44 31 9e ba
       0.0 0.019907378 -0.0029464473 -0.0012069126
000010 f3 08 90 ba 00 00 00 00 0c 59 dc 3b 0d 87 cc 3a
       -0.0010988995 0.0 0.0067244824 0.0015604213
000020 a5 5c 1a 3b 00 00 00 00 00 00 00 00 56 21 31 bc
       0.0023553756 0.0 0.0 -0.010811171
000030 0b 02 ca bc 3a 7d 57 bb 92 ba 0b bc cf 81 e8 39
       -0.024659177 -0.0032881037 -0.008528369 0.00044347203
000040 46 a2 33 ba 7e 15 46 3b 60 6d 24 3b 14 dc 88 3c
       -0.0006852489 0.0030225213 0.0025089607 0.016706504
000050 d6 c2 37 3a 41 80 5f 3b 9b 1c b0 bb 0c 83 91 bc
       0.0007009929 0.0034103545 -0.005374504 -0.017762683
000060 84 a1 78 bb 00 00 00 00 e6 a3 3f 3a 12 af c3 b8
       -0.0037938068 0.0 0.00073104945 -9.330934e-05
000070 f5 f5 10 3a 41 b0 0a 39 00 00 00 00 62 11 6f ba
       0.00055298145 0.00013226365 0.0 -0.00091197167
000080 6c d6 0c b8 da c4 70 39 00 00 00 00 39 ae 20 b7
       -3.3578297e-05 0.00022961517 0.0 -9.5773075e-06
000090 32 43 9f b9 0e 39 15 bb c0 23 c9 b8 40 79 ae b9
       -0.00030376908 -0.0022769603 -9.591086e-05 -0.00033278205
0000a0 f2 c8 1e 39 f6 70 44 39 d4 ea 18 b7 58 c2 66 39
       0.00015142912 0.00018734098 -9.114581e-06 0.00022006908
0000b0 90 cb f7 39 0c a2 a8 b8 78 a7 9b 38 54 cd e0 b8
       0.00047263177 -8.041048e-05 7.4221694e-05 -0.00010719398
0000c0 4c 58 4d ba c6 01 2a ba 00 00 00 00 1a 75 16 37
       -0.00078332867 -0.00064852496 0.0 8.967962e-06
0000d0 00 00 00 00 de fe 0f 39 e5 8c bf 38 00 00 00 00
       0.0 0.00013732488 9.1338334e-05 0.0
0000e0 b1 59 83 38 1d f4 83 b7 d8 35 13 38 00 00 00 00
       6.263273e-05 -1.5730091e-05 3.5097677e-05 0.0
0000f0 78 01 1d b6 00 00 00 00 d2 f1 eb b7 7c b2 8d 37
       -2.3395678e-06 0.0 -2.812679e-05 1.6891623e-05
000100 00 00 00 00 fd 3f dd b5 df ff b6 38 00 00 00 00
       0.0 -1.6484406e-06 8.726096e-05 0.0
000110 c4 ff 17 b8 4d c4 86 b9 00 00 00 00 26 cb 80 b8
       -3.6239406e-05 -0.00025704727 0.0 -6.141355e-05
000120 8f 0b 2c 38 00 00 00 00 f4 98 c8 b7 00 00 00 00
       4.101876e-05 0.0 -2.3913082e-05 0.0
000130 f6 11 d6 3b d0 53 b3 ba c0 ee ee b7 8b 2b 5e bb
       0.006532903 -0.0013681594 -2.8482988e-05 -0.0033900465
000140 00 00 00 00 59 76 25 3b 38 d3 0d 3a 64 4d f3 39
       0.0 0.0025247543 0.0005410197 0.00046406232
000150 00 00 00 00 8e c6 95 b6 36 12 6d bb db bc 39 bc
       0.0 -4.463661e-06 -0.0036174185 -0.011336531
000160 ec 59 34 ba 44 c5 3f bb 34 af 1e ba b6 29 c9 ba
       -0.00068798545 -0.0029261867 -0.0006053329 -0.0015347514
000170 1f 43 84 3a 1d 0f 78 3a 18 34 89 3c 38 fe 4d 39
       0.0010090804 0.0009462701 0.016748473 0.00019645027
000180 f0 ca 3d 3b b6 cc 49 bb 47 27 c6 bb 12 42 55 bb
       0.0028960072 -0.0030792183 -0.0060471627 -0.0032540602
000190 00 00 00 00 12 af 1c bb 16 72 24 39 b7 a4 26 ba
       0.0 -0.002390806 0.00015682759 -0.0006356942
0001a0 e4 76 d6 ba 00 00 00 00 40 95 38 3b f9 15 27 b8
       -0.0016362336 0.0 0.0028165132 -3.9836366e-05
0001b0 f2 a2 4d ba 00 00 00 00 00 00 00 00 18 4e 79 3a
       -0.000784441 0.0 0.0 0.0009510233
0001c0 e8 07 e7 3b 7c 40 b4 39 96 7e 6c 3a 70 75 56 ba
       0.007050503 0.0003438032 0.00090215483 -0.00081809517
0001d0 56 d4 51 ba d8 52 c6 37 7c 45 6b ba 1c 7b ed 3a
       -0.0008004358 2.3642016e-05 -0.00089748926 0.0018118354
0001e0 86 a8 ce 39 76 e9 d2 39 8c a5 20 b9 1c 7d 19 3b
       0.00039416942 0.00040228263 -0.0001532046 0.0023420518
0001f0 6b c1 e3 3a 00 00 00 00 46 b9 e7 3b e1 eb 92 ba
       0.0017376369 0.0 0.007071647 -0.0011209213
000200 00 00 00 00 cc 52 be b9 00 00 00 00 00 00 00 00
       0.0 -0.00036301313 0.0 0.0
000210 48 08 c3 38 da 81 d3 38 00 00 00 00 00 00 00 00
       9.299867e-05 0.00010085451 0.0 0.0
000220 78 cf 85 bb a7 0e bc bc 3d 7e b1 b8 6c 2c 16 bb
       -0.00408357 -0.022956206 -8.4635314e-05 -0.002291466
000230 41 69 01 38 cc 0a ae 36 ca d1 91 b8 ee d5 30 3b
       3.0854022e-05 5.186861e-06 -6.953215e-05 0.002698298
000240 22 0e 29 3c 4c 56 5c ba 71 e8 29 3b 1a b8 f8 ba
       0.010318311 -0.0008405193 0.00259259 -0.0018975765
000250 24 97 e5 bb 9d 5b 8d bb 00 00 00 00 b8 1e 19 3c
       -0.0070065428 -0.0043138997 0.0 0.009345703
000260 af d1 d4 ba 2f 83 8f 3b 1a c7 98 bb 00 00 00 00
       -0.0016236807 0.004379652 -0.0046624066 0.0
000270 52 cf 62 bc 6e c4 d4 39 e4 a9 ac 3a 00 00 00 00
       -0.013843374 0.00040582143 0.001317319 0.0
000280 23 30 c7 b7 78 e2 87 bb 90 2a e6 bc b2 e6 f8 ba
       -2.3745064e-05 -0.00414687 -0.028096467 -0.0018989651
000290 34 2e a2 bb 2b fc a1 3a 64 41 ee ba f7 39 a1 39
       -0.0049493555 0.0012358477 -0.0018177447 0.000307515
0002a0 07 ce 82 3b 1a 44 f8 3c 74 7c 6e ba 93 7f 9b 3b
       0.0039918455 0.03030591 -0.00090975245 0.0047454326
0002b0 3a ad 8f bb d1 7f 2f bc 67 25 ff bb 00 00 00 00
       -0.004384664 -0.010711626 -0.007786441 0.0
0002c0 40 02 0d 39 87 93 a4 b9 95 f7 5f ba 0c b1 f2 ba
       0.00013447646 -0.00031390434 -0.00085436675 -0.0018515899
0002d0 00 00 00 00 bf a4 8e 3b 8e f2 f9 38 19 04 0c ba
       0.0 0.0043531354 0.000119184246 -0.0005341187
0002e0 00 00 00 00 00 00 00 00 44 e5 f6 b9 28 fd 8d 3a
       0.0 0.0 -0.00047091593 0.0010832893
0002f0 b0 ab b3 39 f0 0f 05 38 fb 8b 89 ba 59 41 66 ba
       0.00034269458 3.1724514e-05 -0.0010493988 -0.0008783541
000300 49 0b 84 39 53 62 f2 b9 41 ec af 3b 04 c6 a7 39
       0.0002518541 -0.00046231094 0.00536874 0.00032000255
000310 64 2d 82 3a 64 bc 65 ba e0 1c 27 39 d0 1c 53 39
       0.000993174 -0.0008763729 0.00015937118 0.00020133262
000320 00 00 00 00 c8 3a 23 3a d5 6b c0 b8 73 93 2e b9
       0.0 0.00062267156 -9.175359e-05 -0.00016648862
000330 5a 3d 5d ba 00 00 00 00 46 b3 93 ba 57 93 57 b8
       -0.0008439623 0.0 -0.0011268638 -5.1397215e-05
000340 08 72 ad 38 00 00 00 00 00 00 00 00 54 86 a0 b9
       8.270523e-05 0.0 0.0 -0.0003061766
000350 e1 56 0f bb e5 a7 32 b9 7a 70 a7 b9 e9 41 37 39
       -0.0021871852 -0.00017037948 -0.00031936524 0.00017476793
000360 80 d4 a5 b9 00 00 00 00 ba a4 68 39 88 73 30 3b
       -0.00031629577 0.0 0.0002218661 0.002692433
000370 50 68 ba b8 26 0d 2f 3a 9a 44 01 ba 33 ef 47 ba
       -8.888601e-05 0.00066776795 -0.0004931182 -0.0007626891
000380 8b 58 41 ba 00 00 00 00 86 aa c1 3c ab a9 73 bb
       -0.00073755597 0.0 0.023640882 -0.0037179987
000390 ea 47 38 ba fc 23 5b bb 00 00 00 00 85 e0 c6 3b
       -0.0007029759 -0.0033438196 0.0 0.0060692453
0003a0 bf 25 e0 3a 47 2a 40 3b 00 00 00 00 92 dc 4e b6
       0.0017101093 0.0029322074 0.0 -3.082478e-06
0003b0 cc 72 49 bc 05 5c e5 bc 28 27 87 bb 32 c1 2b bc
       -0.012295436 -0.02799798 -0.004124541 -0.010483073
0003c0 28 69 1e 3a 54 fd dc ba 1e 6f 71 3b 4f 95 4f 3b
       0.0006042891 -0.0016860166 0.0036839913 0.0031674688
0003d0 98 83 cd 3c ad 29 81 3a b1 52 aa 3b 86 56 eb bb
       0.025087163 0.0009854339 0.005197846 -0.0071819453
0003e0 7f f5 af bc 9e 54 c8 bb 00 00 00 00 21 5f 01 3c
       -0.021479366 -0.006113603 0.0 0.007896216
0003f0 82 22 8b ba 0e bf 36 b9 82 fe d1 3a 00 00 00 00
       -0.0010615143 -0.00017428046 0.0016021284 0.0

p f4 [1, 25]
000000 04 0f a2 3d d2 32 61 bd 3c c6 75 be 59 c7 3a 3e
       0.0791302 -0.054980107 -0.24001402 0.18240108
000010 9c c1 a9 3d de 76 22 be ab f1 04 be 3d 3c 65 bd
       0.08288881 -0.15865657 -0.12982814 -0.05596565
000020 98 d0 14 3e 58 9f 85 3c d6 c8 bf 3d 4b f4 73 be
       0.14532697 0.016311333 0.09364478 -0.23823659
000030 dd f2 8c bf 2a 85 5a 3d ba 44 57 3c 10 88 e4 3d
       -1.1011616 0.05334965 0.013138944 0.11158764
000040 d2 4b 85 bd 72 0e 1d be 88 f5 6a 3e b3 b6 72 3e
       -0.06508602 -0.15337542 0.22945225 0.23702507
000050 d4 3a 01 be 4a d2 8e 3e ca 57 8b be 6d c6 c3 bf
       -0.12620097 0.27894813 -0.27215415 -1.529493
000060 77 71 97 be
       -0.29578754

grad f4 [1, 25]
000000 00 00 00 00 e2 cb 31 3d c0 19 ca bb 30 65 73 3a
       0.0 0.04340733 -0.0061676204 0.00092847925
000010 36 e5 b8 3a 00 00 00 00 c7 28 8b 3a 4d a7 5c 3b
       0.0014106396 0.0 0.0010617011 0.0033669055
000020 c1 54 af 3b 00 00 00 00 e5 b1 72 b7 70 2a bb bc
       0.0053506796 0.0 -1.4465743e-05 -0.022847384
000030 26 33 92 bc f8 0d 2e bc 34 85 ad bc 75 e2 78 3b
       -0.017846655 -0.010623448 -0.02118168 0.0037976776
000040 ea f1 a5 ba 8f b9 01 3c ac 90 ce b9 c0 41 a8 3c
       -0.0012660597 0.007917776 -0.0003939917 0.020539165
000050 c0 03 d2 3b e4 c9 7b 3b 4d c5 23 bc a1 c5 22 bd
       0.0064091384 0.0038419897 -0.009995771 -0.039739255
000060 6d fc 17 bc
       -0.009276492

x f4 [100, 25]
000000 a6 7f ee 3d 00 00 00 80 00 00 00 80 ca 68 11 3e
       0.11645441 -0.0 -0.0 0.1420013
000010 2c a1 0f 3f 00 00 00 80 00 00 00 80 00 00 00 80
       0.56105304 -0.0 -0.0 -0.0
000020 00 00 00 80 41 c0 9d 3c 00 00 00 80 00 00 00 80
       -0.0 0.019256713 -0.0 -0.0
000030 84 4a 4a 3f 00 00 00 80 00 00 00 80 00 00 00 80
       0.7901995 -0.0 -0.0 -0.0
000040 a8 cd f1 3d 00 00 00 80 ea d2 9e 3e 00 00 00 80
       0.11806804 -0.0 0.3102029 -0.0
000050 dc 7c c9 3e 00 00 00 80 4a b1 62 3e 00 00 00 80
       0.39353073 -0.0 0.22137943 -0.0
000060 00 00 00 80 c2 6c b6 3d 32 78 4e 3e 00 00 00 80
       -0.0 0.08907463 0.20163038 -0.0
000070 e1 f6 3f 3e 09 ce b4 3e 00 00 00 80 72 25 9a 3e
       0.1874652 0.35313442 -0.0 0.30106694
000080 00 00 00 80 00 00 00 80 ec 18 64 3e 8c 15 89 3e
       -0.0 -0.0 0.22275132 0.2677425
000090 00 00 00 80 00 00 00 80 00 00 00 80 00 00 00 80
       -0.0 -0.0 -0.0 -0.0
0000a0 00 00 00 80 00 00 00 80 00 00 00 80 78 8c c0 3e
       -0.0 -0.0 -0.0 0.3760717
0000b0 00 00 00 80 00 00 00 80 00 89 ac 3b 00 00 00 80
       -0.0 -0.0 0.005265355 -0.0
0000c0 00 00 00 80 00 00 00 80 78 b3 aa 3d 97 bf b7 3d
       -0.0 -0.0 0.08335012 0.0897209
0000d0 00 00 00 80 00 00 00 80 44 3f b4 3e c8 cc 90 3d
       -0.0 -0.0 0.35204518 0.07070309
0000e0 61 76 2e 40 00 00 00 80 0b 52 a6 3d 00 00 00 80
       2.7259753 -0.0 0.08121117 -0.0
0000f0 6c 14 1a 3f 00 00 00 80 fc 69 10 3f 00 00 00 80
       0.6018741 -0.0 0.5641172 -0.0
000100 db f9 9b 3e a3 7e 07 3e b4 11 9d 3d c0 ea 13 3b
       0.30464062 0.13231902 0.07669392 0.0022570342
000110 4d c6 02 3f 00 00 00 80 00 00 00 80 00 00 00 80
       0.5108383 -0.0 -0.0 -0.0
000120 00 00 00 80 00 00 00 80 1b be 8a 3e 00 00 00 80
       -0.0 -0.0 0.27098164 -0.0
000130 65 6d c6 3d 00 00 00 80 25 48 05 3f fc 67 a4 3e
       0.09688834 -0.0 0.5206321 0.32110584
000140 00 00 00 80 05 b6 bb 3f 00 00 00 80 00 00 00 80
       -0.0 1.4664923 -0.0 -0.0
000150 00 00 00 80 00 00 00 80 00 00 00 80 0d 24 cc 3f
       -0.0 -0.0 -0.0 1.5948502
000160 00 00 00 80 00 00 00 80 00 00 00 80 e6 60 38 3d
       -0.0 -0.0 -0.0 0.045014285
000170 00 00 00 80 d8 5c 36 3e 00 00 00 80 dc 38 1a 3e
       -0.0 0.17808855 -0.0 0.15060753
000180 00 00 00 80 00 00 00 80 00 00 00 80 00 00 00 80
       -0.0 -0.0 -0.0 -0.0
000190 65 9d 2f 3d 45 c7 ad 3e 00 00 00 80 ce 13 8f 3e
       0.042874712 0.33941093 -0.0 0.27944797
0001a0 28 32 97 3e 00 00 00 80 8b 87 2d 3f 00 00 00 80
       0.29530454 -0.0 0.6778495 -0.0
0001b0 30 2c 2d 3c bb fe 38 3e 43 e2 31 3e 00 00 00 80
       0.010569617 0.18065922 0.17371468 -0.0
0001c0 00 00 00 80 00 00 00 80 00 00 00 80 00 00 00 80
       -0.0 -0.0 -0.0 -0.0
0001d0 00 00 00 80 00 00 00 80 77 ac a0 3e 00 00 00 80
       -0.0 -0.0 0.3138158 -0.0
0001e0 00 00 00 80 64 60 cd 3d 00 00 00 80 00 00 00 80
       -0.0 0.10028151 -0.0 -0.0
0001f0 00 00 00 80 03 d4 68 3d 00 00 00 80 00 00 00 80
       -0.0 0.056842815 -0.0 -0.0
000200 a0 09 29 3c 8e 36 1a 3f 00 00 00 80 03 24 26 3f
       0.010317236 0.60239494 -0.0 0.648987
000210 00 00 00 80 00 00 00 80 00 00 00 80 de 12 d0 3e
       -0.0 -0.0 -0.0 0.40639395
000220 00 00 00 80 04 2a 11 3f 00 00 00 80 33 dd 1d 3d
       -0.0 0.56704736 -0.0 0.03854103
000230 89 40 09 3e 61 7d 1b 3e 00 00 00 80 74 22 b9 3e
       0.13403524 0.15184547 -0.0 0.36159098
000240 00 00 00 80 00 00 00 80 00 00 00 80 00 00 00 80
       -0.0 -0.0 -0.0 -0.0
000250 00 00 00 80 90 54 f2 3c 30 5f 56 3d 00 00 00 80
       -0.0 0.029581338 0.05233687 -0.0
000260 00 00 00 80 dc 91 62 3e 63 7b f0 3e 00 00 00 80
       -0.0 0.22125953 0.46969137 -0.0
000270 4a 95 cb 3d 00 00 00 80 00 00 00 80 42 23 1d 3e
       0.09940584 -0.0 -0.0 0.15345481
000280 48 6d 01 3c 00 00 00 80 00 00 00 80 00 00 00 80
       0.00789959 -0.0 -0.0 -0.0
000290 00 00 00 80 00 00 00 80 68 d8 63 3d 00 00 00 80
       -0.0 -0.0 0.055626303 -0.0
0002a0 bc 85 9e 3e 00 00 00 80 04 93 1f 3e 00 00 00 80
       0.30961406 -0.0 0.15583426 -0.0
0002b0 00 00 00 80 00 00 00 80 00 00 00 80 00 00 00 80
       -0.0 -0.0 -0.0 -0.0
0002c0 ac 0c ee 3e 00 00 00 80 09 75 b8 3e d0 05 eb 3d
       0.46494043 -0.0 0.3602679 0.11475718
0002d0 00 00 00 80 a1 ef 0b 40 00 00 00 80 64 3f 91 3e
       -0.0 2.1865008 -0.0 0.28368676
0002e0 c6 21 34 3d 17 81 31 3d 00 00 00 80 00 e1 ad 3e
       0.04397752 0.043336 -0.0 0.33960724
0002f0 00 00 00 80 00 00 00 80 00 00 00 80 26 c9 09 3d
       -0.0 -0.0 -0.0 0.033639096
000300 00 00 00 80 b8 05 50 3e 00 00 00 80 00 00 00 80
       -0.0 0.20314682 -0.0 -0.0
000310 00 00 00 80 00 00 00 80 00 00 00 80 00 00 00 80
       -0.0 -0.0 -0.0 -0.0
000320 00 00 00 80 d2 c8 dc 3e 00 00 00 80 b0 54 d7 3e
       -0.0 0.43121964 -0.0 0.420568
000330 80 9b 17 3e 00 00 00 80 ca 81 e4 3f 00 00 00 80
       0.14805412 -0.0 1.7852108 -0.0
000340 81 02 33 3e 98 15 92 3d 00 00 00 80 00 00 00 80
       0.17481424 0.07133025 -0.0 -0.0
000350 28 cd c9 3e 00 00 00 80 00 00 00 80 00 00 00 80
       0.39414334 -0.0 -0.0 -0.0
000360 c0 9f 25 3c 00 00 00 80 c8 72 3d 3e 00 00 00 80
       0.010108888 -0.0 0.18500817 -0.0
000370 00 00 00 80 00 00 00 80 00 00 00 80 00 00 00 80
       -0.0 -0.0 -0.0 -0.0
000380 00 00 00 80 38 75 9b 3c 08 67 19 3e 00 00 00 80
       -0.0 0.018976793 0.1498071 -0.0
000390 1b e6 09 3f 40 bc 51 3e 00 00 00 80 ae 1e 22 40
       0.5386674 0.20481968 -0.0 2.5331225
0003a0 00 00 00 80 4c 0f 59 3e 00 00 00 80 00 00 00 80
       -0.0 0.21197242 -0.0 -0.0
0003b0 00 00 00 80 68 3d 25 40 00 00 00 80 00 00 00 80
       -0.0 2.581873 -0.0 -0.0
0003c0 00 00 00 80 1c 27 55 3d 00 00 00 80 9c 7c 8c 3d
       -0.0 0.05203925 -0.0 0.06859705
0003d0 00 00 00 80 c0 7f 62 3b 00 00 00 80 00 00 00 80
       -0.0 0.0034561008 -0.0 -0.0
0003e0 00 00 00 80 00 00 00 80 20 fd e8 3c 00 00 00 80
       -0.0 -0.0 0.028441012 -0.0
0003f0 00 00 00 80 62 25 f0 3e 60 04 ea 3e 00 00 00 80
       -0.0 0.4690352 0.45706463 -0.0
