Proj_253133_270642_271518/Proj2/model/best-model.pt (torch_old, 83253 bytes, 25 tensors)

x f4 [100, 2]
00000000: f927 d03f a6a9 babf 6857 a5bf d7fe d43f
00000010: 0b8d 33bf 3deb 66bf c436 04bf 7cbb d1bf
00000020: b295 72bf 78a6 c4bd 929b ccbe a395 b8bf
00000030: afdf 343f 9c68 86bf 5be9 df3e 002b 5fbe
00000040: 8b54 01bf cc62 fcbc 579d a93f be96 e63e
00000050: 6e76 e43d 14cb d83f 12ea 9f3d 879f 8a3f
00000060: 470d 01be fa1b 2e3e b538 3e3f 3a11 abbf
00000070: 2d79 9dbf 196a 57bf 1662 883e 29da 153e
00000080: 643b c0bc fb51 ddbf 8fc0 5ebf bb61 70bf
00000090: 8f6a cc3e bad5 963e 9c1a a53d 0eeb 963f
000000a0: 7d08 0abf 4c5d cf3f 94e3 183d 8c24 5ebf
000000b0: 471d 333f 1484 5cbf 22a8 e33e 44ea 5bbf
000000c0: 77de 33bf f30a c23e 7c74 8c3f 36bf cabf
000000d0: 5f28 553f 2227 fcbe 4e5c f93e 41da a4be
000000e0: 97b1 c63f 72e4 18bf fea1 143f b08b 8d3f
000000f0: 9912 a6bd 7b43 54bf 166a b9be 39d5 a73f
00000100: 2d4e ab3f d3d6 7b3f 1846 63bf 5e4f ccbe
00000110: 7868 65bf 5ed0 c5be 1341 e1bf d3e5 353f
00000120: df35 5cbf 069c b5be cf32 9fbf 1749 053f
00000130: 51af 903d be87 cd3e 5748 233e 5bbe 2bbf
00000140: 004d 88bf 918e bbbf ebce 82bf 06aa 953f
00000150: 7a6f 883f 56e3 1a3e 832c 2a3f 177b ecbd
00000160: e404 c1be 85f4 d8bf 8f0c 883f 3f71 d33f
00000170: 62b9 2bbf bcd4 22bf f86d 0e3f d405 b53f
00000180: 32db 41bf a64a da3e b73b ce3f 4c27 f83e
00000190: 6e4a 703f 6a29 593f 2a40 333f 3990 573e
000001a0: 86d1 d93f 43dd fdbe 437f cd3f 4dbc 82bf
000001b0: db3f 823f 041e 043f edd6 c3be 41de e0bd
000001c0: 2481 9ebf 530b 8bbf 05ac 953e 9122 61be
000001d0: 0432 2c3f 7097 a2bf 5e2d acbf 95de ce3f
000001e0: 5e4b 60bf 7456 8c3d de27 b3bf 4b89 c83f
000001f0: 53b4 ddbf c821 1a3e 5985 7abf 5800 603f
00000200: 36a8 a73f aa1d 06be a14b 463e 4552 a5bf
00000210: b3a9 2abf 4b2a 633e 3930 cabf 4dc9 de3d
00000220: 5b5e 893e 91b4 43bf 8954 bc3f 33fe 96bf
00000230: fe63 a6bf 8674 bb3e 1ba7 cbbd fd5b 943f
00000240: 299d bdbd 6d85 b9bf 3a7d b33e 5499 fd3e
00000250: e729 833e ee95 853e b9a2 75bf a949 58bf
00000260: f34a dc3d 2092 c1be abe8 c3bf 2e4d 703f
00000270: d9e2 963e 966f a5bf 7ac9 5fbe 3aaa 333f
00000280: 78da 71be 856b df3d 3e2b e1bf d27b cdbf
00000290: faf1 bfbf b47d 2fbf fac2 abbf ab0e a6be
000002a0: bfad d3bf 9cb8 873f 68cd 043e de6c b23e
000002b0: e11f 33bf b040 063f f3a8 c13f 46d9 ab3f
000002c0: 9498 363f 7922 6ebf 7c35 32bf 9e0b 1d3f
000002d0: 7a71 8b3f f095 ffbe f3e9 a43f 3244 973e
000002e0: 93ed 4f3f 48b9 c83e 23f4 35bf b392 ad3f
000002f0: 461e 54bf 4ebf a83f 527f 6a3f 48d9 8bbf
00000300: e4e3 15bf 3bf7 313f 5fa4 dabf 756d 093e
00000310: 4ac2 6bbf 8c67 ad3f f938 6bbf 0612 9e3f
1.6262199 -1.4583023 -1.2917299 1.6640271 -0.7013709 -0.90202695 -0.51646066 -1.6385341
-0.94759667 -0.09602064 -0.3996244 -1.4420666 0.70653814 -1.0500674 0.43732724 -0.21793747
-0.5051963 -0.030808829 1.3251141 0.45036882 0.11155401 1.6936975 0.07808317 1.0829934
-0.12602721 0.1700286 0.7430528 -1.3364632 -1.2302605 -0.8414627 0.26637334 0.14634003
-0.02346582 -1.7290643 -0.8701257 -0.93899125 0.39925048 0.29459935 0.08061716 1.1790483
-0.539192 1.6200347 0.03732641 -0.86774516 0.6996655 -0.86139035 0.44464213 -0.85904336
-0.7026133 0.3789898 1.0973048 -1.5839603 0.83264726 -0.49248606 0.48703235 -0.32197765
1.5522946 -0.5972358 0.5805968 1.1058254 -0.08109016 -0.8291547 -0.3621375 1.3111945
1.3383232 0.9837467 -0.8877883 -0.39904302 -0.8961253 -0.38635534 -1.7597984 0.7105381
-0.860197 -0.354706 -1.243738 0.5206465 0.07064689 0.40142626 0.15945564 -0.67087334
-1.0648499 -1.4652883 -1.0219396 1.1692512 1.065902 0.15125784 0.6647417 -0.11546915
-0.37699044 -1.6949621 1.0628833 1.6518935 -0.67079747 -0.63605857 0.5563655 1.4142404
-0.7572509 0.42635077 1.6111974 0.4846748 0.9386357 0.8482882 0.7001978 0.2105111
1.7017066 -0.49582872 1.6054462 -1.0213715 1.0175737 0.516083 -0.38249913 -0.109798916
-1.238316 -1.0862831 0.29232803 -0.21985842 0.6726382 -1.2702465 -1.3451345 1.6161677
-0.87615 0.06852427 -1.3996542 1.5666898 -1.7320656 0.15051949 -0.9785972 0.87500525
1.3098209 -0.13097253 0.19364788 -1.2915732 -0.6666519 0.22184102 -1.5795966 0.10878239
0.268298 -0.764474 1.4713298 -1.1796325 -1.2999265 0.36612338 -0.09943982 1.1590573
-0.092584915 -1.4493843 0.35056478 0.49531043 0.25617906 0.2609095 -0.9595142 -0.84487396
0.10756483 -0.37806797 -1.530538 0.93867767 0.29469946 -1.2924678 -0.21854201 0.7018162
-0.23618495 0.109091796 -1.7591321 -1.6053412 -1.499572 -0.6855118 -1.3418877 -0.32433066
-1.6537398 1.0603213 0.12968981 0.34848684 -0.6997052 0.52442455 1.5129684 1.3425682
0.71326566 -0.9302135 -0.6961286 0.6134585 1.0894005 -0.4991908 1.2883896 0.29544216
0.81221884 0.39203858 -0.7107565 1.3560394 -0.82858694 1.3183382 0.91600525 -1.0925684
-0.5855086 0.6951787 -1.7081412 0.13420661 -0.92093337 1.3547225 -0.9188381 1.234925

x f4 [2, 25]
00000000: a811 79be d4bb 743e f6f2 bf3e 40bf 76be
00000010: 8f8b 56be 3010 5ebd 2ff9 bdbb b6c5 113f
00000020: b8a9 bd3d d4cd 083f f118 383f 2dbe 2abf
00000030: 8dc2 2b3f 7f39 ed3e 5344 933d 8c49 ba3d
00000040: 47a2 05bf 7529 1fbe 42f7 983d bbd6 54bb
00000050: ca0f 163f b6bc ee3e 5386 043f 2e2b dc3e
00000060: fcbd 733e 10c3 6c3e 004c 8b3e 60a4 69bd
00000070: 0dba 033f 0e68 d9be 7b3b 2fbf 4b49 eebd
00000080: 8575 fdbe d496 18be dd5d 223f 6c61 143e
00000090: d1ee 2bbf 63ec be3e 8714 1ebf 8887 d6be
000000a0: 73dd b63e 7b44 fa3e 234d 00bf cff0 1ebf
000000b0: 660e 9cbe c004 923e aa05 98be fe8d bf3e
000000c0: fb70 033f 2615 b33d
-0.24323142 0.23899776 0.37490052 -0.24096394 -0.20951675 -0.054214656 -0.0057975273 0.5694231
0.09260887 0.5343907 0.7191306 -0.66696435 0.67093736 0.4633293 0.07190766 0.09096059
-0.5220074 -0.15543158 0.07469036 -0.0032476622 0.5861784 0.4662835 0.5176746 0.43001693
0.23802942 0.23121285 0.2720642 -0.057041526 0.51455766 -0.424622 -0.68450135 -0.11635073
-0.49503723 -0.14901286 0.63424474 0.14490288 -0.6716128 0.37289724 -0.6175007 -0.41900277
0.35715827 0.4888037 -0.501177 -0.62086195 -0.30479735 0.2851925 -0.2969182 0.3741302
0.5134427 0.08744268

b f4 [1, 25]
00000000: 0000 803f 0000 803f 0000 803f 0000 803f
00000010: 0000 803f 0000 803f 0000 803f 0000 803f
00000020: 0000 803f 0000 803f 0000 803f 0000 803f
00000030: 0000 803f 0000 803f 0000 803f 0000 803f
00000040: 0000 803f 0000 803f 0000 803f 0000 803f
00000050: 0000 803f 0000 803f 0000 803f 0000 803f
00000060: 0000 803f
1.0 1.0 1.0 1.0 1.0 1.0 1.0 1.0
1.0 1.0 1.0 1.0 1.0 1.0 1.0 1.0
1.0 1.0 1.0 1.0 1.0 1.0 1.0 1.0
1.0

grad f4 [2, 25]
00000000: 10b9 65ba 0000 0000 0000 0000 f634 ffb9
00000010: e35a 803a 400a 9239 a0a6 9838 e806 b7b9
00000020: 0000 0000 1c3b 28ba 8e9d 26bc 0000 0000
00000030: 0000 0000 0000 0000 4313 c33a 9088 c9ba
00000040: 4a63 0aba f262 483b c06d bbb9 0000 0000
00000050: 645b 2f3a 0000 0000 0000 0000 e081 feb9
00000060: 304c 40ba 3c9b a3ba 0000 0000 0000 0000
00000070: b46f 1c38 f8ca 6a3a 0cdc e63b 7aa5 9739
00000080: 2981 cd3a 0000 0000 a1a8 bab9 6e56 56bc
00000090: 0000 0000 0000 0000 0000 0000 3b7d 9b3a
000000a0: e876 663a 460c 23b8 1b05 e33b 9ef8 4cba
000000b0: 0000 0000 6037 da38 0000 0000 0000 0000
000000c0: 66c9 2c3b 201b de37
-0.0008763233 0.0 0.0 -0.0004867685 0.0009792711 0.00027854927 7.278961e-05 -0.00034909626
0.0 -0.00064174994 -0.0101694 0.0 0.0 0.0 0.001488306 -0.0015375782
-0.00052790774 0.0030576554 -0.0003574919 0.0 0.00066893385 0.0 0.0 -0.0004854342
-0.00073355716 -0.0012482177 0.0 0.0 3.729733e-05 0.00089566363 0.0070452746 0.00028924254
0.0015678752 0.0 -0.00035602323 -0.01308213 0.0 0.0 0.0 0.0011862883
0.0008791522 -3.887366e-05 0.006928099 -0.0007819029 0.0 0.000104053644 0.0 0.0
0.002636516 2.6477093e-05

p f4 [1, 25]
00000000: 65d3 06bf cc78 3cbe 58a5 abbd 80f7 8c3e
00000010: 1d80 9ebe 4212 b5be 4594 9cbe 5fd6 f43e
00000020: 0087 45bb cb5f 2bbf 977c e33e e2ae 8c3e
00000030: c3ec f0be f738 32bf 92a4 20bf 95df 51be
00000040: 7672 e1be 901e 563e edf6 0cbf 8254 133f
00000050: 37c4 553e 007d d63c 0088 e53a bca6 c43d
00000060: d4d3 53be
-0.5266631 -0.18405455 -0.08381146 0.27532578 -0.30957118 -0.35365492 -0.3058187 0.47819802
-0.003014028 -0.66943043 0.44430992 0.27477175 -0.47055635 -0.6961817 -0.62751114 -0.20495446
-0.4403264 0.20910096 -0.5506428 0.57550824 0.20875631 0.026182652 0.0017511845 0.096021146
-0.20686275

grad f4 [1, 25]
00000000: 60d3 ca3a 0000 0000 0000 0000 d441 dc38
00000010: e3cf 0b39 9c5c 66bb a61f 9bb9 f4e5 dbba
00000020: 0000 0000 80e3 2a3a c975 b63b 0000 0000
00000030: 0000 0000 0000 0000 f5e6 9fba 5418 db39
00000040: dca7 da39 c2d7 afbb 7a8b 0dba 0000 0000
00000050: bf10 bfb9 0000 0000 0000 0000 455d b039
00000060: 15fc 383a
0.0015474372 0.0 0.0 0.00010502679 0.00013333517 -0.0035150414 -0.00029587484 -0.0016776905
0.0 0.00065188855 0.0055682403 0.0 0.0 0.0 -0.0012199568 0.0004178906
0.00041705265 -0.0053662965 -0.0005399507 0.0 -0.00036442836 0.0 0.0 0.00033638827
0.0007056606

x f4 [100, 25]
00000000: 9c52 6a3f afa4 97be e2ab c3be 3d43 62bd
00000010: 4908 da3d 973c 00bf be43 29bf c21a 5f3d
00000020: 1a2a c1be 44f2 df3e 8075 57bd 7039 cabe
00000030: 994b d4bd 1680 bebd 10a0 87bd b41e 253d
00000040: c77c 8d3d f827 f7bd be82 a73e a043 59be
00000050: c99c a2bd 462a 89be 683c c2be 7c50 043f
00000060: 2a9f 8e3d 5d5c 203f 7c5f c4be f0d2 9cbe
00000070: 4eef 303c c61c 75be 12b6 06bf 9c11 2abf
00000080: db0f 4bbd dcba 44be 8504 ad3e 0073 623a
00000090: c76a c4be 3cbd cebc 7f9c 29bd 8bfd af3e
000000a0: 128a adbe f690 073e 2f4b 96bd debd c23e
000000b0: 5ec4 43be 4370 0fbd 8bd8 8cbd 6596 07be
000000c0: 29df 953e 32c5 463e 1c21 e73e a0ab 6bbe
000000d0: 114d 98be a01e b0bd 9591 c2bd e6ab 763e
000000e0: 367f 673e 3b7f 4dbd fc54 8dbe 18ea 013d
000000f0: 66a6 803d 2273 04bf 564c 5bbe f87a 27be
00000100: d9c9 16bd 6b54 483e 1dae cbbd 16b2 903d
00000110: 043d 903d 414e c8bd 0e77 d5bc 269c 89be
00000120: 9eec f6bd 4e61 aa3e c00f 193b 6c33 063f
00000130: 02af 22be ce0d b7be ca03 25be 7f25 0abe
00000140: 33cc cb3e 87cc 9c3e 2e9a 023d 5a4b e2be
00000150: bc81 a83c 8083 c6bc 28c5 17bf 7a56 6cbe
00000160: 746b 31be b118 49be e825 933e 38f6 1bbe
00000170: 8e14 253e e061 7b3c cc1b d8bc 908d b23c
00000180: b210 d9be 4e9f 72be 974f e13e 36f2 c3bd
00000190: 7946 013f f439 99be 57bc 69be 14b5 9dbc
000001a0: 1666 9bbd 0aa7 acbd a429 37bd ea23 dabd
000001b0: a810 42be 581a 0a3e 9cb3 db3d b2e1 e5be
000001c0: 1a99 1dbe fc75 dbbd 488e 133e af4c bfbd
000001d0: c4ea 183c b648 54bd 6101 5f3e a9ef f3bd
000001e0: 9868 21bc 4541 e5bd 9d38 15bd 2c41 693e
000001f0: cbf5 de3d 20db 0c3f e84a 1fbe 1eb2 a5be
00000200: 0295 07be f9fe dabd e366 8b3e cace 543e
00000210: fde6 cb3c 2a5d cdbe 5fb9 8d3d 0c43 283d
00000220: 5226 07bf d15b 5ebe 86c3 18be 7803 29be
00000230: b1fc 3f3e 2634 febd cc0d dc3d 22be c43d
00000240: 34e2 33bd 10ce c83c cca4 b9be 03c2 59be
00000250: c79e c63e 3a64 a5bd 63ef 423f 2cc9 8abe
00000260: 0d92 a5be 7c67 cabc 0e7e a13d 886a c2be
00000270: 0707 c7be 0cb4 813b 588b 99be 181a 9d3e
00000280: cc3f 9d3d 3fab a8be 888f f1bd aca1 acbd
00000290: 2c0d 3e3c 6082 cdbc 9851 a03c d77f c6bd
000002a0: 5d2c b23e 356c 4bbe 6046 5ebd 3039 52be
000002b0: 604a 81be 92b6 ae3e c00c 433d aea8 233f
000002c0: 4655 a9be 12f1 9abe 4b2f df3c fd7d 053d
000002d0: 82b6 d2be 3367 e5be d808 2dbc 7959 5abe
000002e0: 6d3f 823e d478 043e 1d9b a0be 2a52 a5bd
000002f0: c642 9dbd 7a8f 153e 7ae3 e0bd 9c85 103d
00000300: c554 e0bd 9774 af3e 2b71 88be 9aea a2bd
00000310: 9d23 1ebe 5af5 41be 07f2 a53e 53c3 133e
00000320: 5434 103f 40b2 90be 6d24 62be 5cd4 11bc
00000330: 17a2 e7bc 10be 67be 1534 41be 428b afbd
00000340: 9800 51be 08c8 373e e6f8 1c3e 288c b5be
00000350: e2dc 07be 96dd 4bbd f60a 0f3e 869c 58be
00000360: 38c6 813c 7123 d3bd 2370 a63e b8a4 1cbe
00000370: 1cfc 3ebc 97d0 e7bd ba62 72bd dfce 523e
00000380: 7b0f c23d 5e81 3b3f 0edc d4be f1ca bcbe
00000390: 33e5 143e 6017 c73c 9d6d 0bbf 1249 18bf
000003a0: c566 e53d 8b8f a7be 4c7b c03e c5cf 273e
000003b0: d89d ccbe be87 34be 70d5 f6bd 16c0 0e3e
000003c0: c08b d3bc 8c05 b03d ce38 1cbe b6ae 833e
000003d0: 6870 cfbe 4e53 b9bd ec7a f5bd 8722 5cbe
000003e0: 9635 083f e8f4 a93d 7c54 213f ab16 e6be
000003f0: c61b a4be e836 303e 8bf5 d0bd f269 29bf
0.915323 -0.2961783 -0.38217074 -0.055239905 0.106461115 -0.5009245 -0.6611899 0.054468878
-0.37727433 0.43739522 -0.05260229 -0.39496946 -0.103659816 -0.09301774 -0.066223264 0.040312484
0.06908565 -0.1206817 0.32716936 -0.21217203 -0.07940061 -0.26790065 -0.3793671 0.5168531
0.06963952 0.62640935 -0.383541 -0.30629683 0.010799242 -0.23936757 -0.5262157 -0.6643312
-0.049575668 -0.19211906 0.3379251 0.0008638352 -0.38362715 -0.025236718 -0.041409012 0.34373125
-0.33894402 0.13238892 -0.07338559 0.38035482 -0.19117877 -0.03501917 -0.0687724 -0.13240965
0.2927182 0.19411162 0.45142448 -0.23014688 -0.29746297 -0.08599591 -0.09500424 0.24089012
0.22607121 -0.050170165 -0.276039 0.03171739 0.06281738 -0.5173818 -0.21415839 -0.16355503
-0.03681359 0.19563453 -0.09945319 0.07065217 0.07042888 -0.09780551 -0.026057746 -0.26876944
-0.1205685 0.33277363 0.0023355335 0.52422214 -0.15887073 -0.3575272 -0.16114727 -0.13490866
0.3980423 0.30624792 0.03188532 -0.44198114 0.020569675 -0.024232626 -0.5928521 -0.23079863
-0.17326146 -0.19638325 0.28739858 -0.15230644 0.16121122 0.015343159 -0.026380442 0.021796018
-0.4239555 -0.23693582 0.44006035 -0.095676824 0.5049816 -0.29927027 -0.22825752 -0.019251384
-0.07587831 -0.08430298 -0.044717446 -0.10651381 -0.18951666 0.13486612 0.10727617 -0.44898754
-0.15390435 -0.10715863 0.14409745 -0.09340798 0.009333316 -0.051827155 0.2177787 -0.11910946
-0.009851597 -0.1119409 -0.036430944 0.22778767 0.10886725 0.5502186 -0.15555918 -0.32362455
-0.13240436 -0.106931634 0.27226934 0.20782009 0.024890417 -0.4011014 0.06920122 0.041079566
-0.5279285 -0.21714713 -0.14918336 -0.1650523 0.18748738 -0.1241229 0.10744819 0.096065775
-0.043916896 0.02451232 -0.36258543 -0.21265416 0.38793012 -0.08075757 0.76146525 -0.27106607
-0.3233799 -0.024707548 0.07885371 -0.37971902 -0.3887255 0.003958231 -0.29989123 0.3068397
0.07678184 -0.3294315 -0.117949545 -0.08429274 0.01159982 -0.025086582 0.019570157 -0.09692352
0.34799471 -0.19865496 -0.054266334 -0.20529628 -0.25252056 0.34123665 0.04761958 0.6392926
-0.3307287 -0.30262047 0.02724423 0.032590855 -0.41154867 -0.44805297 -0.010561191 -0.21323194
0.25439015 0.12936717 -0.31368342 -0.08072312 -0.07678752 0.14605513 -0.10980888 0.03528367
-0.109536685 0.34268638 -0.2664884 -0.07954903 -0.15443273 -0.1894125 0.32411215 0.14429979
0.56329846 -0.28260994 -0.22084208 -0.008900728 -0.028275533 -0.22631097 -0.18867524 -0.08571483
-0.20410383 0.179474 0.15329322 -0.35458493 -0.13267854 -0.049771868 0.13969025 -0.21153459
0.015841588 -0.10309494 0.3250743 -0.1529721 -0.011656787 -0.11319082 -0.059176184 0.20586728
0.09475609 0.73244274 -0.41574138 -0.36873582 0.14540558 0.024303138 -0.5446413 -0.59486496
0.11201242 -0.32726702 0.37594068 0.16387852 -0.39964175 -0.17629907 -0.12052429 0.13940462
-0.025823474 0.08594808 -0.15256044 0.2571923 -0.40515447 -0.09049092 -0.11986336 -0.21497546
0.53206766 0.08298665 0.6301954 -0.4493917 -0.3205244 0.17208445 -0.102030836 -0.66177285

x f4 [100, 25]
00000000: 0000 0080 0000 0080 3eea 1b3f 0000 0080
00000010: 0000 0080 936f 0e3f 0000 0080 5612 0840
00000020: 68d3 ba3e 0000 0080 e283 b33f f49f 2d3e
00000030: 0429 9d3d 2332 753f 90bd cd3d 0000 0080
00000040: 0000 0080 82ec 2f3f b2d3 f33e 22e2 813f
00000050: 5c01 3f3f afd5 9b3f a594 983e b2be 3e3d
00000060: e8e3 573d b467 303e 0000 0080 0000 0080
00000070: 75ae b83f 0000 0080 0000 0080 0000 0080
00000080: 0000 0080 0000 0080 0000 0080 0000 0080
00000090: c06a 993c 0000 0080 0000 0080 0000 0080
000000a0: 8e32 8b3e 860f 863f 0000 0080 0000 0080
000000b0: 5081 943d 0000 0080 0000 0080 0000 0080
000000c0: 4e35 ca3e 0000 0080 0000 0080 0000 0080
000000d0: 0000 0080 0000 0080 16b0 613e 9e86 9a3e
000000e0: 0000 0080 df7d 063f 1115 883d 0000 0080
000000f0: 0000 0080 8497 ac3f 0000 0080 0000 0080
00000100: 0000 0080 0000 0080 0000 0080 422b 453f
00000110: 0000 0080 f44b 5a3f 0000 0080 0000 0080
00000120: 0000 0080 0000 0080 0000 0080 0000 0080
00000130: 0000 0080 0000 0080 0000 0080 2921 fd3e
00000140: a7c1 4b3f 0000 0080 a0c8 7e3f 9ff5 453e
00000150: 0000 0080 0000 0080 e61e dc3f 0000 0080
00000160: 304f 9c3d 206b b33c 0000 0080 0000 0080
00000170: 3027 8e3f 182e db3e 3dce 893f 0000 0080
00000180: 5a33 8b3e 0000 0080 0000 0080 0000 0080
00000190: 0000 0080 0000 0080 0000 0080 0394 e83e
000001a0: 0000 0080 0000 0080 0000 0080 0000 0080
000001b0: 0000 0080 0000 0080 0000 0080 64a5 783f
000001c0: 0000 0080 0000 0080 0000 0080 0000 0080
000001d0: 002f f23b 081c cf3e 0000 0080 3a9c 1b3f
000001e0: 0000 0080 0000 0080 0000 0080 0000 0080
000001f0: 0000 0080 0000 0080 0000 0080 0000 0080
00000200: 0000 0080 05e2 c53e 19b5 273f 0000 0080
00000210: bcea 763f 760f 333e 0000 0080 0000 0080
00000220: b241 c13f 0000 0080 80b6 153c 0000 0080
00000230: 0000 0080 0000 0080 3c73 7e3f d631 a13e
00000240: 9117 823f 0000 0080 f239 893e 0000 0080
00000250: 0000 0080 0000 0080 0000 0080 0000 0080
00000260: 30c0 763e 0000 0080 0000 0080 0654 a73e
00000270: 0000 0080 543e b33f 0525 603e 0000 0080
00000280: e0dc 4c3f 103f 023f 0000 0080 2427 8f3e
00000290: 0000 0080 0000 0080 0000 0080 3224 203f
000002a0: 04c6 1d3e 70ad 643f 3e9a a53e a3db 2a3f
000002b0: 0000 0080 0000 0080 0000 0080 0000 0080
000002c0: 0000 0080 9097 bd3d 30c4 6c3d 0000 0080
000002d0: 0000 0080 0000 0080 bbc9 553f 2748 8f3d
000002e0: 0000 0080 742b 3a3f 1391 043e 0000 0080
000002f0: 0000 0080 0000 0080 0000 0080 0000 0080
00000300: 1b2e 803e 0000 0080 c6f8 233f fc4f ce3e
00000310: 6ff1 963e 4020 163e 2e50 303e 0000 0080
00000320: 0000 0080 0000 0080 0000 0080 8e2d c33e
00000330: 0000 0080 0000 0080 0000 0080 c4b7 523e
00000340: 0000 0080 0000 0080 dcc2 9c3d b4e5 213f
00000350: 0000 0080 0000 0080 0000 0080 0000 0080
00000360: 0000 0080 592b 9b3e 0000 0080 7227 163f
00000370: 0000 0080 0000 0080 0000 0080 0000 0080
00000380: 0000 0080 0000 0080 2aa6 823e 314a c63e
00000390: a144 403e 0000 0080 0000 0080 0000 0080
000003a0: 1a41 813f 486b 573d 3010 a63e 3133 bb3f
000003b0: 0000 0080 d221 163f 0000 0080 0000 0080
000003c0: 3288 9c3d 0000 0080 0000 0080 0000 0080
000003d0: 882c de3e f695 8e3f 90a5 023f 9b31 5b3f
000003e0: 1ea7 653f 3c7c 173e 0000 0080 6257 9b3e
000003f0: 0000 0080 885a 8f3f 0000 0080 0000 0080
-0.0 -0.0 0.609043 -0.0 -0.0 0.55639 -0.0 2.1261191
0.36489415 -0.0 1.4024622 0.16955549 0.07673839 0.9577963 0.10045922 -0.0
-0.0 0.6872026 0.47622448 1.0147135 0.7461145 1.2174586 0.29800907 0.04656858
0.052707583 0.1722706 -0.0 -0.0 1.442824 -0.0 -0.0 -0.0
-0.0 -0.0 -0.0 -0.0 0.01872766 -0.0 -0.0 -0.0
0.27187008 1.0473487 -0.0 -0.0 0.07251227 -0.0 -0.0 -0.0
0.39493793 -0.0 -0.0 -0.0 -0.0 -0.0 0.22039828 0.3018083
-0.0 0.52535814 0.06644643 -0.0 -0.0 1.3483739 -0.0 -0.0
-0.0 -0.0 -0.0 0.7701913 -0.0 0.85272145 -0.0 -0.0
-0.0 -0.0 -0.0 -0.0 -0.0 -0.0 -0.0 0.49439362
0.79592365 -0.0 0.9952488 0.19331978 -0.0 -0.0 1.719693 -0.0
0.07632291 0.021901667 -0.0 -0.0 1.1105709 0.42808604 1.0766064 -0.0
0.27187616 -0.0 -0.0 -0.0 -0.0 -0.0 -0.0 0.45425424
-0.0 -0.0 -0.0 -0.0 -0.0 -0.0 -0.0 0.97127366
-0.0 -0.0 -0.0 -0.0 0.0073908567 0.40451074 -0.0 0.6078526
-0.0 -0.0 -0.0 -0.0 -0.0 -0.0 -0.0 -0.0
-0.0 0.38649002 0.6551071 -0.0 0.96451926 0.17486367 -0.0 -0.0
1.5098174 -0.0 0.00913775 -0.0 -0.0 -0.0 0.99394584 0.31483334
1.0163442 -0.0 0.2680202 -0.0 -0.0 -0.0 -0.0 -0.0
0.24096751 -0.0 -0.0 0.32681292 -0.0 1.4003396 0.21889122 -0.0
0.8002453 0.50877476 -0.0 0.2795955 -0.0 -0.0 -0.0 0.6255523
0.15407568 0.89327145 0.3234424 0.6674139 -0.0 -0.0 -0.0 -0.0
-0.0 0.09257424 0.057804286 -0.0 -0.0 -0.0 0.8351094 0.06996184
-0.0 0.72722554 0.12945966 -0.0 -0.0 -0.0 -0.0 -0.0
0.25035176 -0.0 0.64051473 0.40295398 0.29481074 0.1466074 0.17218086 -0.0
-0.0 -0.0 -0.0 0.38120693 -0.0 -0.0 -0.0 0.20577914
-0.0 -0.0 0.07654354 0.63241124 -0.0 -0.0 -0.0 -0.0
-0.0 0.3030651 -0.0 0.5865394 -0.0 -0.0 -0.0 -0.0
-0.0 -0.0 0.25517398 0.3872848 0.1877618 -0.0 -0.0 -0.0
1.0097992 0.052592546 0.32434225 1.4624997 -0.0 0.58645356 -0.0 -0.0
0.07643165 -0.0 -0.0 -0.0 0.4339335 1.1139514 0.5103388 0.85622567
0.89708126 0.14793485 -0.0 0.30340105 -0.0 1.1199503 -0.0 -0.0

x f4 [25, 25]
00000000: 3b0b b03d 4078 e6bc 6b09 3dbe 114a d4bc
00000010: 02ea f53d 95d2 05be 620c 72bd a904 093e
00000020: 8c00 68bd 5790 263e fb3e 89bd 3827 73bd
00000030: 0c32 073d 465c 333e 853f 193d f0c8 2c3e
00000040: b7aa 9fbd 93bd 363e 1d06 3c3e f93d 193e
00000050: 615d 113e acb1 54bd 08c1 10be 80b2 60bd
00000060: ff79 20be e725 43be 8fe5 1a3e 64b9 6b3d
00000070: 9963 d43b ba0b 143e 588f 1dbe 53a9 46be
00000080: aafc 193e 31f9 1e3e bb1e 5f3d 5a40 b0bd
00000090: 70cf c5bc f059 1dbe f852 0dbe 4817 af3d
000000a0: 2b3a a2bd 3d4f e23d 4507 2b3d 8dea cd3c
000000b0: 80f3 283d 78ce 32be 92d5 b43d 8ab3 ab3d
000000c0: 85fe d8bd 3713 c7bc eedf 4c3e a0c8 663c
000000d0: 10da 42be 4e28 bcbd ed19 d83d 08ad bf3d
000000e0: b844 be3d 7bcb e5bd 62e3 33be 2a1d 1c3e
000000f0: 262d e9bd cd70 31be b8bd 4a3e 5441 87bd
00000100: ed46 2ebe 717b 203e cb88 513d 0362 f7bd
00000110: 0924 e3bd ba29 ba3d cd5a f03d c0d0 383b
00000120: a263 0ebe 5de8 98bd 23f6 3cbe 62e2 ecbd
00000130: 18ed e43c 7727 393e 1b08 80be be4d 0b3e
00000140: 9a4f ee3d b7b3 1cbe a8d6 8fbd 8dd0 c0bd
00000150: ff49 3ebd e840 37be 5876 9f3c 7fb7 0a3e
00000160: 3914 253e 479a 753e f141 20be 3b95 3abe
00000170: 457a f5bd 9f0f 493c b83d 1a3d 4e0f 5b3d
00000180: 002f 14be a02f 023d 8890 25be 3475 753e
00000190: 1998 9e3e d2d2 cc3d b476 133d fad7 763c
000001a0: 33c1 5fbd 8123 99bb 602a 283e ca28 2e3e
000001b0: 7050 1fbe 8abe e63d 73ce d13e c5c7 37be
000001c0: a034 813b 5e2a a33d 4f28 f4bd 8d96 a4bb
000001d0: 02ba 623d 02bd 643e c7a4 423e 2c92 d4bd
000001e0: df53 3bbe 781d 58bd d293 9b3d 3382 733e
000001f0: 1d1b 91be 973c cd3d 543e 2dbd 2f3c 1d3e
00000200: 8940 88bd 86de 2cbd 6c95 f63d 7646 f23d
00000210: 35e3 0f3e 6ee0 943d 0c8d 173e 819a 383d
00000220: 7da4 453e 8211 b43d d862 c93c 2db4 72be
00000230: 7cf1 58bb 3c6b 01be 60f8 923d f1c7 8d3e
00000240: d575 a6bd 2c20 82bd fa1b c63d 7841 16bd
00000250: 2b3d 443e 3987 b3bc c065 c3bb 686e 5cbd
00000260: 06c5 bd3d d001 b13c 40fe 91bb 6881 d2bc
00000270: 20cf 3cbc 5993 4b3e c07d 9cbc 42ea 963d
00000280: 58a8 ec3c d048 323c 2988 253e 1826 913c
00000290: 15d3 213e c0ff 10be 0074 a5bd da50 843d
000002a0: a36d 9dbd a0af bdbb 026a ed3d 7adb 94bd
000002b0: 84fb 86bd 66be b83d 46d0 e93d 10b8 693c
000002c0: 9484 1cbd 83e3 1bbe 78dd e4bc f37a 6e3e
000002d0: a367 023e 134f debe 006e 393e ad92 323e
000002e0: 4dd4 51bd fbad d3bd eb4a 1b3e 7a31 4bbd
000002f0: de6c 19be 1d9b 1a3e 895b 2e3e 3e28 23be
00000300: 54da 02be 63df 14bd 2995 66bd f854 0f3e
00000310: a313 9bbd 6a0c ccbd bfa3 d03d cc60 5e3b
00000320: 115b 9b3d f48f 01be 125e 8e3d 1bba 353e
00000330: bd8c f83d 117f b5bb 9b17 c0bd 1b07 22be
00000340: 28d5 313d 955e 523e 4639 223e 83b9 bfbd
00000350: da83 233e d0d3 69bc 6e68 e6bd 7a97 cfbd
00000360: da42 1abd 1af4 b93d 5aea d9bd 2885 0fbe
00000370: fc79 023d a8fd 58bd cce3 583d 5d32 2dbe
00000380: e980 f63d a626 003e 48c6 35be 784c 2dbe
00000390: 7eac d23d d1e7 f03a ea7c 493d 747b a5bd
000003a0: 13e5 4a3c b2ed a03d 2425 c3bc 5175 c83d
000003b0: 0018 4239 4ac1 d23d 4a4b 8b3d 6e79 943d
000003c0: 135a 173e 7599 683d 20bf 123c 95ba 843c
000003d0: 5890 9d3c e3d0 42be 2999 3e3e 80ab 2fbc
000003e0: 5d2e b3bd 1bd4 873d c1d4 cb3b 5e54 a03d
000003f0: 0d2a fabd 74e7 81bd 778d fc3d eb07 49be
0.08595892 -0.028133512 -0.18460624 -0.025914224 0.12007524 -0.13068612 -0.05909384 0.13380684
-0.056641147 0.16265999 -0.06701466 -0.059363574 0.033006713 0.17515668 0.037414093 0.16873527
-0.07796233 0.17845754 0.18361707 0.14965047 0.14195777 -0.051927254 -0.14136136 -0.05485773
-0.15671538 -0.19057427 0.15126632 0.05754985 0.0064815995 0.14457598 -0.15386713 -0.1940053
0.1503779 0.15524746 0.054472666 -0.08606024 -0.024146765 -0.1536634 -0.13801181 0.085493624
-0.07921251 0.1105027 0.04175498 0.025136257 0.041247845 -0.17461574 0.08829798 0.08383854
-0.10595421 -0.024301155 0.20007297 0.014085919 -0.19028497 -0.09187375 0.1055182 0.09359175
0.09290451 -0.112204514 -0.17567208 0.152455 -0.113855645 -0.17328186 0.19798934 -0.06604257
-0.17019244 0.15672089 0.051155847 -0.12079241 -0.110908575 0.0908999 0.11736069 0.0028200597
-0.13905194 -0.07466195 -0.18453269 -0.115666166 0.027945086 0.18081461 -0.25006184 0.13603875
0.116362765 -0.15302931 -0.07023364 -0.09414778 -0.046457287 -0.17895854 0.01946561 0.1354656
0.16120996 0.23984633 -0.15650155 -0.1822099 -0.11986212 0.012271791 0.037656516 0.053481393
-0.14471054 0.0317837 -0.16168416 0.2397049 0.30975416 0.10001148 0.036001876 0.015066141
-0.05462761 -0.004673422 0.16422415 0.17007747 -0.15558028 0.11266811 0.4097782 -0.179473
0.003943041 0.07967065 -0.11921751 -0.00502283 0.055353172 0.22337726 0.1900817 -0.103794426
-0.18293713 -0.05276248 0.07596554 0.23780136 -0.28340998 0.10021322 -0.04229577 0.1535499
-0.06652934 -0.042204402 0.12040219 0.118298456 0.14051516 0.07269369 0.14799899 0.04506922
0.19301029 0.08792402 0.024583265 -0.23701544 -0.003310292 -0.12638563 0.0717628 0.27691606
-0.081279434 -0.063537925 0.09673305 -0.03668353 0.19163959 -0.021915065 -0.0059630573 -0.05381623
0.09266095 0.02160731 -0.004455358 -0.025696471 -0.011523992 0.19880427 -0.019102931 0.073689
0.028888866 0.010881618 0.16165222 0.01771836 0.15803178 -0.14160061 -0.08078766 0.06460734
-0.07686927 -0.0057887584 0.11592485 -0.07268424 -0.065909415 0.090206906 0.11416678 0.014265075
-0.038212374 -0.15223508 -0.027937636 0.23289089 0.12734847 -0.43419704 0.18108368 0.17438765
-0.051227856 -0.103359185 0.15165298 -0.04960773 -0.14982936 0.15098234 0.17027105 -0.1593332
-0.12778598 -0.03634585 -0.056294594 0.13997257 -0.07572105 -0.09963305 0.10187482 0.0033932207
0.07585729 -0.1265257 0.06951536 0.17746775 0.12136219 -0.005538829 -0.093795024 -0.15823023
0.043416172 0.20543893 0.1584216 -0.093615554 0.15968266 -0.014271691 -0.11250387 -0.10136314
-0.03766141 0.09079762 -0.10640402 -0.14015639 0.031854615 -0.05297628 0.05295162 -0.16913743
0.120363064 0.12514743 -0.1775142 -0.16923702 0.102868065 0.0018379634 0.049191393 -0.080801874
0.012383717 0.07857837 -0.023821421 0.09788001 0.00018510222 0.10290773 0.068014696 0.072497234
0.14780454 0.056786973 0.008956701 0.01620225 0.019233868 -0.19024996 0.18613113 -0.010722041
-0.087490775 0.06632253 0.0062204306 0.07828592 -0.12215052 -0.06342974 0.1233167 -0.19631927

b f4 [1, 25]
00000000: 0000 803f 0000 803f 0000 803f 0000 803f
00000010: 0000 803f 0000 803f 0000 803f 0000 803f
00000020: 0000 803f 0000 803f 0000 803f 0000 803f
00000030: 0000 803f 0000 803f 0000 803f 0000 803f
00000040: 0000 803f 0000 803f 0000 803f 0000 803f
00000050: 0000 803f 0000 803f 0000 803f 0000 803f
00000060: 0000 803f
1.0 1.0 1.0 1.0 1.0 1.0 1.0 1.0
1.0 1.0 1.0 1.0 1.0 1.0 1.0 1.0
1.0 1.0 1.0 1.0 1.0 1.0 1.0 1.0
1.0

grad f4 [25, 25]
00000000: 1283 b5b8 0000 0000 0000 0000 197e 7738
00000010: 0000 0000 0000 0000 0000 0000 0000 0000
00000020: 0000 0000 8536 8f37 ceac 14b9 0000 0000
00000030: 0000 0000 0000 0000 da2c 9fb6 0000 0000
00000040: a366 9e38 0000 0000 87de dbb8 0000 0000
00000050: 0000 0000 0000 0000 0000 0000 5da1 64b8
00000060: 7abb da37 8621 bc39 0000 0000 0000 0000
00000070: 7eaf 66b9 0be7 ab38 0000 0000 0000 0000
00000080: 2a88 d2b8 0000 0000 ac69 8eb7 5e32 283a
00000090: 0000 0000 0000 0000 0000 0000 8e82 56b8
000000a0: f850 c9b8 bdfc 96b9 0000 0000 a6f3 f939
000000b0: 0000 0000 0000 0000 0000 0000 0000 0000
000000c0: b6b6 8e39 0024 c5b8 2ac1 c339 0000 0000
000000d0: 0000 0000 d6f8 b6b9 d88c 5439 0000 0000
000000e0: 0000 0000 68e5 e8b8 0000 0000 d3c8 b8b8
000000f0: 4530 323a 0000 0000 0000 0000 0000 0000
00000100: c657 dfb8 acdb dab8 f4f4 a3b9 0000 0000
00000110: ea56 f039 0000 0000 0000 0000 0000 0000
00000120: 0000 0000 ad05 6639 9a9e 12b9 9619 183b
00000130: 0000 0000 0000 0000 23ed f839 8015 f838
00000140: 8b91 073a 8022 b33a aafa 4ab9 0000 0000
00000150: 8a65 bfb9 d4f7 843b 0000 0000 0000 0000
00000160: 0000 0000 ee30 7eba ce04 23ba 9f7c a0b9
00000170: 97f0 c3b9 aa0a 2c3b 0000 0000 6b0b 9937
00000180: 0000 0000 0000 0000 3b77 e53a aed8 c0ba
00000190: e65e dcba 0000 0000 0000 0000 0000 0000
000001a0: 562e 98b7 600f f439 c8ce 43bb 8517 e3b9
000001b0: 0000 0000 012f 573a e297 b2bb 0000 0000
000001c0: 0000 0000 0000 0000 0f6a fb3a 9991 1a3a
000001d0: a84a 39b5 c00e 9cb8 12b4 05bb 0000 0000
000001e0: a554 bdb9 0000 0000 0000 0000 3014 9cba
000001f0: 6c36 8eba 7112 16bb 0000 0000 0000 0000
00000200: 5c5f 41b7 8a0e b2b8 e8b2 7e39 ee78 7cbb
00000210: 8a6a 25ba 0000 0000 b85f 603a 5a29 a1bb
00000220: 0000 0000 0000 0000 0000 0000 d30b d53a
00000230: dcde 423a 6d00 6c38 5849 0eb9 8a7c f9ba
00000240: 0000 0000 9c2a 0cba 0000 0000 0000 0000
00000250: e282 dfba 3bea 06bb 0000 0000 0000 0000
00000260: 0000 0000 0000 0000 0000 0000 0000 0000
00000270: 0000 0000 0000 0000 0000 0000 0000 0000
00000280: 0000 0000 0000 0000 0000 0000 0000 0000
00000290: 0000 0000 0000 0000 0000 0000 0000 0000
000002a0: 0000 0000 0000 0000 0000 0000 0000 0000
000002b0: 0000 0000 0000 0000 0000 0000 eba0 45bb
000002c0: 0000 0000 0000 0000 1210 72ba b4f0 7a39
000002d0: 63b5 b5ba 0b36 dbbb bce2 8bba 0000 0000
000002e0: 622f 5339 80d1 4b39 0000 0000 0000 0000
000002f0: 0000 0000 b44f a23a 91ba 103a 4699 42ba
00000300: 23b5 98ba f094 623a 0000 0000 ac17 25ba
00000310: 0000 0000 0000 0000 283a 10bb c802 35bb
00000320: a9c8 f2b9 0000 0000 0000 0000 8124 9bb8
00000330: 0ccf afb6 4cf7 3eb9 a056 5dba e0d0 22b9
00000340: 0000 0000 100b 0937 f063 2539 0000 0000
00000350: 0000 0000 0000 0000 f7da 97b7 6cae cf38
00000360: 267a 9ab7 f7f2 07b9 389e 1c39 0000 0000
00000370: ac74 f3b8 0000 0000 0000 0000 a42c c2b9
00000380: 84ec 14ba 92f1 053a 0000 0000 0000 0000
00000390: 22ee 8db9 c0ff 5738 0000 0000 0000 0000
000003a0: 763a cfb8 0000 0000 6048 e4b7 3431 773a
000003b0: 0000 0000 0000 0000 0000 0000 2538 a8b8
000003c0: 09d7 38b9 74c4 beb9 0000 0000 56fb 323a
000003d0: 0000 0000 0000 0000 0000 0000 0000 0000
000003e0: fb4b cf39 a1c4 0bb9 ee58 f13a 0000 0000
000003f0: 0000 0000 2ddc b4ba 8c08 2d3a 3fa5 1438
-8.655166e-05 0.0 0.0 5.9006827e-05 0.0 0.0 0.0 0.0
0.0 1.7072316e-05 -0.00014178755 0.0 0.0 0.0 -4.7437907e-06 0.0
7.553145e-05 0.0 -0.00010484183 0.0 0.0 0.0 0.0 -5.4509717e-05
2.6074926e-05 0.0003588313 0.0 0.0 -0.00021999885 8.1969505e-05 0.0 0.0
-0.00010038943 0.0 -1.6976926e-05 0.00064161967 0.0 0.0 0.0 -5.1143164e-05
-9.5995085e-05 -0.00028798534 0.0 0.00047674513 0.0 0.0 0.0 0.0
0.0002722048 -9.4003975e-05 0.00037337217 0.0 0.0 -0.00034899142 0.00020270364 0.0
0.0 -0.00011105352 0.0 -8.81121e-05 0.0006797354 0.0 0.0 0.0
-0.00010649818 -0.00010435967 -0.00031272287 0.0 0.00045841123 0.0 0.0 0.0
0.0 0.00021936624 -0.00013982729 0.002320861 0.0 0.0 0.00047478927 0.00011829566
0.0005171529 0.0013666898 -0.00019357601 0.0 -0.0003650601 0.0040578637 0.0 0.0
0.0 -0.0009696622 -0.00062186725 -0.00030610428 -0.00037372552 0.0026251473 0.0 1.8244338e-05
0.0 0.0 0.0017506847 -0.0014713013 -0.001681295 0.0 0.0 0.0
-1.8141389e-05 0.00046550762 -0.002987789 -0.00043314337 0.0 0.0008208603 -0.0054502347 0.0
0.0 0.0 0.0019181388 0.00058963295 -6.902651e-07 -7.441407e-05 -0.002040152 0.0
-0.00036111954 0.0 0.0 -0.0011907872 -0.0010849959 -0.0022899176 0.0 0.0
-1.1525899e-05 -8.4904095e-05 0.00024289975 -0.0038524228 -0.0006310126 0.0 0.0008559185 -0.0049182596
0.0 0.0 0.0 0.0016254134 0.00074337213 5.626718e-05 -0.00013569498 -0.0019034308
0.0 -0.00053469255 0.0 0.0 -0.0017052556 -0.002058639 0.0 0.0
0.0 0.0 0.0 0.0 0.0 0.0 0.0 0.0
0.0 0.0 0.0 0.0 0.0 0.0 0.0 0.0
0.0 0.0 0.0 0.0 0.0 0.0 0.0 -0.003015573
0.0 0.0 -0.0009233962 0.00023931527 -0.0013863262 -0.006689792 -0.001067243 0.0
0.0002014018 0.00019437633 0.0 0.0 0.0 0.0012383373 0.00055209646 -0.0007423352
-0.0011650663 0.0008643409 0.0 -0.0006297778 0.0 0.0 -0.002200732 -0.0027620066
-0.0004630734 0.0 0.0 -7.397775e-05 -5.23951e-06 -0.00018211937 -0.0008443389 -0.00015527336
0.0 8.168412e-06 0.00015772856 0.0 0.0 0.0 -1.8102566e-05 9.903018e-05
-1.841511e-05 -0.00012965115 0.0001493626 0.0 -0.00011608875 0.0 0.0 -0.00037035823
-0.00056809955 0.0005109544 0.0 0.0 -0.00027071038 5.149818e-05 0.0 0.0
-9.8814184e-05 0.0 -2.721342e-05 0.0009429634 0.0 0.0 0.0 -8.021322e-05
-0.00017627714 -0.00036385993 0.0 0.0006827613 0.0 0.0 0.0 0.0
0.00039538727 -0.00013329323 0.0018413344 0.0 0.0 -0.0013798528 0.00066007 3.5439847e-05

p f4 [1, 25]
00000000: 1297 8bbe 3443 50bd 5d65 4b3e 5799 7ebe
00000010: a695 58bd c440 183e 3b8d 1dbe 3a0d 15bc
00000020: 007a f7bd 92c5 7c3e 088c 40bb c475 663d
00000030: dd6a d8bd 25b8 233e caea 493e 893e f93d
00000040: 6f63 d83d 79b2 c53d 9bb9 bcbe 2c8e 313e
00000050: ebd5 32be 948b 763d 1f32 383e a2a2 ce3d
00000060: aa58 513e
-0.27263695 -0.05084534 0.19862886 -0.24863182 -0.05287709 0.14868456 -0.15385906 -0.009097392
-0.120838165 0.24684742 -0.002938034 0.056264654 -0.105672576 0.15988214 0.19718471 0.12170131
0.105658405 0.096531816 -0.36860356 0.1733939 -0.17464416 0.060191706 0.1798787 0.100896135
0.20443979

grad f4 [1, 25]
00000000: 6cfa 4dba 0000 0000 0000 0000 96b8 83b9
00000010: 7358 4239 ec25 a539 c46b e8bb 666f acba
00000020: 0000 0000 a8bd 263a 9053 4ebb 0000 0000
00000030: 0000 0000 0000 0000 6e22 973b f22a 9239
00000040: 6303 c8ba b2d2 00bb 4d14 e03a 0000 0000
00000050: 2270 4fba 0000 0000 0000 0000 e453 96b9
00000060: 9ece b4bb
-0.0007857445 0.0 0.0 -0.00025123794 0.00018534232 0.00031499506 -0.007092925 -0.0013155758
0.0 0.00063606584 -0.0031482913 0.0 0.0 0.0 0.0046122586 0.00027879287
-0.0015259798 -0.0019656834 0.0017095894 0.0 -0.00079131324 0.0 0.0 -0.00028672733
-0.0055177948

x f4 [100, 25]
00000000: 689d a53e c86e de3c 0000 0080 0000 0080
00000010: 99ec 333f 0000 0080 0000 0080 df43 263f
00000020: 6a98 d63e a454 0e3f 0000 0080 8d6e 313f
00000030: 0000 0080 fa1d 343d 0000 0080 f6e5 873f
00000040: 0000 0080 0000 0080 0000 0080 0000 0080
00000050: 0000 0080 d413 6a3c 6883 533d 7363 303e
00000060: 8ef5 ba3e 0000 0080 0000 0080 3aad 023f
00000070: 0000 0080 242a 0d3e cb96 893e 0000 0080
00000080: 2f27 c23c 0000 0080 daee a23d 0000 0080
00000090: 3254 533e c8e3 0b3c 4046 e13e 5897 353f
000000a0: 0000 0080 0000 0080 0000 0080 0000 0080
000000b0: c5a7 163e d8ad 883d 0000 0080 fc59 2a3e
000000c0: 4220 be3d 1e88 cc3e 7414 5c3e 0000 0080
000000d0: d679 ff3d 0000 0080 0000 0080 b3dc 7a3e
000000e0: 51a3 7e3e e562 d83e e832 863d f925 383e
000000f0: 2773 203f 0000 0080 7ecf 243e 0000 0080
00000100: 609f 593c 8099 b63e 2085 913e a110 423f
00000110: 0000 0080 50f4 733e 0000 0080 aef6 6f3e
00000120: 8003 0a3e 15fe 183f 0041 ba3d df48 053f
00000130: 0000 0080 55ee 323e 0000 0080 0000 0080
00000140: 320a 9b3e 179e 3f3e f734 323f 825b 673e
00000150: 92ed 6d3e 9c72 4b3f 807b 1e3d e010 7b3e
00000160: 2868 df3c 0000 0080 1c16 183f 82c7 443e
00000170: 098c 823f 0000 0080 80a6 2c3d 0000 0080
00000180: 022b 893e ea36 ad3d 2b85 593f 14d0 7a3d
00000190: 0000 0080 0000 0080 ecfb 723e 0000 0080
000001a0: 0000 0080 f783 3c3e 75f4 223e 33af 0a3e
000001b0: 0000 0080 c293 1f3e 7695 a03e 0000 0080
000001c0: ba49 003e ac7a 0b3e d800 4c3e cf20 1a3e
000001d0: 700b 6c3e 0fe5 003f 0000 0080 82f4 9e3e
000001e0: 0000 0080 6cc6 133e 1a04 3b3e f692 893e
000001f0: 3544 813e 3e97 d03e 0000 0080 4400 133e
00000200: 0000 0080 0000 0080 4629 923e 02a5 a83d
00000210: ad9e 203f 3efc 483e 33b4 583e 823a 283f
00000220: f20c 573d 22af 523e a066 0f3c 0000 0080
00000230: 9c24 0c3f 36c4 303e fa75 673f 0000 0080
00000240: 3a91 923d 0000 0080 94f2 793e 987a a33d
00000250: 184d 403f 9c83 9e3d ee8a 0c3e 0000 0080
00000260: 0000 0080 0000 0080 48cd b63e 0000 0080
00000270: 0000 0080 1cb1 023f e8ad 6b3e eebf c23e
00000280: 0000 0080 1466 ce3e 0000 0080 0000 0080
00000290: 0000 0080 5c09 2c3f 7108 a93d 501c 513e
000002a0: 0000 0080 0328 813d 0000 0080 c4d1 de3d
000002b0: a056 2c3d c04e 8d3e a5f6 6a3e 0000 0080
000002c0: 0000 0080 0000 0080 0000 0080 738d 963e
000002d0: 0000 0080 0000 0080 7e3e 803e b069 ff3c
000002e0: 957c 973e 0000 0080 d864 983e 0000 0080
000002f0: 9ea5 dc3d 133d 0a3e 2dbe d43e 0e18 b23d
00000300: ab98 0e3d 0000 0080 b5de 343e 0000 0080
00000310: 2976 f63d 4152 e63d 043e 443e 8f33 5b3e
00000320: 0000 0080 0000 0080 dee3 333e 0000 0080
00000330: 0000 0080 5eb1 1f3e 0000 0080 8da6 0a3e
00000340: 0000 0080 3672 313e 3596 f13d 0000 0080
00000350: d236 443d ddb8 ee3d 45d9 623e c38a 2f3e
00000360: cec7 283e 0ab8 b53e 0000 0080 2816 903e
00000370: 0000 0080 f710 d13d cbeb 103e e91e 763e
00000380: 9abc 773e 0000 0080 bcc7 0d3e 0000 0080
00000390: 0000 0080 7183 4e3f 0000 0080 0000 0080
000003a0: 6876 873e 80a8 fe3d 7e23 9f3e 0000 0080
000003b0: 1a25 f23e 0000 0080 9ace e93e 0000 0080
000003c0: 0444 273f 0000 0080 0000 0080 0000 0080
000003d0: 5fe5 a63e 0000 0080 12cf 9b3e 10c3 303e
000003e0: 904a 3d3c 01af 303e 0000 0080 eeb8 d03d
000003f0: 8856 f33d 0000 0080 eb02 e83e 0000 0080
0.32346654 0.027152434 -0.0 -0.0 0.70282894 -0.0 -0.0 0.64947313
0.41913158 0.555979 -0.0 0.6930931 -0.0 0.0439739 -0.0 1.0617054
-0.0 -0.0 -0.0 -0.0 -0.0 0.014286954 0.05163899 0.17225437
0.36515468 -0.0 -0.0 0.5104557 -0.0 0.13785607 0.26872858 -0.0
0.023700325 -0.0 0.079557136 -0.0 0.20637587 0.008538194 0.4399891 0.7093406
-0.0 -0.0 -0.0 -0.0 0.14712436 0.06673783 -0.0 0.16635889
0.092834964 0.399476 0.21492177 -0.0 0.1247441 -0.0 -0.0 0.24498253
0.24866988 0.4226295 0.06552678 0.17983235 0.6267571 -0.0 0.16094777 -0.0
0.013282627 0.35663986 0.2842188 0.75806624 -0.0 0.23823667 -0.0 0.23433945
0.13477898 0.597627 0.09094429 0.5206432 -0.0 0.17473729 -0.0 -0.0
0.30281216 0.1871265 0.6961207 0.22593501 0.23235157 0.79471755 0.038691998 0.24518156
0.027271345 -0.0 0.59408736 0.19216731 1.0198985 -0.0 0.042150974 -0.0
0.26790625 0.0845774 0.84968823 0.061233595 -0.0 -0.0 0.23728913 -0.0
-0.0 0.18409716 0.15913565 0.13543396 -0.0 0.15583709 0.3136403 -0.0
0.12528124 0.13621014 0.19922197 0.15051578 0.23051238 0.50349516 -0.0 0.3104592
-0.0 0.1443116 0.18263283 0.26869935 0.2524735 0.4074039 -0.0 0.1435557
-0.0 -0.0 0.28547114 0.08234598 0.6274212 0.19627473 0.2116249 0.65714276
0.05250258 0.2057462 0.008752495 -0.0 0.5474336 0.17262349 0.9041439 -0.0
0.07156606 -0.0 0.24408942 0.07982367 0.75117636 0.07739946 0.13724872 -0.0
-0.0 -0.0 0.35703492 -0.0 -0.0 0.510515 0.23015559 0.38037056
-0.0 0.40312254 -0.0 -0.0 -0.0 0.6720178 0.08253563 0.20420957
-0.0 0.0630646 -0.0 0.10879853 0.0420748 0.27599144 0.2294565 -0.0
-0.0 -0.0 -0.0 0.29404792 -0.0 -0.0 0.25047678 0.031178325
0.29587236 -0.0 0.29764438 -0.0 0.107737765 0.1349986 0.41551343 0.08695994
0.034813564 -0.0 0.17663081 -0.0 0.12034256 0.112461574 0.19164282 0.21406387
-0.0 -0.0 0.17567393 -0.0 -0.0 0.15595004 -0.0 0.13540097
-0.0 0.17328724 0.11796228 -0.0 0.047903843 0.116563536 0.22153194 0.17142777
0.1648247 0.35491973 -0.0 0.28141904 -0.0 0.10208314 0.14152448 0.24035229
0.2419304 -0.0 0.13845724 -0.0 -0.0 0.80669314 -0.0 -0.0
0.26457524 0.124344826 0.31081766 -0.0 0.4729393 -0.0 0.45665437 -0.0
0.6533816 -0.0 -0.0 -0.0 0.3259687 -0.0 0.3043142 0.1726191
0.011553422 0.17254259 -0.0 0.101915225 0.11881739 -0.0 0.45314726 -0.0

x f4 [25, 25]
00000000: e654 1ebc 7e32 b33d e4b5 713d 1a00 f9bd
00000010: 227e 5ebd cb24 673e 2bd4 963d 638f b53d
00000020: 7a13 3cbe 10ed fabd 5b36 88be 7e4d 01be
00000030: 289f 4bbc a2ae c13d 27a2 4bbe 16a6 a03d
00000040: 4e18 cabd b7c6 ac3d b1b0 71bd 0548 b2bc
00000050: 1dc2 bebd cd20 02be 22c6 3fbe 5b61 1e3e
00000060: f8e7 8bbd 5437 94bc 659c 37be 7b15 3bbe
00000070: a7fa 0e3e 25a3 d93d a2b8 fb3d 476d 02be
00000080: 9714 3fbd 4c36 13bd 0c35 b9bd 5675 c73d
00000090: ec02 713d 1bf0 3cbe 3dc7 393e 53a6 023e
000000a0: 7070 e9bd e5d9 1ebe 1c4f 983d 058b 2c3e
000000b0: 1e68 ba3d a8ac 38bd 71aa 293e 1bab 103e
000000c0: 74b4 a73d 3787 2dbe 7c36 2c3e 4f23 3bbe
000000d0: cceb 603d c7a3 b4bd 2e75 debd 5884 163e
000000e0: 99e1 9e3d 2b7f cbbd 0b25 13be 762a 9b3d
000000f0: 06ef bcbd a884 babc c6f3 863d 7a3b 34bc
00000100: c767 3d3d 6000 20be 9a42 323e b6c2 cabc
00000110: c79e 4abc d045 0e3e 53f4 04be f987 1e3e
00000120: bfb5 153e 0d02 12be 7235 42be 00ac 1039
00000130: 6318 2abe 20f3 63bc 0095 91bb 7541 0ebe
00000140: 591b 163e e9c0 023e 229c c53d 40ec 923c
00000150: a8c6 173d 0f5c 393e 364d 09be 3ddd 34be
00000160: da26 ab3d af48 203e b6a5 f13d 47d3 bdbd
00000170: 7297 d43d 8b44 153e 3521 3cbe 789c 0f3d
00000180: 07df bbbd 7a30 f6bd a247 c53d 6c66 143d
00000190: 9183 a53d 18da c53c 3074 e6bc 9c30 a4bd
000001a0: a8ef 00be da49 bebd 87d7 12be 59b7 173e
000001b0: 0bb1 2fbe 24c0 bf3d a6f4 07be 78d0 6ebd
000001c0: 7d76 2fbe e10e e23d 6f7d c2bb dd78 723e
000001d0: 58b8 933d 614b c63d 6080 8dbe e8b2 31be
000001e0: de13 f5bd 309e adbc 600a d4bd ce2f 743e
000001f0: f9e2 c6bd ca6b 04bd c1e7 153e f943 023e
00000200: a60f 3d3d 0c9b 46be 97be 653e bbb8 9ebd
00000210: 6898 513d 8948 2d3e b4d1 cc3d ba74 e33b
00000220: 5438 4ebd 73f4 25be 9b72 f23c eaf5 01be
00000230: 86a0 1e3e a0e7 c7bd 18a2 503b 3013 893d
00000240: f0a1 bb3d f3d3 293e 6043 313d 544f 213d
00000250: b11b 053c b607 22bd fda3 39be 756c 1fbe
00000260: 8288 02be 93ac 9c3d 3204 883d c0fa 233e
00000270: 60e8 973e b743 2ebe e189 0a3e e5ac 62be
00000280: 8572 9dbe a895 6fbd f564 f7bc 009a 42bd
00000290: 4d35 5d3e c6c1 b63e 0289 8cbd f87e d73d
000002a0: 2444 8fbe 09c2 9d3c c127 8cbb 40d2 a2bb
000002b0: 5c73 653d 49d4 ba3c e40f 0c3e edec 7c3d
000002c0: e0bd 7ebd 7ba8 19be 5a8e 023e 2849 cdbd
000002d0: c02a 10be ca40 ee3d d06c 6ebd b415 91bd
000002e0: 1f86 f63d fa2e ec3d b068 7e3c 8628 92bd
000002f0: e015 c03d a9a6 23bd bdd7 653e 2630 223e
00000300: 7168 ad3c 2034 363d 7ba3 b23a 3e83 4b3d
00000310: 5dd3 c1bd 1ecf 19be d0af 36bc ff22 c7bd
00000320: 0928 2d3e 6746 3a3e 919a 1e3e b9b4 a3bd
00000330: f0a0 133e db0c 30be bc98 3dbd 2739 953d
00000340: a07a 2dbd 8fdf e43d 1a6e 33be c895 05bd
00000350: 6a3c 4bbc 6ba2 49be fd4b 06be b705 813d
00000360: c9eb 253d ee1e d5bd 6f53 1c3d d59a 4b3d
00000370: d02c 043e c0d2 413d ba42 35be 248e bcbd
00000380: f62d 45be 9539 1a3e 58ba 74bd 54fa 473d
00000390: 2bd3 783c 24ea 183e 0cc7 dd3d 5333 53be
000003a0: 9cf0 d6bd b37b bfbd 57fa 22be 1aeb 16bc
000003b0: 4069 babd f4db 91bc a4cb d63d 8416 cb3b
000003c0: 1333 8f3c 4b4c 01be 8364 31be 5d9e bb3d
000003d0: b104 adbc e13c 1abd d65b 19be 34e5 2ebd
000003e0: 9341 423d 9bf9 2e3e dfc6 90be c636 803d
000003f0: 83f6 bebd 14bb e8bd 573f 4abe 02cf 9c3e
-0.009663796 0.08749865 0.059011355 -0.121582225 -0.05431951 0.22572629 0.073646866 0.088652395
-0.18366805 -0.12252247 -0.2660397 -0.12627217 -0.0124280825 0.09457137 -0.19886075 0.078441784
-0.09867917 0.08436339 -0.059006397 -0.021762857 -0.09314368 -0.12707825 -0.18727925 0.15466826
-0.06831354 -0.018092789 -0.17930754 -0.18269913 0.13962804 0.106268205 0.12291075 -0.12736998
-0.046650495 -0.035940453 -0.09043321 0.09739177 0.058840677 -0.18450968 0.1814241 0.1275876
-0.11398399 -0.15512808 0.07436964 0.16849907 0.0910189 -0.045086533 0.16568924 0.14127772
0.081887156 -0.16946112 0.16817659 -0.18275188 0.054912373 -0.088203005 -0.10862194 0.14698923
0.07757873 -0.09936365 -0.143696 0.07576458 -0.092252776 -0.022768334 0.06589465 -0.011000508
0.046241548 -0.15625143 0.17408219 -0.024751049 -0.012366957 0.13893819 -0.12983827 0.15481557
0.14620112 -0.14258595 -0.189657 0.00013796985 -0.16610865 -0.013912946 -0.004442811 -0.13892157
0.1465887 0.12768902 0.096489206 0.017934918 0.037054688 0.18101524 -0.1340836 -0.1766252
0.0835702 0.15652727 0.11799185 -0.092688136 0.103804484 0.14576928 -0.18372042 0.03506133
-0.091733985 -0.12020965 0.096328035 0.03623049 0.08081735 0.024151847 -0.028131574 -0.08017084
-0.12591422 -0.0929143 -0.1434003 0.14816035 -0.1715738 0.0936282 -0.1327692 -0.05830428
-0.17135043 0.11037994 -0.005935363 0.23678918 0.07212895 0.09682346 -0.27637005 -0.17353404
-0.1196668 -0.021193594 -0.103535414 0.23846361 -0.0971126 -0.03232936 0.14639188 0.12721242
0.0461575 -0.19395083 0.22435986 -0.07750078 0.051170737 0.16922201 0.10000935 0.006941405
-0.050346687 -0.16206531 0.029595664 -0.12691465 0.15490922 -0.09760976 0.0031834897 0.06693113
0.091617465 0.16584758 0.043277144 0.039382294 0.008124278 -0.039558135 -0.18128963 -0.15568717
-0.12747386 0.076501034 0.06641425 0.16013622 0.29669476 -0.17018019 0.13529159 -0.22136267
-0.30751434 -0.058492333 -0.030199507 -0.047510147 0.21602364 0.35694712 -0.0686207 0.10522264
-0.27981675 0.019257562 -0.0042772 -0.0049689114 0.05601822 0.022806304 0.13677937 0.061749388
-0.062192798 -0.15005676 0.12749615 -0.10023719 -0.14078808 0.11633451 -0.05820924 -0.07084218
0.120373 0.115323976 0.015527889 -0.071366355 0.09379172 -0.03995386 0.22445579 0.1583868
0.021167966 0.044483304 0.0013629043 0.04968571 -0.094641425 -0.15020415 -0.011150315 -0.09723472
0.16909803 0.18190919 0.1548865 -0.079934545 0.14416862 -0.17192404 -0.046288237 0.072862916
-0.042353272 0.11175453 -0.17522469 -0.032613546 -0.012404541 -0.19690864 -0.13114925 0.06299918
0.040508065 -0.1040629 0.038165506 0.049708206 0.1290772 0.047320127 -0.17701235 -0.09206799
-0.19255814 0.15061028 -0.059748024 0.048822716 0.015187065 0.14933068 0.10828981 -0.20625047
-0.10495111 -0.09349766 -0.1591581 -0.009211326 -0.09102106 -0.017805077 0.1048806 0.0061977524
0.017480409 -0.1262676 -0.17323498 0.09161065 -0.021120401 -0.037655715 -0.14976439 -0.042699054
0.047425818 0.17087404 -0.28276727 0.06260447 -0.09324362 -0.11363807 -0.19750725 0.30626684

b f4 [1, 25]
00000000: 0000 803f 0000 803f 0000 803f 0000 803f
00000010: 0000 803f 0000 803f 0000 803f 0000 803f
00000020: 0000 803f 0000 803f 0000 803f 0000 803f
00000030: 0000 803f 0000 803f 0000 803f 0000 803f
00000040: 0000 803f 0000 803f 0000 803f 0000 803f
00000050: 0000 803f 0000 803f 0000 803f 0000 803f
00000060: 0000 803f
1.0 1.0 1.0 1.0 1.0 1.0 1.0 1.0
1.0 1.0 1.0 1.0 1.0 1.0 1.0 1.0
1.0 1.0 1.0 1.0 1.0 1.0 1.0 1.0
1.0
